models/ddqn/ddqn_model.pth (torch, 46884 bytes, 8 tensors)

fc1.weight f4 [128, 3]
000000 ac 53 47 bf b9 65 b5 bc 10 27 e3 3e 98 21 d1 3c
       -0.7786205 -0.022143232 0.4436574 0.025528714
000010 eb ca 73 bf 0d eb 65 c0 43 35 f2 be 63 79 5a 3e
       -0.95231503 -3.5924714 -0.4730626 0.21335368
000020 24 f4 6e 3e 7b 03 b8 3d 13 ff 8d bf 09 74 81 3f
       0.2333532 0.08985039 -1.1093467 1.0113536
000030 04 36 e9 bd ee bb c3 be c8 cd a6 3e 14 b2 ec 3b
       -0.11387256 -0.38229316 0.32578874 0.007223377
000040 0e 48 a3 bb ca e2 05 bf d7 3c 03 bf d0 e0 5c 3e
       -0.004982955 -0.5229918 -0.5126471 0.21570134
000050 84 6a 5e bd 12 87 e3 be 20 df 2f be 98 e4 bb 3e
       -0.0543008 -0.44438988 -0.17174959 0.3669784
000060 06 49 35 bd ef b3 85 3c aa c8 d0 bf 40 e2 a6 bf
       -0.044259094 0.01632115 -1.6311238 -1.3037796
000070 f0 5a 09 3f 87 18 7b bf c7 f5 b9 be 51 95 af be
       0.53654385 -0.980843 -0.36320326 -0.34293607
000080 74 71 12 3f e3 0c 06 3f 69 49 61 3e e8 7a cc be
       0.57204366 0.52363414 0.2200066 -0.3993752
000090 df 3b d1 be 99 1d 15 be 00 5d 42 bd c5 ef 1a 3c
       -0.4086599 -0.14562072 -0.047451973 0.00945658
0000a0 1c 01 08 bf af 6f 96 be ce 4d 12 bf 28 6a 48 3e
       -0.5312669 -0.29382083 -0.5714997 0.19571745
0000b0 1e cd a9 be bf 68 49 bf 4c 7d 9c 3e 44 6a 6c 3f
       -0.33164304 -0.78675455 0.30564344 0.9234965
0000c0 cc a7 9d be 16 bd ff be 40 ca 2d 3d 76 1e ec be
       -0.3079208 -0.4994895 0.04242921 -0.4611699
0000d0 ed 52 45 3e 2b 6a 86 bf 4c 2c 06 3e c7 96 37 c0
       0.19269915 -1.050115 0.13102835 -2.8685777
0000e0 7f f2 b2 be 4f 48 9c bd 84 2e b9 3d 78 08 c4 be
       -0.34950635 -0.07630979 0.09042075 -0.3828771
0000f0 a4 33 18 bf 44 5a 96 3f 89 a0 c7 be fd c4 cb 3d
       -0.594538 1.1746297 -0.38989666 0.09949682
000100 95 53 c7 bc 1c 02 36 bf 29 c2 85 3b f4 fe 85 be
       -0.024331847 -0.7109697 0.0040819836 -0.26171076
000110 19 13 77 bf 32 d0 ac bf b6 d1 3c 3f bb a5 56 40
       -0.96513516 -1.3501036 0.73757493 3.3538654
000120 05 d9 cb 3d 21 d5 2a be 7c 86 31 bf e4 27 5e be
       0.099535026 -0.16682865 -0.6934583 -0.21694905
000130 78 ed e9 bd c8 3b 07 3f 83 87 68 3c d4 63 9c bf
       -0.11422247 0.52825594 0.014192465 -1.2217965
000140 f9 1a 7d 3f fd 63 3b bf 5f 77 bf 3e 0d 87 44 bf
       0.9886928 -0.73199445 0.3739576 -0.7676857
000150 36 8a 41 bf 61 3b 39 3d 2e c7 3f be 24 ef a5 3d
       -0.7560152 0.045222644 -0.18728325 0.08102253
000160 3e 36 15 bf c7 ac ac bf 76 fb a2 3c f2 d5 dc be
       -0.5828589 -1.3490227 0.019895297 -0.43131977
000170 b4 ca e8 3e 30 23 7f 3d 46 43 25 3d 66 82 91 3e
       0.4546715 0.062289417 0.04034736 0.284198
000180 26 8e 29 3e 7f 58 6e bc 32 3a 92 40 46 d8 ef bc
       0.16558132 -0.014547466 4.569604 -0.029277932
000190 9a ac 33 bf 75 da 2a 3f 7a f4 ac 3c c7 88 6f bf
       -0.70185244 0.6673959 0.02111267 -0.9356808
0001a0 bb 78 89 bf 1f e5 9c be 6c d6 b9 bd f0 9a 35 3e
       -1.0739969 -0.30643556 -0.09074101 0.17734885
0001b0 c8 d1 4c be a1 30 fc 3d d4 df 13 40 c9 51 28 bf
       -0.200019 0.12313963 2.3105364 -0.65749794
0001c0 68 00 a5 bd ac 51 17 3e 25 92 f5 3e f0 17 1a bf
       -0.08056718 0.14777249 0.47963062 -0.60192776
0001d0 42 60 6c 3f 06 8c 0c bf 62 86 cd be 00 b1 92 3e
       0.9233438 -0.5490116 -0.40141588 0.28650665
0001e0 f2 34 eb 3c 02 f4 34 bf 4d e4 ff be 12 f4 f8 be
       0.02871177 -0.70684826 -0.49978867 -0.4862371
0001f0 b8 6f a7 be 78 1a cb 3e 56 9d 97 be 00 12 b2 3b
       -0.32702422 0.39668632 -0.29612225 0.0054342747
000200 40 73 e9 3c 80 51 35 bd c4 e2 bd bd f0 f1 9f 3d
       0.028497338 -0.044267178 -0.09271768 0.07809818
000210 58 b1 d7 be 5f 06 13 bf 60 d7 ff 3e 09 df 26 bf
       -0.4212749 -0.57431597 0.49969006 -0.65184075
000220 5a 62 9b 3e 66 fa fe be d0 34 bd bd ac 5c 27 bf
       0.30348474 -0.49800414 -0.09238589 -0.6537578
000230 eb bb fc bf 6e 95 c3 be a0 8f 2b bd 20 a4 fb bd
       -1.9744848 -0.38199943 -0.04188502 -0.12287164
000240 ec 41 d1 bd 3f 59 15 3e 04 6c 9b bf d9 2f e2 be
       -0.10217652 0.14584826 -1.2142339 -0.4417713
000250 d0 00 f8 3d f6 38 05 bf f9 1c de 3c d5 8e 32 3e
       0.1210953 -0.5204004 0.027113425 0.17437299
000260 35 9b 3e bf 05 1f 12 bf 08 ab 1a 3e 2e e3 77 be
       -0.7445558 -0.5707858 0.15104306 -0.24207756
000270 01 3f 01 bf 43 f6 3b 3e 58 94 fc 3e b6 c1 91 be
       -0.5048676 0.1835566 0.49331927 -0.28468102
000280 a2 bb 17 3e 93 c0 05 c0 48 3f ab be 70 0a 36 bd
       0.1481767 -2.0898788 -0.33446717 -0.044443548
000290 fa bf ee be ae 64 d7 3c cd 83 3a 3c a7 0d 58 be
       -0.46630841 0.026293125 0.011383963 -0.21098958
0002a0 ed a7 06 bf de 96 7e be f7 83 aa be d8 6c 20 3e
       -0.52599984 -0.24862239 -0.33303806 0.1566652
0002b0 30 d3 34 be 64 34 8a bf e8 61 8d be 9a 66 24 3e
       -0.17658687 -1.0797238 -0.2761376 0.16054764
0002c0 12 7c dc 3e b2 f9 3d be 40 7e ad bd 5c b5 30 be
       0.43063408 -0.18552282 -0.08471346 -0.17256683
0002d0 d8 23 b4 be 5e 3e 91 be 6c 35 bf be a2 5f 69 3e
       -0.35183597 -0.28367895 -0.37345445 0.22790387
0002e0 c2 70 c0 be c7 07 02 3f cc 77 be bd 63 a5 76 be
       -0.37586027 0.5079312 -0.09300193 -0.24086528
0002f0 6f 13 8a bf 3e 4a ba 3d 88 35 1d bf 8c 8c b0 be
       -1.0787181 0.09096192 -0.6140981 -0.3448223
000300 8a a3 1e be d6 ed b8 be 30 ae 68 3d b8 18 f0 be
       -0.15492073 -0.36118954 0.056806743 -0.4689386
000310 60 85 81 bd a0 06 d0 3c 48 6d e7 be b8 76 c2 bd
       -0.063242674 0.025393784 -0.45200562 -0.094953
000320 f8 9d ba 3e 1d b0 9f be 52 7d 01 bf d0 70 46 bd
       0.36448646 -0.3118905 -0.5058185 -0.04844743
000330 8c af 31 bf e6 a0 a7 3e 99 e6 16 bf 57 78 f1 be
       -0.6940849 0.32739943 -0.58945614 -0.47162125
000340 bb a8 6c 3e c4 f0 2f bf 82 31 bd 3c 0d 27 d6 be
       0.2311124 -0.68726754 0.023094896 -0.41826668
000350 95 2e 08 3c 7e 55 df bf bd 2c 3c 3f 81 3d fe bd
       0.008311887 -1.7447965 0.73505765 -0.12414075
000360 0e dd dd bd e4 db f7 be e6 73 01 40 05 a3 a4 be
       -0.108331785 -0.4840995 2.0226989 -0.32155624
000370 37 cf f2 be 5a 73 0b be cd f2 63 3d ad 2a 05 bf
       -0.47423717 -0.13618222 0.055651475 -0.52018243
000380 16 4b 16 3f 7f 2d 35 3d af ca 85 be a7 23 6a bf
       0.5870832 0.04423284 -0.26131198 -0.9146065
000390 b2 e6 30 be eb 0c 0a bd 24 9c 09 be c0 a8 00 bd
       -0.17275503 -0.033703726 -0.13438469 -0.031410933
0003a0 68 3d f2 bd 8a 79 cf 3e 34 ef 85 3d b0 73 93 bd
       -0.118281186 0.40522414 0.06539765 -0.071998
0003b0 f1 ca 31 bf 15 77 b5 be e2 73 3f 3e f6 74 79 bf
       -0.6945029 -0.35442415 0.1869655 -0.97444093
0003c0 6b b3 06 bf 40 d2 1e 3e 49 43 e1 be 57 df 5e bd
       -0.5261752 0.15509892 -0.43996647 -0.054412212
0003d0 3f de bf be 41 20 ab 3e 46 6c 04 bf e6 f2 49 be
       -0.37474248 0.33423045 -0.5172771 -0.19721565
0003e0 e4 a5 8f be ea 48 bc be 8c ce 90 3d ba a2 81 3c
       -0.28056252 -0.3677438 0.07070646 0.015824664
0003f0 13 b5 81 3e 78 fb 72 3d 14 94 30 3f 69 ed 98 be
       0.2533346 0.05932185 0.6897595 -0.2986863

fc1.bias f4 [128]
000000 5f c9 b1 3e 71 23 c4 3e e6 42 23 bf d4 bd f3 bf
       0.34723946 0.3830829 -0.63773954 -1.9042306
000010 80 e6 b7 bb 02 ba 8a be 0d 07 94 be 12 b1 e1 be
       -0.0056121945 -0.27095038 -0.2891163 -0.44080406
000020 e3 d0 0d 3c 42 d3 85 3f 20 80 89 3c 7a e8 87 c0
       0.0086557595 1.0455096 0.016784728 -4.2471285
000030 25 e2 13 bf dc ff ca 3d 74 0a cf bd 42 25 3a bd
       -0.57766944 0.099120826 -0.10109416 -0.045445688
000040 04 04 f9 3e 83 91 00 be 11 6c 77 40 f3 bf 19 bf
       0.48635876 -0.12555508 3.8659708 -0.60058516
000050 3a 02 01 40 f5 b5 0e c0 6c 48 05 3d b8 fb 61 3f
       2.015761 -2.2298558 0.03253977 0.8827472
000060 2d 8a 0a c0 50 b3 f4 3e 26 47 1a 40 2d 74 8e 3f
       -2.1646836 0.47793055 2.4105926 1.1129204
000070 b5 a9 34 bf 3e e7 94 bf 90 c3 19 bf 37 a7 03 c0
       -0.7057145 -1.163307 -0.6006403 -2.057081
000080 ff 3b 56 c0 74 fc cf bf a9 dd ad 3e 70 73 10 3d
       -3.3474119 -1.6248918 0.33958176 0.03526634
000090 39 50 92 bf 61 d0 9a be 83 6a 63 c0 fd ca aa be
       -1.1430732 -0.30237105 -3.553376 -0.33357993
0000a0 f8 c9 8f bc e0 ba 0b bf 50 6f 12 be 18 6e fc 3d
       -0.01755236 -0.54582024 -0.14300275 0.12325686
0000b0 88 cd a9 bd ca ab 35 bf 06 91 81 3f 80 f0 c0 bd
       -0.08291155 -0.70965254 1.0122383 -0.09420872
0000c0 04 ba 88 bf 6e 3c bd 3e 31 75 1e c0 54 d8 fa 3e
       -1.0681767 0.36960167 -2.4759028 0.4899317
0000d0 3c 4e 68 3d 10 d8 b2 be aa 2e ac 3e a8 fa 87 bf
       0.056715235 -0.34930468 0.33629352 -1.0623369
0000e0 a0 c5 12 bf 69 40 4e c0 28 16 06 bf 10 f3 fc 3d
       -0.573328 -3.2226813 -0.5237756 0.12351048
0000f0 04 3b b9 3e 38 38 6a c0 a3 ad 18 3f 84 2f c5 bf
       0.36177838 -3.6596813 0.5963995 -1.5405126
000100 fc 56 83 be 4a c5 5b be 18 e2 7f 3e 50 f6 0c bf
       -0.256523 -0.21461979 0.24988592 -0.55063343
000110 34 c4 06 bf 07 0a de be a4 fd 73 bf 7b 08 43 3f
       -0.5264313 -0.43367025 -0.953089 0.76184815
000120 d3 69 91 be 3f 88 07 bf 63 21 a2 bf 11 a6 53 bf
       -0.2840105 -0.5294227 -1.2666439 -0.8267527
000130 93 9b 2b 3f a6 8f 12 be d9 ec b3 bf 17 9f 3e bf
       0.6703426 -0.1431261 -1.4056655 -0.744615
000140 85 ff bd 3e 9f fa c4 be 50 42 12 3f 5f 98 2b bf
       0.37109008 -0.3847246 0.57132435 -0.67029375
000150 5b 17 8f c0 a8 08 d6 3e 74 72 a1 bd d9 27 f2 be
       -4.471601 0.4180348 -0.07883158 -0.47296026
000160 a9 a4 bc be 28 e8 fc 3d c0 2b a2 3e cb d1 b9 bf
       -0.36844376 0.12348968 0.31674004 -1.4517149
000170 99 31 2d c0 1f 58 2c c0 3b 21 80 c0 02 d5 8e 3e
       -2.7061522 -2.6928785 -4.0040565 0.27896887
000180 c8 48 8d 3d f4 1b 1c 3e 16 f5 86 be 68 6a ed 3d
       0.068986475 0.15245038 -0.2635886 0.11592561
000190 0f 82 9a be e8 5f f5 be d8 6b ac be ec 12 20 3f
       -0.30177352 -0.47924733 -0.33676028 0.6252887
0001a0 76 da f8 be ee 14 9c bd ce 3a f6 be fa ee bf bf
       -0.48604172 -0.076211795 -0.4809174 -1.4994805
0001b0 6c 19 83 3e 5b d8 25 40 94 93 ee 3e ea 13 9c be
       0.25605333 2.5913303 0.46596968 -0.30483943
0001c0 62 77 4b be 54 ef 08 bf 2e 2d e6 be 30 ec 3d 3e
       -0.1986976 -0.53490186 -0.44956344 0.1854713
0001d0 40 fd bd 3e 27 a0 5c c0 28 45 d6 bc 65 38 17 bf
       0.37107277 -3.447275 -0.026156023 -0.59070426
0001e0 5c 39 04 bf 34 bc 61 3e dd 4f 2b bf 6a 05 d9 be
       -0.51650023 0.2204445 -0.66918737 -0.42386943
0001f0 85 8a 01 3f 21 57 3f be 27 13 b7 bf 98 c4 fd 3e
       0.5060199 -0.18685581 -1.430272 0.49564052

fc2.weight f4 [64, 128]
000000 22 1b f8 bc 34 9c 16 be c0 70 99 3c ee 39 4c be
       -0.030286375 -0.14708024 0.018730521 -0.19943973
000010 52 73 59 3d 15 6e 54 be 50 e0 6c be df 58 84 3d
       0.053088494 -0.20745118 -0.23132443 0.06462263
000020 38 ec 6b be d2 d6 a1 bd ea ea 30 3d 45 2b f8 bd
       -0.23039329 -0.07902302 0.04319278 -0.12117628
000030 18 4a 84 bd e0 77 05 3d fd a0 39 bd b1 4e 19 bd
       -0.06459445 0.032585025 -0.045319546 -0.03742856
000040 9a 08 5c bd 28 75 d4 bd 4d 5d 3d be d8 2c ab 3c
       -0.05371914 -0.10373908 -0.18492623 0.020895407
000050 a9 23 96 bd 64 a9 02 be 09 25 66 be f1 a5 5a be
       -0.073310204 -0.1275993 -0.22475065 -0.21352364
000060 a0 f4 04 bc dd 57 8c bd 5a 1d 06 be 3a a6 3e be
       -0.008114964 -0.06852696 -0.13097134 -0.18618098
000070 91 93 a9 3d 97 b9 ab bd 00 0e 13 b9 cf 48 07 be
       0.08280099 -0.08385008 -0.00014024228 -0.13211368
000080 78 86 4c be 4f 85 0d be 30 c3 1d be d8 db f1 3c
       -0.19973171 -0.13820384 -0.1540649 0.029523775
000090 bb e0 9f bd 1a 41 2c bd 7e e5 a1 be ce 6f 6d bd
       -0.07806536 -0.042054273 -0.316204 -0.057967953
0000a0 b1 f4 8d be e0 5b 49 bd 06 f4 49 bd ab 40 89 3d
       -0.27725747 -0.049159884 -0.049304985 0.067017876
0000b0 59 f5 30 bd 9c df 4a bd 9c 3c ea bd 11 81 01 bd
       -0.04320273 -0.049529657 -0.114373416 -0.031617228
0000c0 11 56 9d bd 45 37 97 3d 52 88 6d be 40 5e 18 bc
       -0.076824315 0.07383589 -0.23196533 -0.009299815
0000d0 1d 4a 9f bd e2 65 44 be a1 ed b2 3d 5e e8 a0 bd
       -0.07777808 -0.1917949 0.0873673 -0.078568205
0000e0 a2 3c 81 bd 43 6a 18 be 71 09 86 bd 8e 52 35 3d
       -0.06310393 -0.14884286 -0.065447696 0.044268183
0000f0 68 40 13 3d a4 9e 63 be a2 5e 5a be a0 e2 ac be
       0.035950094 -0.22228485 -0.21325162 -0.3376665
000100 6e 7e 47 3d 5e c1 7a 3d 4c 2a af bc 88 99 3a bc
       0.048704557 0.061219566 -0.021382473 -0.011389144
000110 f0 99 ab bd a2 5f 11 be 06 f9 2e be a8 2b 3d 3c
       -0.083789706 -0.14196637 -0.17087182 0.011546053
000120 7c 5e 98 3c 10 9a 67 bc f9 41 59 be f5 d6 15 be
       0.018599741 -0.014135852 -0.21216573 -0.14632781
000130 e6 6d c7 bd a1 3c 27 bd 13 ae 83 bd a4 ef 11 be
       -0.09737758 -0.040829305 -0.064296864 -0.14251572
000140 c2 00 3b 3d 6e 2e 77 bd 1c cd b1 3c f9 e8 0c be
       0.04565502 -0.060347013 0.02170425 -0.13760747
000150 ae 21 89 bd 56 4a 1a 3d eb 79 b2 3d d0 8e 24 bc
       -0.06695877 0.03766855 0.0871466 -0.010043815
000160 c0 6f c2 3a 18 84 ac bd 8e e6 84 bd ee e0 6b bd
       0.001483433 -0.084236324 -0.06489287 -0.057587557
000170 7b 3f 49 be 4b d1 8b bd ef bf 52 be a3 41 7f bd
       -0.19653122 -0.06827029 -0.2058103 -0.062318455
000180 00 ab 5d 3c 37 73 99 3d f0 f4 dc 3c 7c 4c cd bc
       0.013529539 0.074926786 0.026972264 -0.025060885
000190 1a b0 26 be 02 4a 08 bd c8 4d 6d bc c2 e9 3a be
       -0.16278115 -0.033273704 -0.0144838765 -0.18253234
0001a0 d0 73 4c bc 06 b3 69 bd 09 4e 0f bd 2a a6 8b bd
       -0.012478784 -0.057055496 -0.03498653 -0.06818803
0001b0 85 46 93 bd 45 f1 31 be 40 66 4b 3c 54 3b 0d 3d
       -0.07191185 -0.17377193 0.012414515 0.034480408
0001c0 30 e3 6d bc 70 82 b2 bc e0 15 1d bc ec 95 01 3d
       -0.014519498 -0.021790713 -0.009587735 0.031637117
0001d0 97 ef 04 bd 1e 9a 2a be 2c 9e 8e 3c 56 cb 61 3d
       -0.032455053 -0.16660354 0.017409407 0.055125557
0001e0 80 53 f5 bc e6 2e 31 be e6 a7 50 3d 9e 3b 6e 3d
       -0.029947042 -0.17303047 0.05094137 0.058162324
0001f0 8b 0e 4f be a0 21 c0 3b 19 1b 03 be d0 05 91 bd
       -0.20220391 0.0058633834 -0.12803306 -0.07081187
000200 7f 44 75 bd d7 1f 87 bc da f3 38 3c 89 69 9c bd
       -0.059879776 -0.016494675 0.0112886075 -0.07637317
000210 c8 51 4a bd 55 2a 10 bd e0 b6 16 be 92 00 a5 bd
       -0.0493944 -0.03519662 -0.14718199 -0.080567494
000220 6b 0c 07 be b8 db 03 be 22 5f 46 3d 28 41 e1 bc
       -0.13188331 -0.12876785 0.04843057 -0.02749689
000230 d6 29 9e bd 70 b2 0c bb 84 76 12 3d a7 8a 63 bc
       -0.07722823 -0.0021468662 0.035757557 -0.013888038
000240 70 fc 4d 3c 89 02 25 be 3e 22 96 bd 49 74 98 bd
       0.012572393 -0.16114248 -0.0733075 -0.07444055
000250 b6 52 d8 bd 11 34 9a bd d2 d1 2f bb ba 50 bc bc
       -0.10562651 -0.07529462 -0.0026827944 -0.022987712
000260 6e 09 51 3c cf ce 99 bd 96 20 21 bd 55 49 ed bd
       0.012758596 -0.07510149 -0.039337717 -0.115862526
000270 fa b5 2f bd 90 49 43 bd df a7 9e 3c 14 6f 54 3c
       -0.042898156 -0.047677577 0.019367157 0.012965936
000280 c6 c3 e8 bc 0c 13 b2 bd 02 58 9e bc 4d 4f b1 3d
       -0.028413665 -0.08695039 -0.019329075 0.086577035
000290 7e fa 03 be 8e 45 1e 3d 3c fe 9b bd 85 38 99 3d
       -0.12888524 0.03864055 -0.07616851 0.07481483
0002a0 e8 8f 1c bb f0 f7 91 3b d0 fe 04 3d a3 b6 a1 bd
       -0.0023889486 0.0044546053 0.03246957 -0.07896163
0002b0 f8 4f 2e bc ba 75 54 bb 9e b5 01 3a 06 69 43 3d
       -0.010639183 -0.0032418803 0.00049480225 0.04770758
0002c0 57 5b 2c bd 5f c5 87 3d 71 38 fb b9 6e be 70 3d
       -0.042079296 0.066294424 -0.00047916503 0.058775358
0002d0 64 0d 83 bd 88 8a d7 bd 62 d7 89 bd 98 bd ea bd
       -0.063990384 -0.105244696 -0.06730534 -0.114619434
0002e0 40 dd f5 bc 1b 76 de bc 1a 6b ad bd 60 55 6f bc
       -0.030012727 -0.027155926 -0.084676936 -0.014607757
0002f0 17 78 8d 3d 05 d9 93 bd 61 2f 21 3c 45 0d c2 3c
       0.06907671 -0.072191276 0.009837956 0.023687968
000300 45 5a b4 3d 30 55 b8 bc 90 9f e3 bc 0f dc 12 bd
       0.0880628 -0.022501558 -0.027786046 -0.035854395
000310 ff 01 d8 3b fd 7d c4 bd a6 2d c7 bc 37 24 ac bd
       0.006592035 -0.09594343 -0.024313759 -0.08405345
000320 c8 43 5a 3d e4 8e a0 bd a3 50 a8 bd d6 06 7e bd
       0.053287297 -0.07839754 -0.08218505 -0.062018238
000330 45 f5 2a b9 00 fe 5e 39 ec 0c 90 3c 7f 87 b4 bd
       -0.00016303833 0.00021266192 0.017584287 -0.08814906
000340 8e 81 61 3d 27 74 31 bd 7e ff 65 3d 28 5c 20 bc
       0.055055194 -0.043323662 0.05615186 -0.009787597
000350 76 18 f5 bd 46 8f 1a bd 5f 9b ea bd f0 f8 88 bc
       -0.11967556 -0.037734292 -0.11455416 -0.016720265
000360 d2 9a 08 be 29 e8 8b 3d 47 9c 9e 3d eb 2b 25 3d
       -0.1334031 0.068313904 0.07744651 0.040325087
000370 05 0e 5d 3d c5 46 0d bd 01 c9 2c bd 40 74 29 3c
       0.05396845 -0.03449132 -0.04218388 0.010342658
000380 3e 12 a2 bd d3 cf 19 bd 8b d8 6f bd 80 f1 22 3b
       -0.07913636 -0.037551712 -0.05855612 0.0024863183
000390 8a 70 20 bd b6 75 f9 bc fd 64 26 be ad 02 4d bd
       -0.039169826 -0.030451637 -0.16249461 -0.05005138
0003a0 be e3 74 3d 90 f4 d5 bd 01 9b 19 bd fc 66 23 3d
       0.059787504 -0.10447037 -0.03750134 0.039893135
0003b0 67 60 17 bd 0e 08 93 bd 98 fb 01 bd 95 c6 90 bd
       -0.03695717 -0.07179271 -0.03173408 -0.070691265
0003c0 ac 43 92 3c 1a ed 3a 3c 5e 7d 55 3d 3e f0 29 bd
       0.017854534 0.0114090685 0.052121513 -0.04148888
0003d0 5c c0 8a bd 8a 9d 11 bd 15 23 bf bd e5 58 3f bc
       -0.06774971 -0.03555063 -0.09332863 -0.011678909
0003e0 70 fd f7 bc e8 3c 7b bd 96 36 87 bd 10 6d 89 3c
       -0.030272216 -0.06133738 -0.06602208 0.016775638
0003f0 87 01 2f bd 75 a1 d9 bb 67 3c 61 bc 8f ca b3 3d
       -0.042726066 -0.0066415616 -0.013747311 0.08778869

fc2.bias f4 [64]
000000 ae d2 8f be 23 fd 97 bd 80 51 40 be bd 5b c9 be
       -0.28090423 -0.07421329 -0.1878109 -0.39327803
000010 11 9d b9 be 78 51 86 be a3 5f 01 c0 25 ea 12 be
       -0.36252645 -0.2623403 -2.0214622 -0.14347132
000020 83 41 14 be 08 60 94 be d9 0d 94 be d1 08 8a bd
       -0.14478116 -0.28979516 -0.28916815 -0.06739963
000030 b5 10 db bc 06 e0 1d be 44 e0 de be 58 a3 a3 be
       -0.026741365 -0.1541749 -0.43530476 -0.3196056
000040 20 44 c9 be f6 e6 a4 bd 20 f0 c7 be 54 16 7b be
       -0.39309788 -0.08051865 -0.39050388 -0.24520236
000050 d2 0d 96 be 5d ad 3e be 45 c5 c8 be 15 7a 5e be
       -0.2930742 -0.1862082 -0.39213005 -0.21726258
000060 5c a6 67 3f ad 7f 0f be 0a cb 89 3f f2 a4 e5 bd
       0.9048822 -0.14013548 1.0765088 -0.112131014
000070 05 a5 8d 3f 87 79 a1 be 0b ba d8 be 98 3e 98 be
       1.1065985 -0.3153803 -0.4232944 -0.29735255
000080 24 16 73 3d 65 db 14 c0 bb e3 e8 be 60 22 e6 be
       0.059347287 -2.3258908 -0.45486245 -0.449481
000090 4b 67 2a be 36 79 93 be fb dd c1 be f1 66 3f be
       -0.16640966 -0.28803414 -0.3786467 -0.18691613
0000a0 1b fa be be 5f 39 29 c0 90 49 d9 bd 0b 20 01 be
       -0.3730019 -2.6441267 -0.10609734 -0.1260988
0000b0 a6 10 c3 ba 76 14 10 be 66 f0 d9 bd 8e e0 b2 bd
       -0.0014882281 -0.14070305 -0.106415555 -0.08734237
0000c0 f9 65 cf 3b 95 af e5 bd 4c cb 10 be 8f a8 51 bd
       0.0063292948 -0.1121513 -0.14140052 -0.05118614
0000d0 78 68 f6 be 51 23 97 be 94 92 01 be b5 c3 cd be
       -0.48126578 -0.29519132 -0.12653571 -0.40188375
0000e0 ff 77 a1 be e4 29 62 be 40 09 a0 bd af 0d ae be
       -0.31536862 -0.22086293 -0.07814264 -0.33994815
0000f0 24 e3 ee bd 7e a6 02 be 51 38 f1 bd c9 3b eb bd
       -0.116644174 -0.12758824 -0.117783196 -0.114860125

fc3.weight f4 [32, 64]
000000 16 e8 9f 3d ec 96 35 3d 37 25 6d 3e 79 3c f9 3c
       0.07807939 0.044333383 0.23158728 0.030424343
000010 a2 4c 8c bd 3f c6 18 be 24 14 af bf 55 d7 d3 3d
       -0.06850554 -0.14919375 -1.3678021 0.10343806
000020 e6 69 97 bf 0c fd 28 bf a0 c6 f9 bb 5d a3 08 bc
       -1.1829193 -0.6601112 -0.007622555 -0.00833973
000030 3e 43 89 bd 44 b2 08 be 95 06 a4 bd 7b 92 10 be
       -0.067022786 -0.13349253 -0.08009068 -0.14118378
000040 5b fa c9 3e 3f 08 45 bd b7 ab 05 3d b9 e7 64 be
       0.3944882 -0.048103567 0.032634463 -0.2235402
000050 c4 e8 d5 3d 73 f5 5a be e8 d9 9d bd 38 5e b3 bc
       0.10444787 -0.21382694 -0.07707578 -0.021895513
000060 d8 0d 20 3e 7c 3b f4 3c 1a 43 59 bf 5a e5 53 bd
       0.15630281 0.02981352 -0.84868014 -0.0517324
000070 c8 8b 48 bf 30 d6 1f bb 63 ee ae 3e 30 63 94 bd
       -0.7833829 -0.002438914 0.3416625 -0.07245481
000080 c3 08 ae be 30 f1 a7 bf b0 81 c8 bc ea 76 ba be
       -0.3399106 -1.312048 -0.024475902 -0.3641885
000090 d1 bb 8e 3c 60 52 97 bc b7 c1 ef bd 87 6e 8d 3e
       0.017423542 -0.018471897 -0.1170687 0.27623388
0000a0 97 6a 8d be 6f 93 f8 bf ca 07 27 3d 19 93 2f 3d
       -0.27620384 -1.9419993 0.040778913 0.042864893
0000b0 46 e9 71 3d c6 4b 8d bd 5c 3b e5 3c 74 a2 13 3e
       0.059060358 -0.06899218 0.027982406 0.1441744
0000c0 04 d6 86 bd fc bc 92 be 0c e3 4e bc b5 20 6d 3d
       -0.06583789 -0.2865981 -0.012627374 0.05789252
0000d0 83 07 42 be bd 89 97 3e c8 d8 d5 3d 2b 9c 1d 3e
       -0.18948178 0.29597273 0.10441738 0.15391605
0000e0 4e 41 ef 3c 91 7f b5 3d 25 99 6e bd f8 03 4a bd
       0.029205944 0.08862222 -0.05825152 -0.04932019
0000f0 df a3 63 bc ce 39 86 3e 41 39 d2 bd 6d 1d ea be
       -0.01389405 0.26215976 -0.102648266 -0.45725575
000100 dc d4 89 bd e6 4d f5 bc 96 f9 2c bd 4d 89 fa 3d
       -0.06730053 -0.029944371 -0.04223021 0.12233219
000110 70 3d 00 be b8 2d 18 be b4 bd d6 bd 60 58 e3 bd
       -0.12523437 -0.1486119 -0.10485402 -0.111008406
000120 d6 51 0f be 49 b9 cf bd 44 e9 c2 bd 57 9d eb bd
       -0.13996062 -0.10142762 -0.09517148 -0.115046196
000130 b4 91 25 3d da c7 5e 3d 77 53 21 bd fc 12 c0 3e
       0.040422156 0.054389812 -0.03938624 0.37514484
000140 64 31 7c bd b4 76 dc b9 81 d3 0c be cc 8f cd bc
       -0.06157054 -0.0004205011 -0.13752557 -0.025092982
000150 43 b1 2c be e8 19 fd bc 40 ff 04 be 72 39 f5 3c
       -0.16864495 -0.030896142 -0.12987995 0.029934619
000160 46 54 1b be 96 5c b8 bc 2c 21 db 3c e3 a7 39 3e
       -0.15168867 -0.022505086 0.026749216 0.1813045
000170 fa b2 a3 3d a5 54 9c bd ac 24 79 be 7e c2 b9 bd
       0.079931214 -0.07633332 -0.24330395 -0.090702996
000180 d8 7f 61 be 89 b8 37 3d a3 ff 9a bd d6 cb 46 3e
       -0.22021425 0.04485372 -0.0756829 0.19413695
000190 dd b6 14 3e e8 49 56 bd ca 70 05 be 79 5a b2 3e
       0.14522882 -0.052316576 -0.13031307 0.3483465
0001a0 28 a9 ee 3c c1 7c bf be 0f 82 c5 bb cc 6d e9 3b
       0.029133394 -0.37399867 -0.006027467 0.0071236845
0001b0 c6 f4 d7 3d 03 7d 8b 3d 02 7e 44 bd 2b a5 9c bd
       0.10544734 0.068109535 -0.047971733 -0.07648691
0001c0 0d c9 1e 3e a1 26 84 3e de da f9 3e 08 2f 46 3c
       0.15506382 0.25810722 0.48799795 0.012096174
0001d0 08 4d 8d bd 00 df 01 bb c4 2d 62 bd 06 67 0e 3e
       -0.06899458 -0.0019816756 -0.055219427 0.13906488
0001e0 b2 e1 97 3d 25 cb d4 3d ed 84 58 3d d5 78 63 3e
       0.07416095 0.10390309 0.052861143 0.22214063
0001f0 a3 74 fc 3d 37 49 01 3e 4e 96 a4 bd c2 5a b1 bc
       0.12326934 0.12625585 -0.08036481 -0.021649722
000200 0b 20 2b be 18 ab e9 bd 64 dc cc 3d 2c 5d 03 bd
       -0.16711442 -0.11409587 0.10002974 -0.032071277
000210 00 da 05 ba d4 e6 95 3e 28 a5 eb be 2e 57 2d 3b
       -0.0005106032 0.2927767 -0.46024442 0.0026449668
000220 12 5a 98 bd 2e 52 05 3c f3 26 c3 3c 32 59 a1 3d
       -0.074390545 0.008137269 0.023822283 0.07878341
000230 8e fe cc bc 5b 47 95 3d f8 22 e2 bd 0f 2b 9b be
       -0.025023725 0.072890006 -0.11041826 -0.3030629
000240 3b d6 55 3e 15 de 0a 3d 48 2f 9d 3d 2b 11 70 bc
       0.20882504 0.0339032 0.07675034 -0.014652531
000250 10 12 4e 3c 8e 71 fb 3c 28 98 46 3d 04 8f 3e 3d
       0.012577549 0.030693796 0.04848495 0.04652311
000260 03 a1 ad bf db 59 58 3d e4 f4 c1 3c dc aa 47 3d
       -1.3564762 0.052820068 0.023676343 0.04874693
000270 01 e1 33 3f 22 e0 5b bd 87 cd da 3b 09 fd c6 bd
       0.70265204 -0.053680547 0.006677333 -0.097162314
000280 9b b4 b7 3e 10 36 b1 be 56 6e 84 3d 90 b0 1a bc
       0.3587998 -0.3461156 0.064663574 -0.00944151
000290 7f ae e7 3c a4 95 fc bd 50 39 a9 3d 3c bb cf 3d
       0.028281448 -0.12333229 0.082628846 0.10143134
0002a0 f2 bf 84 bd d1 6b 0f bf ac fb ae 3c c1 cf d5 bc
       -0.06481923 -0.5602389 0.02136024 -0.026100041
0002b0 84 b3 3d bd 8a 01 b5 3d 39 f4 7e 3d a0 54 89 3d
       -0.046313778 0.08838184 0.062244628 0.06705594
0002c0 16 a0 1b be b7 e2 bc be 26 ea a0 be 89 ed c6 bc
       -0.15197787 -0.3689172 -0.3142864 -0.024283187
0002d0 88 73 6c 3e 4d d6 8e be 86 d3 e7 3d 17 ce 4f bc
       0.23090947 -0.27897874 0.11319642 -0.012683413
0002e0 d9 32 88 bc 50 ed 7f bd e3 78 2a bd 4e 83 2f be
       -0.016625809 -0.06248218 -0.041619193 -0.17139933
0002f0 e8 b7 17 bc 72 37 84 bd 08 07 a8 3d ea 39 5f 3d
       -0.009260155 -0.06455888 0.08204466 0.05449859
000300 90 83 f4 bc 00 67 76 3a 6d 7c 26 3d 88 45 80 3c
       -0.02984789 0.00093995035 0.040646005 0.015658155
000310 2c 38 66 3d 40 9c 64 bc 71 c5 4a bf 0b 94 27 3c
       0.056205913 -0.0139532685 -0.7920752 0.010228167
000320 39 ea cd bd 04 10 63 bd 00 73 66 ba 5c 8a fb 3d
       -0.1005444 -0.055435196 -0.000879094 0.12282249
000330 dc f5 eb bd 8c c9 c8 3d f0 df 7d bd 34 db 96 3d
       -0.11521503 0.09804067 -0.06198114 0.073660284
000340 70 6b 20 bd 70 72 77 bc cc 13 8a bd d4 cc 06 3d
       -0.03916496 -0.015102968 -0.06742057 0.032910183
000350 6c 2d 30 3d 78 21 7f 3d b8 1b d2 3c c0 8f 26 3c
       0.043012068 0.062287778 0.025647983 0.010166109
000360 16 85 33 3d 28 cd 45 3d 6c fd 65 be 20 24 d8 bb
       0.043828093 0.048291355 -0.22459954 -0.0065961033
000370 87 fc 8a be a2 7b 9f bd 42 9f c9 bd d0 92 e5 bd
       -0.27145788 -0.07787253 -0.09844829 -0.11209643
000380 b5 62 a0 be cb 6e a9 be 1e 23 b4 bd 10 c9 51 3d
       -0.31325307 -0.3309234 -0.087957606 0.05121714
000390 20 61 95 3b 8a b2 f6 3d 7c 86 d1 bd 52 0a 84 3d
       0.0045586973 0.120457724 -0.10230729 0.06447281
0003a0 81 d4 07 be 1f d2 da be 90 f0 8d 3c 18 25 a3 3d
       -0.13264658 -0.42738435 0.017326623 0.079660594
0003b0 28 b8 3d 3d 00 8c e3 bc 54 5e 35 3d e0 fb 1f 3c
       0.046318203 -0.027776718 0.04427941 0.0097646415
0003c0 22 4b d2 3d 00 1b 47 3a 20 63 fb bd 70 1f 44 3c
       0.10268237 0.0007595271 -0.12274766 0.011970386
0003d0 6c ea 58 3d 98 f5 29 3d c0 9e 65 3d 24 dd ab bd
       0.052957937 0.041493982 0.0560596 -0.083917886
0003e0 00 94 92 b9 00 de 5a bc 40 6a 56 3d 32 74 a5 bd
       -0.0002795756 -0.013358593 0.05234742 -0.08078803
0003f0 ee 4d fb 3d d0 76 d9 bd c0 af 91 bc 2b 9c b9 be
       0.12270723 -0.10618365 -0.017784 -0.3625196

fc3.bias f4 [32]
000000 7d c0 b8 3e 1c 65 10 bf ba 12 38 bf 88 d8 e2 bd
       0.36084357 -0.5640428 -0.71903574 -0.11076456
000010 12 48 f9 be df 35 06 be 2f f8 16 c0 bc fb a9 bd
       -0.48687798 -0.13106488 -2.358898 -0.08299968
000020 1c e2 02 bf 82 05 29 bf 2a 15 ce 3e d8 23 74 3b
       -0.51126266 -0.6602403 0.40250522 0.003725281
000030 3c 0c 62 bf 8b a4 3f bf 78 b5 1f 3e d6 97 a2 bd
       -0.8829992 -0.7486045 0.15596569 -0.07939117
000040 f8 9f 80 be fe c5 57 be b5 ea 0a bf bd fb 59 be
       -0.25122046 -0.21071622 -0.54264385 -0.21287437
000050 04 23 05 be 5a 1d 5e be 6c bb 2c be 5d ee dc be
       -0.13001639 -0.21690884 -0.16868371 -0.43150607
000060 61 4f 3c 3e 66 25 a1 bd 94 0d 1f be 16 aa 3e be
       0.18389656 -0.07868461 -0.15532523 -0.1861957
000070 71 c2 de bd 35 8f 7d be 81 fd 81 3f 0e 3e 05 be
       -0.108769305 -0.2476166 1.0155488 -0.13011953

fc4.weight f4 [2, 32]
000000 6e 79 87 3f 47 dc f4 ba 09 47 98 be f7 7e d3 bd
       1.0583932 -0.001868137 -0.29741696 -0.10326951
000010 a8 0b a4 3d 9f 91 26 bd ae e9 a8 3e 55 1a 37 ba
       0.08010036 -0.04066622 0.32990783 -0.000698482
000020 b5 93 8f be 71 a0 cb 3c 36 c0 7b 3e 3d 38 a4 3d
       -0.2804238 0.024856778 0.24585041 0.08018539
000030 85 b5 2b 3b 4c 75 25 be 8f e2 07 be 45 2e 3c be
       0.0026200723 -0.16158026 -0.13270019 -0.18377025
000040 56 91 83 bc 35 fc ca 3d e5 db 09 3d 20 30 00 3c
       -0.016060513 0.09911386 0.033656973 0.007823974
000050 06 a6 85 be 56 d3 91 be b4 2c b4 bc 12 b9 3e 3e
       -0.26103228 -0.2848155 -0.021993972 0.18625286
000060 ba a3 20 be 5b 14 cd 3d e2 b8 57 bb cb 7a 30 bc
       -0.15687457 0.10013648 -0.0032916595 -0.010771464
000070 a2 48 0e bc 2c 0f 30 be ce 0e 75 bb 69 12 48 3e
       -0.008684309 -0.17193288 -0.0037392857 0.19538273
000080 8f 79 25 3e a0 c4 15 be 9a 32 b7 bd a9 9d 0c be
       0.16159652 -0.14625788 -0.08945198 -0.13732018
000090 ef cd 8e bc a9 7f 46 be c4 a2 3e be b1 52 15 3c
       -0.017432181 -0.19384636 -0.18616778 0.009113953
0000a0 e4 d5 a5 3e 75 37 c2 bd 87 96 12 3e 40 79 aa 3e
       0.32389748 -0.09483234 0.14315234 0.3329563
0000b0 21 31 d4 3d 1e f9 ec bd 0b f1 d0 3c 05 a4 2c 3d
       0.10360933 -0.11570953 0.025505563 0.04214861
0000c0 86 9b 1b 3e 58 f8 32 3d 87 29 55 3d 86 28 ad 3c
       0.15196046 0.04369387 0.052041557 0.021137487
0000d0 bc 30 8c 3d 31 eb 66 3e 96 1f 0d bd d7 38 b9 bd
       0.06845233 0.22550656 -0.03445395 -0.090440445
0000e0 fd 5b 33 be 6f 15 dd 3d 69 5d fd 3c 93 4f 33 3d
       -0.1751556 0.10795104 0.03092833 0.04377706
0000f0 cd b1 ed bc 28 d7 43 3c e0 e8 b2 3e 99 f2 3d be
       -0.029015446 0.011953153 0.34943295 -0.18549575

fc4.bias f4 [2]
000000 23 d4 93 be f5 5b a0 be
       -0.28872785 -0.31320158
