models/action_file/ddqn_model.pth (torch, 46884 bytes, 8 tensors)

fc1.weight f4 [128, 3]
000000 e6 00 0e bf e0 fc 2b 3d 0e c9 9a 3e 2e 5b cf be
       -0.5547012 0.041989207 0.30231518 -0.40499252
000010 d0 93 e8 be 7e d1 1c be 28 59 d8 3d c3 0a 78 bd
       -0.45425272 -0.1531429 0.1056388 -0.06055714
000020 7b 2c 15 3f 3f 68 07 3e 2b ac 3b bd cb a1 9f 3f
       0.58270997 0.1322336 -0.04581849 1.247125
000030 2b 4d 37 bf e7 b4 3d 3e b2 3d db be 25 48 18 bf
       -0.71602124 0.1852604 -0.42820507 -0.59485084
000040 5c 60 9d 3e 37 db 3c be 10 ca ba be 2c ac e7 be
       0.3073758 -0.18442999 -0.36482286 -0.45248544
000050 7c 68 16 3e 2d af 06 bd 7e 5e d1 3d 86 39 b7 bf
       0.14688295 -0.032881904 0.10223101 -1.431443
000060 4f 94 1b 3d d2 77 37 3d 04 a2 c9 3d 65 fa b7 3c
       0.037983235 0.044792004 0.09845355 0.022458265
000070 c0 66 b6 3d 3a 40 e9 3c d6 63 3a 3d 67 04 7c be
       0.08906317 0.028473008 0.045505367 -0.24611054
000080 8c 5a 8c bf b4 22 0a bf 00 4e ef 3b c4 1f 04 bf
       -1.0965133 -0.539592 0.0073029995 -0.5161097
000090 de 75 c0 bc f7 68 a6 3c e1 87 62 3f ce 90 08 bd
       -0.023493703 0.020313723 0.88488585 -0.03334122
0000a0 d7 a0 59 bf f0 82 89 3f ea c2 90 3d d4 ca ad be
       -0.8501105 1.0743084 0.07068427 -0.33943808
0000b0 87 89 c5 3e 24 5b 53 bd a6 41 05 3d 24 c7 6d 3d
       0.38581488 -0.05160059 0.03253331 0.058051243
0000c0 b2 c9 89 bf ef 0d cc 3e 94 3f 24 bf 36 af 51 3d
       -1.0764678 0.3985438 -0.6415951 0.051192485
0000d0 3e 4c f9 bd 96 5d 19 bf c4 a0 f2 be 82 38 c6 be
       -0.12172745 -0.59908426 -0.4738828 -0.38714987
0000e0 be 40 0e 3f 7c 3d 2a be 55 db f4 be 81 ce f4 be
       0.5556754 -0.16625017 -0.47823587 -0.478138
0000f0 56 04 0b bf e7 67 fb be f8 1d 06 bf 92 c2 b2 3d
       -0.5430349 -0.4910271 -0.5238948 0.087285176
000100 f0 bf c4 be 9d 7d a4 bf 30 4f 62 be 8c 64 e0 bd
       -0.38427687 -1.2850834 -0.2210052 -0.10956678
000110 dc 76 db bd 8e b6 cf be 0a bb b4 be 00 52 00 3b
       -0.1071603 -0.40568966 -0.3529895 0.0019580126
000120 a6 60 da bc 71 cb b2 bd a5 73 88 3f 0c 34 89 3f
       -0.026657414 -0.087302096 1.0660292 1.0719008
000130 98 5f 50 be 76 cb 9b 3e e9 a5 3c bd 8a b5 37 bf
       -0.20348966 0.30428666 -0.04605666 -0.7176138
000140 62 0a 84 3f 20 9c e7 bc 01 67 df 3c 23 5f 27 3e
       1.0315669 -0.028272688 0.027270796 0.16344886
000150 b0 89 0a bf 08 bd 1f 3e 00 a8 29 be 48 68 32 3b
       -0.54116344 0.15599453 -0.16567993 0.00272228
000160 fd a4 55 be 39 d0 8c bf 82 60 c0 be 30 b2 52 3e
       -0.2086372 -1.1001045 -0.3757363 0.20575786
000170 76 f4 07 3c 94 d0 f7 bc e1 d4 93 3d 1c ff f6 3e
       0.00829803 -0.030250825 0.07218338 0.48241508
000180 fc a4 57 3e 43 27 a9 be c8 4f 6d 3e e5 62 b8 be
       0.2105903 -0.33037767 0.23174965 -0.3601295
000190 1a 91 87 be 05 37 d5 3f 10 6d 8a 3c 51 91 8e be
       -0.2647789 1.6657416 0.016897708 -0.27845243
0001a0 ca bb ef 3e 37 dc 14 bf ff 54 5f 3e 91 0b 32 bf
       0.4682296 -0.5814852 0.21809767 -0.695489
0001b0 18 f6 62 bf 2f 95 c3 3e 83 0c 30 bf ba dd 0d bf
       -0.8865676 0.38199756 -0.6876909 -0.5541645
0001c0 34 77 2e be c0 45 c0 bc f6 06 ae bd f6 0c f6 3c
       -0.1703766 -0.02347076 -0.084974214 0.030035477
0001d0 51 4c 8a bf 20 cf ab 3d fd f2 de be 7c cb 20 bf
       -1.080454 0.08389115 -0.4354476 -0.6281049
0001e0 9f 76 b6 3d 7e 81 65 bf 33 3e 86 c0 19 b4 b2 be
       0.08909344 -0.89650714 -4.1950927 -0.3490303
0001f0 8c ce 00 bf 30 a5 8f 3e ca d0 d6 be c6 03 1f 3e
       -0.50315166 0.28055716 -0.41956168 0.15528783
000200 5b a2 a9 3f 01 49 af be 3d 69 5d 3e 70 24 ee 3e
       1.3252672 -0.34235385 0.21622176 0.46512175
000210 85 1a 8d bf 68 6e f0 3f ae b2 37 bf 77 57 f3 be
       -1.1023718 1.8783693 -0.7175702 -0.47527668
000220 32 f8 03 bf 3e ca 09 40 a8 86 55 bd 0e b1 1e bf
       -0.5155059 2.152969 -0.05213037 -0.61988914
000230 26 03 54 3f 91 64 f1 be d8 ef 5b be 80 a6 4b 3d
       0.82817304 -0.4714704 -0.21478212 0.049719334
000240 ca 64 79 3d 78 ad 4e 3b 9e 7e 86 c0 6f 56 38 3e
       0.060887136 0.00315365 -4.202956 0.18001722
000250 57 e4 23 3e fb 0d 47 3f a3 ec c7 be 36 8d 3d 3d
       0.16005073 0.7775571 -0.39047727 0.046277247
000260 41 77 b0 3f 02 07 a7 3c 6c 09 3f bf 94 d8 80 bf
       1.3786393 0.020389084 -0.7462375 -1.0066094
000270 61 8f 26 bf f3 67 be 3e 0d c7 3b 3f 63 79 37 bf
       -0.6506253 0.37188682 0.733506 -0.71669596
000280 fa a4 e5 3d 06 c3 c0 3e ab 8e db be 10 77 3d 3e
       0.112131074 0.3764879 -0.42882285 0.1850245
000290 0b c2 d6 3f 16 a4 cf be 00 25 89 bc 40 35 7b 3c
       1.6777967 -0.40554875 -0.016741276 0.01533252
0002a0 c7 e7 15 bf 4d 21 9a 3e 27 a8 de 3d 61 2e 8e be
       -0.5855679 0.3010353 0.10871916 -0.2776976
0002b0 d4 05 f5 bd f4 2a 34 3e 7c ec 3b bf 5f ac 12 3e
       -0.11964002 0.1759451 -0.7340772 0.14323567
0002c0 72 71 63 3d 2a fb cb bd 33 d5 6e bd 1e d1 20 40
       0.05552811 -0.09960015 -0.05830879 2.5127635
0002d0 83 f1 19 be ea df d9 3d ef de c4 be 45 ef 84 be
       -0.15033536 0.10638411 -0.38451335 -0.25963798
0002e0 50 32 e5 3d 0c a1 68 3e 38 ab 0e bd cb 5d 2a be
       0.11191237 0.22717685 -0.034831256 -0.16637342
0002f0 80 63 09 bf 2e 57 c0 be b2 30 62 be 60 ab 31 3d
       -0.5366745 -0.37566513 -0.22088888 0.043376327
000300 d0 0f c5 be 8a 02 c5 be a0 18 89 3e 39 82 f8 3c
       -0.38488626 -0.384785 0.267766 0.030335533
000310 af 1d 66 be f1 98 9e bf c1 28 a4 3d d6 b9 3c bd
       -0.22472261 -1.2390424 0.08015586 -0.046075664
000320 10 a7 ec 3e 0f 4f 8b 3c ce 66 2e be d7 f2 a6 bf
       0.4622121 0.017005472 -0.17031404 -1.3042859
000330 b7 f5 24 3c 61 3e d9 3d ef 59 47 bf c2 63 75 bf
       0.010068349 0.10607601 -0.778716 -0.95855343
000340 7b f6 fd 3e 4b c8 8a bf 55 02 62 bd d1 7b e6 3d
       0.49602112 -1.0842375 -0.055178005 0.11254085
000350 4c b7 8c 3e be d0 fe be e4 64 e0 3d a1 d9 64 be
       0.27483594 -0.49768633 0.10956743 -0.22348644
000360 e8 10 a6 be 30 b3 2b be 58 2c 08 3e 8a f6 bc bc
       -0.32434773 -0.16767573 0.13298166 -0.023066778
000370 4c 01 c9 bd 74 76 08 bf bd e7 b2 bc 82 45 0b bf
       -0.098147005 -0.53305745 -0.021839017 -0.54402936
000380 57 33 2a bf e6 9c 7b bc 13 83 2e 3d f8 83 0f 3f
       -0.6648459 -0.015357232 0.04260547 0.56060743
000390 8c d0 e2 bd b0 0c 4e 3d 8e 83 07 3f a4 0b 28 bd
       -0.110749334 0.05030507 0.5293511 -0.041026726
0003a0 e5 28 13 bf 8c 0e 22 3e ea 00 a9 be ec ed b8 bd
       -0.57484275 0.15825862 -0.3300851 -0.09029755
0003b0 b8 8e db 3e 49 c6 52 3d 2a 46 de bc b6 29 a3 be
       0.42882323 0.05145863 -0.027133066 -0.3186776
0003c0 f0 dc b5 be de 95 52 3e d4 9d 71 3f 39 8f 0e be
       -0.35520124 0.20564982 0.9438145 -0.13921823
0003d0 d5 2d a0 3d 16 67 fc 3f 0e cc 73 bf d5 df ce 3e
       0.07821242 1.9718959 -0.9523324 0.40405145
0003e0 4a cd e6 be 8c eb 2b 3e ae e9 a9 bf d7 ee 85 c0
       -0.45078498 0.16789073 -1.3274438 -4.1854053
0003f0 45 19 cf 3d 7b a5 73 3d e5 0a 9d 3f c8 cb 92 be
       0.10112242 0.059483986 1.226895 -0.28671098

fc1.bias f4 [128]
000000 cc df aa be d0 cc 3c 3d d9 66 34 c0 85 dd 81 c0
       -0.33373868 0.046093762 -2.8187773 -4.058291
000010 0c 57 ef be 5c 3c 37 bf c4 d4 7a 3e 1c a1 67 bf
       -0.467461 -0.71576476 0.24495226 -0.9048021
000020 99 37 cb bf 1d db f7 bf ca f5 63 bf dc 00 57 be
       -1.5876342 -1.9363743 -0.8904692 -0.20996422
000030 1f db a3 bf 87 01 b3 be f1 24 06 c0 07 84 28 be
       -1.2801245 -0.34962103 -2.0960047 -0.16456614
000040 26 5c 9d 3e 58 74 82 bf e0 a8 23 3d 6c af 16 3e
       0.30734366 -1.0191755 0.039955974 0.14715356
000050 60 0e cb bd 69 e8 be bf 86 29 bd 3e a8 2c f7 3e
       -0.09914851 -1.4914676 0.36945742 0.48276258
000060 95 80 36 bf 08 5c 00 c1 f6 0d 9a bc c0 b2 8e be
       -0.7128995 -8.022469 -0.018805485 -0.2787075
000070 6b 92 07 bf a5 1e 0b 3e a5 5e 28 bf 11 3f a6 bf
       -0.5295779 0.13585909 -0.65769416 -1.2987996
000080 52 c3 90 c0 63 3b 5f bc d4 5a 26 bf 94 06 0a 3d
       -4.523843 -0.013624999 -0.6498234 0.03369768
000090 41 56 a8 be 52 9b 0e 3f a3 90 ce 3c 49 bc af bf
       -0.32878307 0.5570575 0.025215453 -1.3729335
0000a0 db 0f a3 bf 26 12 05 3f e0 70 08 bf f8 28 56 bf
       -1.2739214 0.5198082 -0.53297234 -0.83656263
0000b0 e1 5a b7 40 ab 75 10 bd 1e fe 59 3e e0 45 f0 bc
       5.7298436 -0.035268467 0.21288344 -0.029330194
0000c0 57 73 b2 bf b0 b9 c6 c0 9b 89 39 3f 4a e3 10 3e
       -1.3941449 -6.210167 0.72475594 0.14149204
0000d0 a9 c5 a3 bf c0 8b 9b 3e a6 aa c0 be c0 5c 3d 3e
       -1.2794696 0.30380058 -0.37630194 0.18492413
0000e0 ee 1f 2d bf fa 36 38 be 29 8e 94 be 57 00 ac bf
       -0.67626846 -0.17989722 -0.2901471 -1.3437604
0000f0 9a ee 1d bf 08 6d 04 be 08 0a 65 3d 7c 53 7c 3e
       -0.616922 -0.12932217 0.05591777 0.24641222
000100 3a 4d 94 be a3 3f 58 bf 0a ce 06 c0 8d 6d 4f be
       -0.2896517 -0.844721 -2.1063256 -0.20256634
000110 bd 55 da bf 93 6b a0 bf 3d 65 94 bf 90 14 32 3f
       -1.7057415 -1.2532829 -1.1593395 0.69562626
000120 80 09 60 3d 11 cf c3 3d 9b 41 e5 3e c1 5d 51 bf
       0.05469656 0.09560979 0.44776616 -0.8178368
000130 cc f5 97 be ba ab a5 bd a0 03 1f 3e e9 8c 94 bf
       -0.29679716 -0.08089395 0.15528727 -1.1605502
000140 b5 a9 2a bf ae c9 8b bf 0d 45 55 bf 4a f2 1f c0
       -0.666652 -1.0920923 -0.8330849 -2.4991632
000150 b8 36 95 c0 32 f7 78 be 5a e1 34 bf f2 b5 6b 3e
       -4.6629295 -0.24313048 -0.7065636 0.23018625
000160 bf 12 4b 3d f3 48 0d 40 a2 63 e2 be cd f6 8c c0
       0.049578425 2.2075775 -0.4421664 -4.405127
000170 33 77 ca bf 32 e7 04 3e ea df 07 bf 2a e8 56 c0
       -1.5817627 0.12978819 -0.5307604 -3.3579202
000180 e2 4c c2 3e a5 e0 83 3f 4e 11 12 40 60 05 f0 3c
       0.37949282 1.0302931 2.2823062 0.029299438
000190 ed 3d f8 bb b8 da 0f c0 94 4a 95 3d e7 86 b7 be
       -0.0075757415 -2.2477245 0.07289615 -0.3584511
0001a0 3f d2 a8 bf 8c 1c 4f c0 98 ee 07 be cd bb 79 bf
       -1.3189162 -3.2361174 -0.1327461 -0.97552186
0001b0 1b 91 1d c0 a2 2e ce bf 71 50 9a c0 25 92 9e bf
       -2.4619815 -1.6107981 -4.8223195 -1.238835
0001c0 b6 00 a9 bf 46 f7 a7 3e ec 1f b8 bf fd 24 0f 3f
       -1.3203342 0.32805842 -1.4384742 0.55915815
0001d0 e6 fe 7a be a0 51 ba bf f4 0c d2 bd 20 bf 61 bf
       -0.24511299 -1.455616 -0.10256377 -0.8818226
0001e0 92 51 19 3f 53 03 54 3f fd a4 56 3d d1 8d 4e 40
       0.5989009 0.8281757 0.05240344 3.2274058
0001f0 f2 b1 50 bf 8c 3d 3c be 58 5e ed 3e 92 30 f0 be
       -0.81521523 -0.18382853 0.4636104 -0.46912056

fc2.weight f4 [64, 128]
000000 4d 36 88 bd 30 12 83 bb 36 95 f9 bc d0 14 16 be
       -0.06650982 -0.003999971 -0.030466657 -0.14656377
000010 5f 9a 15 bd 5e 86 80 be c4 77 a0 bd 1f b4 f3 bd
       -0.036524173 -0.25102514 -0.078353435 -0.1189959
000020 ce 08 7a 3d d1 52 05 be 10 92 99 be 60 28 5b bc
       0.061043553 -0.13019873 -0.2999425 -0.013376325
000030 6f 79 9d bd 5f a6 89 bd 7f e4 61 be 98 24 20 be
       -0.07689177 -0.06721186 -0.2205982 -0.1563896
000040 2a f3 74 be 77 f3 be be 96 74 16 3d 43 f5 af 3d
       -0.23920885 -0.37295124 0.03673228 0.08591702
000050 00 f1 9a bd 66 9a 22 be 50 f1 3b bc 08 b5 b4 3c
       -0.07565498 -0.15879211 -0.011471108 0.022058979
000060 3d b1 8c bd b1 ff 81 be 0d 31 4b bd 80 55 16 3b
       -0.06869743 -0.2539039 -0.049607325 0.0022939146
000070 cc 7a af bd 20 75 1b 3c 5c 7c 94 be 94 da ba bd
       -0.085683435 0.009488374 -0.2900113 -0.09123722
000080 60 c9 2b be 8f 1d 2d 3e 7e af 93 bd 8f ee bb be
       -0.16776037 0.16905807 -0.07211207 -0.36705443
000090 f2 4e 92 be 8d 1e 9a bd 3d 39 78 3c 6e 26 12 be
       -0.28575855 -0.07525358 0.015150365 -0.14272472
0000a0 da 5a 91 be 70 98 30 3c 3b bb c6 be 93 79 9d bd
       -0.28389627 0.010778531 -0.3881472 -0.07689204
0000b0 54 c3 d0 be 4e 9a b9 3c 55 74 b0 be 4c f7 83 bd
       -0.40774024 0.022656586 -0.34463754 -0.064436525
0000c0 aa 34 e2 bd ce 07 31 be c4 0f 0a be 01 a7 c2 be
       -0.11045201 -0.17288134 -0.13482577 -0.3801804
0000d0 09 c7 15 bf 89 61 b2 3d 30 52 81 be 32 dd 4c 3d
       -0.5850683 0.087100096 -0.25258017 0.050015636
0000e0 14 68 13 bf c4 fb 85 bc 08 c0 9f be 55 bb c2 3d
       -0.57580686 -0.016355403 -0.31201196 0.09508387
0000f0 0d dd 2e be 1c 2c f9 3c 3b 83 92 bd 18 5d e4 bc
       -0.17076512 0.03041654 -0.071539365 -0.027876422
000100 98 ae 37 bc 7a 8e e3 bd 64 b9 2f be 4f f3 3c be
       -0.01121106 -0.111111596 -0.17160565 -0.1845219
000110 f7 fd fb bd 77 c8 34 be ee 0f 07 be 0c 42 b6 be
       -0.12304299 -0.17654596 -0.1318967 -0.35597265
000120 48 2b 26 bc 24 96 90 bc 4b e6 80 be 4f c8 47 bd
       -0.010142155 -0.017649718 -0.251757 -0.048775014
000130 ac 19 14 bd 70 ac 0a 3c 3f b4 5f bd 77 f7 18 be
       -0.036157295 0.008463964 -0.054615255 -0.1493815
000140 b9 b2 9d be 6e 81 8d 3d b1 81 42 be bf be b5 be
       -0.30800417 0.069094524 -0.18994786 -0.3549709
000150 18 d0 34 be 30 af ba bc a8 ba 08 bd 7a ec 39 be
       -0.17657506 -0.022788614 -0.033381134 -0.18156615
000160 ac 9b 8b be eb c8 15 bd 36 57 ce be e0 6a 40 be
       -0.27267206 -0.036568563 -0.40300912 -0.1879077
000170 85 b1 27 be 0a 80 31 bd 75 ff 80 be 80 fe ca bd
       -0.16376312 -0.043335 -0.25194898 -0.09911823
000180 4a 41 28 3d 73 c1 34 be 4d af c4 be 5c ad bf 3c
       0.04107789 -0.1765192 -0.38414994 0.023398094
000190 02 d1 9d be 55 74 55 be 96 4b 06 bf af 49 ff be
       -0.30823523 -0.20845158 -0.52459085 -0.49860904
0001a0 a1 5c df bd bd ec 60 be f0 23 dd 3b 17 c5 d5 bd
       -0.109063394 -0.21965308 0.006748669 -0.104379825
0001b0 23 e5 4b be 72 9e 22 be 95 98 14 be de 5d ca be
       -0.19911627 -0.15880755 -0.1451133 -0.3952474
0001c0 b8 05 4e be 96 9b 6c bd 53 5e 8a be 7a 18 66 bd
       -0.20119369 -0.057765566 -0.2702509 -0.056175686
0001d0 72 e9 72 3d 24 50 16 3c aa cc 3a be 21 69 fb bc
       0.059304662 0.00917438 -0.18242136 -0.030689778
0001e0 0e c3 ef bd 31 56 ae be 21 57 af be be 39 11 bd
       -0.117071256 -0.34050134 -0.34246162 -0.035455458
0001f0 0b fb 97 bd 90 58 65 be 88 15 cb bc 28 32 3d bc
       -0.074209295 -0.22397065 -0.02479054 -0.011547603
000200 62 9d 23 3d 54 32 c6 3c d0 e5 04 be 8c 9a b9 bc
       0.039945014 0.02419392 -0.12978292 -0.022656702
000210 e8 9d 8d bd 7a ad 5c be 08 c3 00 bd 48 45 f2 bd
       -0.06914884 -0.21550551 -0.031435996 -0.118296206
000220 21 3d b3 3c 42 1f db 3a b2 4c 0f 3d 48 e7 d1 bc
       0.021879734 0.001671769 0.03498525 -0.025622979
000230 47 02 6d bd 41 20 71 be 87 2e cf bd 96 0e ca 3c
       -0.0578635 -0.2354746 -0.10116296 0.024665158
000240 45 a0 43 be de e8 71 bc 55 42 8b 3d c8 9a a3 3c
       -0.19104107 -0.0147649925 0.06799761 0.019971266
000250 5b cb 2f bd 7b 5e d7 3c aa 13 68 3d 0d 15 ae 3d
       -0.042918544 0.026290169 0.056659378 0.08500109
000260 4d 06 2e bd a9 0e 0d bd 33 ba a3 bd ff 76 ab 3d
       -0.042486478 -0.03443781 -0.07994499 0.08372306
000270 d0 84 c7 bc b9 89 03 be a1 6d 65 be 2e 21 97 bd
       -0.024355322 -0.12845506 -0.22405101 -0.073793754
000280 6d 85 64 bd 69 e6 05 be a8 c4 05 be 25 30 92 be
       -0.055791307 -0.13076176 -0.130633 -0.28552356
000290 bf b5 20 be c2 7c 6c 3d 92 db 19 bd 17 c8 0b bd
       -0.1569433 0.057736166 -0.037562914 -0.034126367
0002a0 ee 54 27 be 70 47 d4 3c 80 d4 4c be 82 20 ec bd
       -0.16340992 0.02591297 -0.20002937 -0.11529638
0002b0 b7 65 a6 be 26 7f 47 bd d6 21 cc be 80 71 36 bb
       -0.32499477 -0.048705243 -0.39869565 -0.0027838647
0002c0 e1 45 1a 3d d7 6f b8 bd 91 6b 43 be 00 fa 47 be
       0.037664298 -0.09005707 -0.19084002 -0.19528961
0002d0 79 10 17 be 20 ac 1d 3b 59 4f 2d be 77 be b4 bd
       -0.14752378 0.0024058893 -0.169248 -0.08825391
0002e0 df ef 83 be 6c 35 1d bd f6 37 5e be ae 1c 83 be
       -0.25768945 -0.038381025 -0.21701035 -0.25607818
0002f0 6a 31 39 bd ea a3 72 bd 99 75 42 bd 20 e9 a1 3c
       -0.04521314 -0.059238352 -0.04747543 0.019764483
000300 5e 2a 71 3d df 9c ba bd 26 6b 71 3b 50 98 fe bd
       0.058878295 -0.09111952 0.0036837547 -0.12431395
000310 93 5b 9c bc 18 13 f0 bd 6c dc 38 bd d6 e0 48 be
       -0.019086635 -0.11722392 -0.045132086 -0.19617018
000320 19 e0 a3 bd d0 47 6c bc e0 80 88 be 5c 86 77 bc
       -0.080017276 -0.014421418 -0.26660824 -0.015107717
000330 8b 5e a8 bd ca 24 64 bd aa 91 06 3d 34 0f df bd
       -0.08221158 -0.055699147 0.03285376 -0.10891572
000340 77 cd a8 be ad 1c d8 bd 6c 67 4b be c3 9d fc bd
       -0.32969257 -0.105523445 -0.19863671 -0.12334778
000350 0c d5 4a bd a1 dd 66 bd 4c f2 da bd 91 4e ab bd
       -0.049519584 -0.056363706 -0.10690746 -0.08364595
000360 cf 68 a2 be aa 73 a1 bd 88 f0 b8 bd 06 81 f8 bd
       -0.31720588 -0.07883389 -0.09030253 -0.12133984
000370 62 5f 15 3d 39 39 87 bd 09 7f ff bd 42 dd 73 3c
       0.036467917 -0.06602711 -0.12475402 0.014884295
000380 a2 5b 7e 3d 1c 5c 85 be 2f 13 99 be 30 56 b4 bd
       0.062099107 -0.26046836 -0.29897448 -0.088055015
000390 ee 08 b6 bd 4d a9 c2 bd 82 40 5b be 1b 7e 7f be
       -0.08888422 -0.09504948 -0.21411327 -0.24950449
0003a0 51 6f f9 bd 0c 08 c4 bd 52 52 1a 3d b2 c5 85 bd
       -0.12179435 -0.09571847 0.037676163 -0.06531848
0003b0 aa 02 07 bd 65 be d1 bb 3d 37 a1 bc e7 24 2d bd
       -0.032961525 -0.0064008706 -0.01967966 -0.04227152
0003c0 dc 90 11 be 82 60 53 3d 94 c3 90 bd 8c 2d ab bd
       -0.14215416 0.05160571 -0.070685536 -0.08358297
0003d0 ee 0b 1b 3d 54 3d a0 bd 31 3f 30 be 3d 31 73 bd
       0.037853174 -0.078241974 -0.17211606 -0.05937313
0003e0 09 47 11 bd 0e 81 ee bd 5d 9c 75 be 80 ca b1 bc
       -0.035468135 -0.11645709 -0.23985429 -0.021703005
0003f0 02 d3 6a bd b1 31 f0 bd aa 19 1a 3d 36 d4 72 bd
       -0.05733014 -0.11728228 0.03762213 -0.05928441

fc2.bias f4 [64]
000000 24 11 9c bd a4 02 86 bd 8b 3c f7 bd c2 2f fa be
       -0.07620457 -0.065434724 -0.120720945 -0.4886456
000010 aa 2d d5 be f8 7c f6 bd 82 c3 e3 bd a7 62 73 bf
       -0.416364 -0.12035555 -0.111212745 -0.95072407
000020 0f e7 af c0 7d 15 b6 be 9b 26 0a be 4b 1e c1 bd
       -5.4969554 -0.3556327 -0.1349129 -0.09429606
000030 64 ea 2f bd 38 9d 3c be 9c bf dc bd 86 dc 38 be
       -0.04294814 -0.18419349 -0.10778734 -0.18052873
000040 5e 7c 0d bf 73 f3 c6 be de c2 db be 2d f9 0f be
       -0.55267894 -0.38857612 -0.4292211 -0.14059897
000050 68 51 51 be 38 14 2f bf 54 33 d4 be 66 31 ee be
       -0.2044121 -0.68390226 -0.4144541 -0.46522063
000060 83 37 b8 be 1a 3a 39 be 1a 60 f3 bd 3d d8 98 be
       -0.35979852 -0.1808857 -0.11883564 -0.29852477
000070 a4 06 d1 be 9f f3 28 be 2d f4 48 be c1 bc c4 bc
       -0.4082538 -0.16499184 -0.19624396 -0.024015786
000080 10 4f f3 bd 84 9f 74 bd 0e 5a 7f bd c8 da 8b be
       -0.11880314 -0.05972244 -0.062341742 -0.27315354
000090 27 39 8d bc e1 b8 5c be 88 5f 7c be 17 1a c0 be
       -0.017239166 -0.215549 -0.24645817 -0.37519905
0000a0 54 e9 20 be 00 b8 5f be 32 a4 1b bd 58 fe 33 be
       -0.15714008 -0.21847534 -0.037998386 -0.17577493
0000b0 f9 61 64 bd 1c ca 03 be 4f 81 39 c0 2f 7d db bd
       -0.055757497 -0.12870067 -2.8985174 -0.10717236
0000c0 60 a5 0a bf f8 61 1d be 80 f0 74 bf 60 16 41 bd
       -0.5415859 -0.15369403 -0.95679474 -0.04714048
0000d0 70 c7 85 40 a4 09 85 bd 89 72 04 bf 67 16 d1 c0
       4.1805954 -0.064959794 -0.51737267 -6.5339847
0000e0 11 7d 98 be b2 98 c0 bd 8c 6d 06 40 db 5b 76 be
       -0.29782918 -0.09404124 2.1004362 -0.24058478
0000f0 42 b6 8d bf 0c 15 f6 be f8 51 be bd 95 0a 89 be
       -1.1071246 -0.48062932 -0.09292978 -0.26765886

fc3.weight f4 [32, 64]
000000 0c 93 47 bd d1 0c ab bd c6 7d f0 bd 63 c4 d0 bd
       -0.04872422 -0.08352054 -0.117427394 -0.10193708
000010 3c ec 0c 3e a1 c8 05 bd 5a 76 27 bd 7d 16 2c be
       0.13761991 -0.032662038 -0.040884353 -0.16805454
000020 34 9e 26 be 17 21 d5 bd ca 37 14 be 9f 81 1b 3c
       -0.16271287 -0.10406702 -0.14474407 0.009491353
000030 44 40 de bd 69 f7 8b bd fe 45 fc bd 64 13 28 be
       -0.108521014 -0.06834299 -0.123180375 -0.16413647
000040 f6 8c 8d 3d 8e 59 30 3d 74 88 3b be d7 21 30 be
       0.06911652 0.043054156 -0.18313771 -0.17200409
000050 25 4b 81 bd 40 2c ab 3b ee d9 c0 bd 5c a6 c7 bd
       -0.06313161 0.005223781 -0.09416567 -0.097485274
000060 42 60 c2 bd 0b 20 2c 3d 78 e3 b7 3c 40 02 63 bc
       -0.09491016 0.042022746 0.022447333 -0.013855517
000070 e5 dc 60 3d 52 07 b6 bd 1a 87 b8 3d f9 7c ae bd
       0.05489816 -0.08888115 0.090101436 -0.085199304
000080 72 a7 41 bd 29 bd c3 bc ea 4b 74 3d ec b0 e4 3d
       -0.04727883 -0.02389391 0.05964271 0.11166558
000090 74 95 4d 3d 14 48 57 bd 71 f6 00 be 86 57 85 bd
       0.050191358 -0.052558973 -0.1259401 -0.065108344
0000a0 75 9d 69 bd ea 41 85 3c 73 44 22 bd 4c 68 ce bd
       -0.05703493 0.016266782 -0.03961606 -0.10078487
0000b0 0d 21 2a bd 54 d8 ae bc 82 87 a0 bd 30 93 7d 3a
       -0.041535426 -0.021343388 -0.07838346 0.0009673117
0000c0 bf fd 59 3d 69 36 c6 bd 69 19 7d be e2 8f 9f bd
       0.053220507 -0.09678347 -0.24716724 -0.07791115
0000d0 aa 73 00 3d 49 72 14 bd 52 11 e5 3d 8a 89 e1 bc
       0.031360306 -0.036241803 0.11184944 -0.027531404
0000e0 30 ff 35 bd e4 c7 39 be 86 a5 30 be 4c 13 91 3d
       -0.04443282 -0.18142658 -0.17250642 0.07083759
0000f0 9d c8 42 be 8a db 8a bd be 97 bd 3c 7b 1d 35 be
       -0.1902184 -0.06780155 0.023143645 -0.17687027
000100 a8 4c ef bd 54 08 b2 bd 48 32 1d bd bc 78 60 bd
       -0.11684543 -0.08692995 -0.03837803 -0.05480264
000110 0a 70 92 bd 96 80 d2 3d b8 5f b3 3c b2 88 b8 bd
       -0.07150276 0.10278432 0.021896228 -0.090104476
000120 39 5b ba be e9 ce 80 bc 74 30 dc 3d f6 25 85 bd
       -0.36397722 -0.015723662 0.10751429 -0.06501381
000130 88 6d 5e bd c0 4d 7f bb 40 91 fc 3b de 27 f8 bd
       -0.054303676 -0.0038956255 0.007707745 -0.12116979
000140 20 16 b1 3c a8 6c df bc c0 48 6b bc 60 35 8d bb
       0.021616995 -0.027273491 -0.014360607 -0.0043093413
000150 70 4e ec 3c 0e ea f6 bd 90 c1 21 bd 26 65 d8 bd
       0.028845996 -0.12056361 -0.039491236 -0.105661675
000160 5c 68 f1 bd c4 b7 c4 bd 90 ec b9 3c 38 e6 1d 3d
       -0.11787483 -0.09605363 0.02269581 0.03854963
000170 ec 69 1e 3d 20 6c 65 bc 28 f8 37 3d 00 f6 a3 ba
       0.038675234 -0.01400283 0.044914395 -0.0012509227
000180 4a a0 ef 3d 00 33 71 bc b8 59 41 3d 53 f8 34 bc
       0.117004946 -0.014721632 0.047204703 -0.011045533
000190 fa d4 93 3d da c5 b5 bd 18 45 51 bd 72 26 e2 bd
       0.072183564 -0.08875628 -0.051091284 -0.11042489
0001a0 e6 e3 c3 bd 58 c1 bb bc 18 cc 38 3d 80 b6 d4 bc
       -0.095649526 -0.022919342 0.045116514 -0.025965929
0001b0 7e 42 be bd fd 7a 2b be f6 6d 2e bd 74 25 5c 3d
       -0.09290026 -0.16746135 -0.042585336 0.053746656
0001c0 f0 73 36 bd 40 ac a6 bb ef f3 64 bd 48 f2 fa bc
       -0.04454416 -0.005086452 -0.055896696 -0.030633107
0001d0 b8 6b c5 be 64 b2 87 3d 70 f9 90 3d 27 cb 88 be
       -0.38558745 0.06625822 0.070788264 -0.26717493
0001e0 24 3a bb 3d 88 6d 98 3c 8b a4 c9 bd 7a 52 ed bd
       0.09141949 0.018606916 -0.09845837 -0.11587997
0001f0 4b f9 50 be 64 43 7d bd e2 7b f7 bd 44 5e e8 bd
       -0.20407598 -0.061831847 -0.12084176 -0.11346105
000200 10 39 bf bc c2 6a 86 3d 9e 65 e6 bd d2 59 e8 bd
       -0.02334264 0.06563331 -0.11249851 -0.11345257
000210 9c 5c ef bd 48 da a3 bd b4 d7 77 bd c9 bf 9f be
       -0.11687586 -0.08000618 -0.060508445 -0.31201008
000220 f7 60 ec be 6b de fb bc 1e 86 a6 bd 5c 31 a7 3d
       -0.46167728 -0.030745706 -0.081310496 0.081637114
000230 34 bb 30 3d 00 51 cc bb 28 a6 f4 3d e4 a2 94 bd
       0.04314728 -0.006235242 0.11945754 -0.072576314
000240 74 58 ee 3d c4 0b 85 3d 00 9d 6d bd ec d1 22 3d
       0.11637965 0.06496385 -0.058011055 0.03975098
000250 c8 f6 17 3d f8 9a 68 3d c4 38 59 bd 1a 1c 97 bd
       0.037100583 0.056788415 -0.05303265 -0.07378407
000260 50 1c 23 bd 78 3f dc bc f2 c9 ff 3d be 17 b8 3d
       -0.039821923 -0.026885733 0.1248969 0.089889035
000270 9c 35 0e bd f8 b9 ff bd 60 c2 0c bc b8 ae ab bc
       -0.034719095 -0.124866426 -0.0085912645 -0.020957336
000280 80 37 54 3d a8 66 a0 bc 20 b4 fe bb f8 fa 52 3d
       0.05181074 -0.0195802 -0.0077729374 0.051508874
000290 60 ef df bb 10 12 78 3d ac 8c 3f bd dc 28 23 3d
       -0.0068339556 0.0605641 -0.046765015 0.03983389
0002a0 32 f3 a9 3d 1a 86 a0 3d ba b8 a5 3d 3e 60 cd bd
       0.08298339 0.07838078 0.080918744 -0.10028122
0002b0 0a 1f fd 3d 56 07 a8 bd 7b 55 e2 be 2c 78 49 3d
       0.12359436 -0.08204524 -0.4420584 0.04918687
0002c0 ba 06 f0 bd 50 b4 8a 3c 5d 91 42 be 2a 63 9c bd
       -0.11720033 0.016931683 -0.19000764 -0.076361015
0002d0 9e 4b 0c be 70 cc bf bc 74 bf ca bd c1 ef 99 bf
       -0.1370072 -0.023412913 -0.09899798 -1.2026292
0002e0 e8 a9 fb 3d f0 37 78 3c 11 7b 72 be a4 81 ce 3d
       0.122882664 0.015150055 -0.23679759 0.10083321
0002f0 a3 fb 36 be 40 67 7c 3b dc dd 52 3d 74 a3 fd bd
       -0.1786943 0.003851369 0.051481113 -0.12384692
000300 81 fb 97 3e 2a 66 f6 bd 14 bf 10 3e c7 91 1a be
       0.2968407 -0.12031205 0.1413539 -0.15094672
000310 19 b2 00 be a8 8d 26 bb 1c a8 93 3d bb 3b 81 bb
       -0.12567939 -0.0025414024 0.07209799 -0.003943888
000320 09 1a 46 be 81 0a a2 bd be 50 98 bb fd ae a9 3d
       -0.19345869 -0.0791216 -0.004648297 0.082853295
000330 8c 91 36 bd dc 31 2d bd fb 56 fa 3c 9a 4a 02 3b
       -0.044572398 -0.042283878 0.030559054 0.0019880892
000340 b6 cd 82 3d 6b 4f a6 bd f7 8f 02 3c b4 5d ba bc
       0.063868925 -0.081206165 0.007968894 -0.02274976
000350 e2 ae 40 3d 07 14 0e be e2 03 e0 3c 80 89 a9 bd
       0.04704178 -0.13874827 0.027345601 -0.08278179
000360 78 f0 fd bc c3 93 a8 bd e4 8b 41 bd da c4 b4 3c
       -0.030998453 -0.08231308 -0.04725255 0.022066522
000370 84 e2 84 3b 83 70 a3 3c 30 22 8b 3d f3 1e 93 bd
       0.004055323 0.01995111 0.0679363 -0.071836375
000380 c8 7e c4 3b a1 d3 12 3e b6 95 0e 3e 76 2a a1 be
       0.005996559 0.14338543 0.13924298 -0.31477708
000390 65 e0 b6 bd 58 8d b9 3c ee 32 a9 3e e9 d0 52 3e
       -0.089295186 0.022650406 0.3304667 0.20587505
0003a0 39 f2 68 bc 73 ee 0a be 5f e5 d7 bd 84 d6 41 3e
       -0.014217907 -0.13567524 -0.10541796 0.18929487
0003b0 5c be a6 3c 29 80 03 be 3d 4b 1a be c1 f3 e1 bc
       0.020354442 -0.12841858 -0.15067764 -0.027582051
0003c0 de ba 78 3c b6 de 91 bd 99 f8 91 bb a4 cd 57 3d
       0.015181271 -0.07122557 -0.004454684 0.05268635
0003d0 be d4 41 bd 2b d7 38 3e c0 03 c3 3d cb 67 db bd
       -0.047322027 0.1805083 0.095222 -0.10713156
0003e0 0a f6 bd bd 26 ec f9 3d 68 a7 02 bd 42 f7 d1 3d
       -0.09275444 0.12203245 -0.031897932 0.10252239
0003f0 9d a4 23 be 00 96 e6 3a 46 be 9f bd 36 cf 5c bb
       -0.15980764 0.0017592311 -0.07799964 -0.0033692843

fc3.bias f4 [32]
000000 19 0f 09 be 71 89 1b be 19 08 65 bc e5 6b 62 bd
       -0.13384666 -0.15189148 -0.013978981 -0.055278677
000010 0f 22 99 bf a2 e5 5a bf 8d f3 19 bd 42 1b f9 bd
       -1.1963519 -0.8550664 -0.037585784 -0.12163402
000020 a3 01 0f bf b5 df 96 bc a9 49 19 be 61 00 00 be
       -0.5586187 -0.018417219 -0.14969505 -0.12500145
000030 93 87 80 c0 7c e0 81 bf f0 f2 51 bf 9b fc 84 be
       -4.0165496 -1.0146632 -0.8201132 -0.25973973
000040 8a 9e 6c be d2 33 20 bf 7d 61 d9 bc b7 a3 a3 be
       -0.23107353 -0.6257907 -0.026535744 -0.31960842
000050 e5 76 0c be 3b 2b 44 be 63 97 48 be a0 4d 12 bd
       -0.1371723 -0.19157116 -0.19589 -0.03571856
000060 53 19 cd be cf d7 d3 3f bb ee 16 be 32 d8 b6 be
       -0.40058383 1.6550235 -0.14739506 -0.3571182
000070 36 91 dd be f4 77 07 40 10 06 a6 bd 29 f5 16 bc
       -0.4327485 2.1166964 -0.08106625 -0.009213724

fc4.weight f4 [2, 32]
000000 71 3e 07 be d3 54 0d bf c7 2d 71 3e 5f 4c ba 3b
       -0.13207413 -0.55207556 0.23552619 0.0056853737
000010 3a 41 bb bc 27 43 3b 3e f2 d3 bf 3d 04 c9 a8 3d
       -0.02285825 0.18287335 0.09366597 0.08241466
000020 cd 87 bf bd 19 2e 9d 3f ae 54 82 bd 31 4c e8 bc
       -0.09352074 1.2279693 -0.063638076 -0.028356643
000030 43 78 75 3e f0 f0 4a bc bc 2b a2 be 77 be 89 3d
       0.23971657 -0.012386546 -0.31673992 0.067257814
000040 eb c4 47 bd 9b c3 b4 3d 7f e2 85 bc 14 ab 1f 3c
       -0.04877178 0.08826371 -0.016343353 0.009745378
000050 83 93 71 3d f6 5e aa 3d 8e 9b 8e be bc 60 23 3d
       0.05897857 0.083188936 -0.27853054 0.039887175
000060 3d b7 54 bd fb 87 4b be d4 0a 52 bd 78 c8 fd bc
       -0.051932562 -0.19876091 -0.051279858 -0.03097938
000070 65 20 71 3b 1c 3a 25 3e 9d 2e aa 3d 06 64 2a 3f
       0.003679299 0.16135448 0.08309672 0.66558874
000080 24 be f3 bd fb eb 42 3e 07 1b 2f 3d 25 9d d4 bd
       -0.11901501 0.19035332 0.042750385 -0.103815354
000090 5d 01 5f bd f3 1a ba be 5c 56 0a 3d 64 34 e5 3b
       -0.05444466 -0.36348686 0.033773765 0.006994771
0000a0 85 97 84 3e 1b eb 67 bc 8a 4f e7 3c 2e 18 03 bd
       0.2589685 -0.014155175 0.02823617 -0.03200548
0000b0 e7 cb af bc 26 35 32 3e 7f b9 ff 3d 99 db aa bd
       -0.021459533 0.17403087 0.124865524 -0.08342666
0000c0 0a ae ad 3d 7a b4 2c bd 6d d9 66 3d 9f 93 74 3c
       0.08480461 -0.042164303 0.056359697 0.014927774
0000d0 b3 6f 21 3e 47 77 b5 3d f2 9c e0 be bd cc 30 3d
       0.15765266 0.08860641 -0.4386974 0.043164004
0000e0 70 cb 88 3d 06 e8 85 3e a5 61 31 be 55 44 e2 3d
       0.066794276 0.26153582 -0.17322405 0.110481896
0000f0 92 44 72 3e 31 51 0a 3e 59 17 80 be 01 d7 14 be
       0.2365897 0.13507535 -0.25017813 -0.14535142

fc4.bias f4 [2]
000000 f2 33 1d bf 34 c2 0f bf
       -0.6140739 -0.56155705
