models/action_file/dqn_model.pth (torch, 46872 bytes, 8 tensors)

fc1.weight f4 [128, 3]
-0.4945276 0.36900473 -0.38354987 -0.24457164 0.47778815 -0.46569228 0.32541424 -0.31976107
-0.35360166 0.0025970603 0.3403107 0.64501214 -0.4200868 -0.12553588 0.06891233 -0.4014628
-0.34998304 -0.38451678 0.35323396 -0.306988 -0.29468107 -0.44283932 -0.17131633 -0.5177525
0.03928138 -0.177271 -0.5391704 -0.19033654 0.220559 0.31376714 0.010992796 -0.115390114
-0.068213746 0.25578913 -0.4344255 0.59416586 -0.15726224 -0.2882089 0.09353471 0.115943566
-0.45921132 0.5072386 -0.06556336 0.18845138 0.108133055 -0.11717334 0.02269451 -0.4935717
0.34988755 -0.33530346 -0.043319207 -0.046072073 0.17219654 0.12896481 0.055548128 -0.12663841
0.21174473 0.24679218 -0.5754307 0.09628226 -0.4273483 -0.5683911 0.18746585 -0.24264538
-0.35464355 -0.32483792 -0.24476773 0.5497289 -0.47243118 -0.51964605 -0.33971584 -0.16459897
-0.30284885 -0.08527365 -0.42717153 0.07744849 -0.22376117 -0.25871888 -0.06688965 0.3142367
0.020276725 0.09575313 0.10921457 -0.5036425 -0.3656145 0.44236618 -0.55730325 0.20112352
-0.58664924 -0.271672 -0.027221082 0.21614762 0.036491547 -0.090562284 0.2693682 -0.19829802
0.0014347256 -0.08348323 -0.019642467 0.07527193 -0.06563313 0.54030865 -0.55966526 -0.41152972
-0.12222764 0.16940801 -0.16969545 -0.6279777 -0.00070300716 0.2543081 -0.1922183 -0.395742
0.46326035 0.53034717 0.0682806 0.0015253116 0.16342671 -0.54356575 0.111612916 0.52882576
-0.45785347 -0.07130122 -0.32809824 -0.1535698 0.2361847 -0.117931925 -0.15419349 0.0071850773
-0.5697629 -0.18111688 -0.21132028 -0.26249933 0.023756722 0.3326135 0.262086 0.021615988
-0.07438213 -0.06906212 0.3003292 -0.24952683 -0.039708506 -0.42652327 -0.21023834 -0.53796804
-0.18876666 0.47634324 0.48294312 -0.3439727 -0.49362177 0.00273031 -0.5037971 0.47832164
0.28455085 0.13642627 -0.02163205 0.42058784 -0.536491 -0.19224006 -0.24780777 -0.18355854
0.3986599 0.3359592 -0.008454934 0.41386732 -0.047003273 0.093614325 -0.14596818 -0.41766903
-0.32233462 0.72083634 -0.46007657 0.1950792 -0.36237344 -0.51010287 -0.41558456 -0.32447892
-0.37141296 0.044701014 0.188447 0.54480475 -0.017813012 -0.02982001 0.35553563 -0.1761165
-0.23660532 0.3357342 0.123761475 -0.10142774 -0.004390825 0.028052105 -0.08958454 -0.048072305
0.22782806 -0.24194342 -0.4086623 0.07648275 -0.44723344 0.150091 -0.0045962688 -0.06427172
-0.40468726 0.046383534 -0.13088746 -0.09185278 -0.0064481976 -0.048735164 0.4372442 -0.25639725
0.26995504 0.50562465 -0.027500331 -0.52115107 -0.47035295 -0.2268468 0.24960534 -0.49317688
-0.097424425 0.39082226 -0.08121644 0.019870656 0.27524808 0.22158669 0.1199248 -0.06693929
-0.09790739 0.10019671 0.089169316 -0.19250672 0.028923716 0.31909633 -0.16968775 0.033911202
-0.15124641 -0.24214101 -0.48536998 0.26257887 0.4190086 -0.52371633 -0.5029839 0.31071734
-0.2608615 -0.30794185 -0.42174417 -0.48889992 0.17184204 -0.30491108 -0.3436414 -0.021624446
-0.30831456 -0.19549567 0.40714258 -0.27214208 -0.015726814 0.03243011 -0.4579427 -0.027808547
00000000: b932 fdbe 30ee bc3e a660 c4be fd70 7abe
00000010: a6a0 f43e 386f eebe b29c a63e b9b7 a3be
00000020: 470b b5be 7133 2a3b 343d ae3e 841f 253f
00000030: 9e15 d7be 7a8c 00be e821 8d3d 888c cdbe
00000040: fa30 b3be 62df c4be 15db b43e 882d 9dbe
00000050: 70e0 96be d6bb e2be 8c6d 2fbe 6e8b 04bf
00000060: 83e5 203d 8786 35be 1207 0abf 95e7 42be
00000070: 38da 613e 16a6 a03e 211b 343c a751 ecbd
00000080: a6b3 8bbd cbf6 823e 056d debe 411b 183f
00000090: 5a09 21be 1e90 93be 208f bf3d d273 ed3d
000000a0: bf1d ebbe 64da 013f 1546 86bd 66f9 403e
000000b0: dd74 dd3d 93f8 efbd d6e9 b93c 6eb5 fcbe
000000c0: 7624 b33e e5ac abbe 7b6f 31bd 12b6 3cbd
000000d0: 4a54 303e 5a0f 043e 6f86 633d 80ad 01be
000000e0: 9cd3 583e 17b7 7c3e 6d4f 13bf a22f c53d
000000f0: 65cd dabe 1482 11bf 0cf7 3f3e 0878 78be
00000100: d793 b5be 2851 a6be 64a4 7abe 08bb 0c3f
00000110: 80e2 f1be 8607 05bf 3cef adbe a28c 28be
00000120: 010f 9bbe f4a3 aebd 3ab6 dabe 509d 9e3d
00000130: a621 65be cd76 84be 71fd 88bd a2e3 a03e
00000140: 601b a63c 381a c43d e3ab df3d b7ee 00bf
00000150: d331 bbbe d27d e23e 6dab 0ebf 53f3 4d3e
00000160: a52e 16bf 9818 8bbe bffe debc cd55 5d3e
00000170: 2978 153d b878 b9bd a1ea 893e a30e 4bbe
00000180: 670d bc3a 41f9 aabd 3de9 a0bc 2b28 9a3d
00000190: aa6a 86bd ab51 0a3f 3946 0fbf 06b4 d2be
000001a0: 7c52 fabd 4b79 2d3e a5c4 2dbe 26c3 20bf
000001b0: 034a 38ba ac34 823e e0d4 44be b29e cabe
000001c0: 7630 ed3e d5c4 073f b3d6 8b3d f7ec c73a
000001d0: 5559 273e 2027 0bbf 5095 e43d 2061 073f
000001e0: c56b eabe 6006 92bd 7efc a7be 6741 1dbe
000001f0: 67da 713e 4b86 f1bd e6e4 1dbe cc70 eb3b
00000200: fbdb 11bf b476 39be 5864 58be 5066 86be
00000210: 759d c23c 514c aa3e 2330 863e 0314 b13c
00000220: a855 98bd 7170 8dbd c0c4 993e f683 7fbe
00000230: 63a5 22bd 4261 dabe b848 57be 46b8 09bf
00000240: 0c4c 41be 43e3 f33e 5244 f73e 311d b0be
00000250: febb fcbe 00ef 323b d9f8 00bf 93e6 f43e
00000260: a6b0 913e 54b3 0b3e b235 b1bc 4a57 d73e
00000270: 7957 09bf 94da 44be 52c1 7dbe c5f6 3bbe
00000280: 271d cc3e d802 ac3e 9086 0abc 6be6 d33e
00000290: 8186 40bd deb8 bf3d af78 15be b7d8 d5be
000002a0: 0b09 a5be bb88 383f 288f ebbe d8c2 473e
000002b0: 0389 b9be 1a96 02bf 80c7 d4be 1a22 a6be
000002c0: d729 bebe 6918 373d 40f8 403e 5378 0b3f
000002d0: 98ec 91bc 1849 f4bc c408 b63e e257 34be
000002e0: aa48 72be 5ae5 ab3e a876 fd3d 59b9 cfbd
000002f0: e9e0 8fbb 87cd e53c 1978 b7bd 77e7 44bd
00000300: c24b 693e 04c0 77be 2f3c d1be fda2 9c3d
00000310: c8fb e4be 75b1 193e 4c9c 96bb e4a0 83bd
00000320: 2b33 cfbe a9fc 3d3d 5d07 06be 4f1d bcbd
00000330: 674b d3bb 869e 47bd 79de df3e 8046 83be
00000340: 8c37 8a3e 9e70 013f 6048 e1bc 286a 05bf
00000350: 1ad2 f0be 874a 68be 8b98 7f3e ae81 fcbe
00000360: 7586 c7bd db19 c83e ce54 a6bd c9c7 a23c
00000370: 51ed 8c3e 9fe7 623e 229b f53d 7717 89bd
00000380: ab83 c8bd ef33 cd3d 679e b63d 7b20 45be
00000390: 6ef1 ec3c 9860 a33e a0c2 2dbe 79e6 0a3d
000003a0: 57e0 1abe d0f3 77be 6a82 f8be bd70 863e
000003b0: 4c88 d63e 4612 06bf 8ec3 00bf 5816 9f3e
000003c0: a38f 85be 8eaa 9dbe daee d7be 1751 fabe
000003d0: 5cf7 2f3e 4e1d 9cbe c4f1 afbe c025 b1bc
000003e0: 68db 9dbe 0430 48be fe74 d03e 3556 8bbe
000003f0: 85d5 80bc 6fd5 043d 7777 eabe c0ce e3bc

fc1.bias f4 [128]
-0.56403273 0.5801559 -0.34337774 -0.47004935 -0.5533691 -0.012670219 -0.786834 -0.4194207
0.62131476 -0.15971833 0.122627206 -0.3906721 0.19001526 0.43994376 0.80394214 0.24162479
-0.4722708 0.82777 0.542858 -0.16791825 -0.16188216 -0.13547724 0.3594756 0.37031752
0.5390903 0.5767446 0.45298415 -0.67393625 -0.43523824 0.25610355 0.20068586 0.49588662
0.84945697 -0.1855361 0.28185523 -0.05643158 -0.2744566 0.10913148 -0.52676636 -0.36997375
0.29295975 -0.15423733 0.5743324 -0.510146 -0.70096636 0.43729347 -0.80518097 0.07518679
-0.07059273 -0.24837261 -0.33265984 -0.8216848 -0.20571679 0.34539786 -0.2883431 0.4507559
0.6483993 0.32117167 0.1350531 -0.5760156 0.50464934 0.3196252 -0.24610719 0.49954522
-0.7136238 0.35364258 0.7759168 -0.27542663 0.564285 0.083090015 -0.4203387 0.17892982
-0.7038073 -0.43692905 -0.49782762 -0.5067536 -0.6502688 0.23853461 0.18015982 -0.10435042
-0.57278204 -0.3528419 0.39759958 0.21595703 0.40721056 0.08602488 0.3723364 -0.22023633
0.304156 0.68837327 0.2747953 -0.61787087 0.18312538 -0.0017140012 -0.5468554 -0.14190994
-0.861635 0.6406651 0.04114789 0.532014 -0.473968 -0.543066 0.17126518 -0.6743044
-0.5405449 -0.97266275 -0.14152667 0.47062272 0.41981235 0.056789637 0.46417928 -0.8423786
0.056586776 -0.5199917 0.23886852 0.74866146 -0.4320262 -0.8621742 -0.11851646 -0.39602265
-0.3700679 -0.25531512 -0.29835132 -0.39751437 0.4710232 0.74073106 0.4634726 0.31926972
00000000: 7364 10bf 1985 143f 35cf afbe 4faa f0be
00000010: 99a9 0dbf c096 4fbc f46d 49bf 4fbe d6be
00000020: 7c0e 1f3f 348d 23be f923 fb3d 2c06 c8be
00000030: 5c93 423e 4f40 e13e 27cf 4d3f 7d6c 773e
00000040: 7acd f1be bce8 533f bef8 0a3f c3f2 2bbe
00000050: 70c4 25be 8cba 0abe 300d b83e 429a bd3e
00000060: d201 0a3f 89a5 133f 8aed e73e 1687 2cbf
00000070: 8cd7 debe 0120 833e 9880 4d3e dae4 fd3e
00000080: 0376 593f 2dfd 3dbe 544f 903e cd24 67bd
00000090: 9385 8cbe 5380 df3d 29da 06bf 336d bdbe
000000a0: d2fe 953e 64f0 1dbe 7307 133f ee98 02bf
000000b0: 8872 33bf eee4 df3e 5720 4ebf 88fb 993d
000000c0: ec92 90bd 6455 7ebe 6452 aabe ef59 52bf
000000d0: 6ca7 52be fdd7 b03e b5a1 93be 7ac9 e63e
000000e0: 7ffd 253f 9d70 a43e 5c4b 0a3e c275 13bf
000000f0: b330 013f eaa5 a33e 8603 7cbe 64c4 ff3e
00000100: 0db0 36bf a410 b53e 7ca2 463f b804 8dbe
00000110: fb74 103f 192b aa3d a236 d7be 6139 373e
00000120: b72c 34bf 2ab5 dfbe 43e3 febe 9bba 01bf
00000130: 0478 26bf 6b42 743e d17b 383e acb5 d5bd
00000140: d8a1 12bf b2a7 b4be 2c92 cb3e d723 5d3e
00000150: e77d d03e d02d b03d e0a2 be3e a285 61be
00000160: 56ba 9b3e 3b39 303f f8b1 8c3e c92c 1ebf
00000170: 3885 3b3e 56a8 e0ba b7fe 0bbf d750 11be
00000180: 1d94 5cbf a102 243f b18a 283d 1232 083f
00000190: efab f2be 6006 0bbf 2460 2f3e 379f 2cbf
000001a0: 2761 0abf 6d00 79bf 5eec 10be 76f5 f03e
000001b0: a5f1 d63e 409c 683d e8a8 ed3e 20a6 57bf
000001c0: 89c7 673d 2d1e 05bf f399 743e 47a8 3f3f
000001d0: 8a32 ddbe 73b7 5cbf c2b8 f2bd 7bc3 cabe
000001e0: 8a79 bdbe aab8 82be 81c1 98be 0187 cbbe
000001f0: f429 f13e 8da0 3d3f 484c ed3e 5277 a33e

fc2.weight f4 [64, 128]
-0.043854315 -0.052922353 0.046076477 -0.009163115 -5.3070486e-05 -0.058585003 0.06734996 -0.087133616
0.10260214 0.04646433 -0.028314753 -0.06898247 0.0042848885 -0.14618874 0.014312732 -0.014158035
0.02636941 0.08633567 0.008471248 -0.0803634 -0.08645207 -0.01648423 0.06575633 -0.047101777
-0.04390768 0.009402658 0.080089524 -0.014915919 0.03810384 0.005287951 0.055889 0.07689576
-0.07922769 -0.08523403 0.041786917 0.039994843 0.08792697 -0.0552959 0.04129574 -0.02070111
0.060359888 -0.00095807377 -0.006254874 0.006099239 -0.070530795 -0.06430491 0.05487323 -0.048472635
0.0026928338 -0.056330316 -0.026951097 -0.0113600185 0.067897104 -0.12092566 0.034194827 0.050208837
-0.0113477735 0.03811343 0.028753556 -0.02633618 0.03640341 -0.023109578 -0.09993604 -0.074792735
-0.056634266 -0.112262845 0.107953034 -0.022967856 0.03912393 0.048620164 0.028657138 0.071855135
-0.06236946 0.029021677 -0.06789711 -0.05548808 -0.057867978 0.06279962 -0.033005297 0.02582442
0.055670194 -0.034124218 -0.07810297 0.067207254 -0.023445617 0.01848337 0.10845361 -0.013714351
0.0622006 -0.022558434 -0.0011187047 -0.05229973 0.056500923 -0.089164376 0.024805697 0.023314359
0.02170264 0.043516554 -0.032410786 0.000436306 -0.10949937 -0.03374265 0.04237316 -0.022405153
-0.022452153 0.010716811 -0.0013672473 -0.0007921679 0.05016683 0.084770136 -0.003902711 0.07041081
0.05748797 -0.03252888 0.09381893 0.01295921 -0.04295882 0.01900321 -0.0929556 -0.032185625
-0.082023 -0.028530871 -0.074946776 0.037850585 -0.05891339 0.025394907 0.037249528 0.060916863
0.09833871 -0.09530312 -0.030777255 0.030129941 -0.08713428 0.084635876 -0.023026133 0.06568272
-0.06374291 -0.05396092 0.07201251 0.05302807 0.022111483 -0.028599054 0.0890961 0.026771586
-0.0060848296 0.13785283 -0.04183891 -0.0365435 0.030336417 0.054276712 -0.08813563 0.0880444
0.033569135 0.077386215 0.11080141 -0.038054682 -0.041480828 -0.060973603 0.03788759 0.09567459
-0.006955845 0.010952127 -0.07896854 -0.0007375995 -0.08018176 -0.016439155 -0.04452644 -0.01674018
-0.0051592886 -0.049279798 -0.055151768 -0.073131725 0.07168378 0.030417798 -0.09283488 0.033557564
-0.09719979 -0.025992762 0.0063805664 -0.061938122 -0.0211211 0.045359228 0.06952667 0.01791963
-0.031281456 -0.007454952 0.0639971 0.06824779 -0.037228987 0.080391444 0.09606557 0.100591354
-0.07943024 -0.004504811 0.055068586 -0.041609455 0.115898564 -0.066946976 0.038754962 0.034216404
-0.044243604 -0.005798157 -0.035539903 0.041689437 -0.078823626 -0.07108763 0.05298117 0.08484534
-0.028807055 0.0011282787 0.0480837 -0.0003070257 0.04617618 -0.021166824 0.066867985 -0.0711097
-0.042045526 -0.012590057 0.070066296 -0.059203126 0.055906765 0.09532945 -0.059312217 0.038343698
0.019825572 0.05215788 0.06288209 -0.06364739 -0.03872198 -0.030604005 0.047600534 0.04084669
-0.08278778 0.022781221 0.08103479 0.029028995 -0.029930504 0.085533686 0.07122787 -0.028942311
0.037794765 -0.034287475 0.083402075 0.08802703 0.020155424 -0.082259804 0.122445196 -0.07940299
0.0527991 -0.054581944 0.02740798 0.07645814 0.08612896 -0.046450544 0.029987969 -0.076397434
00000000: 95a0 33bd 1cc5 58bd b0ba 3c3d e420 16bc
00000010: 0098 5eb8 d4f6 6fbd c7ee 893d 1c73 b2bd
00000020: 1221 d23d 6251 3e3d 57f4 e7bc ae46 8dbd
00000030: 4068 8c3b 80b2 15be f37f 6a3c 1af7 67bc
00000040: a904 d83c c1d0 b03d fdca 0a3c 9195 a4bd
00000050: c80d b1bd f009 87bc 41ab 863d cbed 40bd
00000060: 8ad8 33bd 9b0d 1a3c fa05 a43d e661 74bc
00000070: c612 1c3d 8c46 ad3b ddeb 643d 867b 9d3d
00000080: 2142 a2bd 2e8f aebd c228 2b3d a2d1 233d
00000090: 0e13 b43d f47d 62bd b925 293d 6095 a9bc
000000a0: ee3b 773d 3e27 7bba b0f5 ccbb 20dc c73b
000000b0: 7372 90bd 4bb2 83bd c1c2 603d 3e8b 46bd
000000c0: 417a 303b 9eba 66bd 8cc8 dcbc 5f1f 3abc
000000d0: a30d 8b3d dfa7 f7bd e00f 0c3d c8a7 4d3d
000000e0: 03ec 39bc d41c 1c3d 948c eb3c f9be d7bc
000000f0: be1b 153d 4c50 bdbc 44ab ccbd ef2c 99bd
00000100: 55f9 67bd 10ea e5bd 7b16 dd3d 1627 bcbc
00000110: 6a40 203d f025 473d 60c2 ea3c c928 933d
00000120: 1e77 7fbd debe ed3c a40d 8bbd 7847 63bd
00000130: f906 6dbd 169d 803d 9030 07bd bc8d d33c
00000140: 6e06 643d d6c5 0bbd 73f4 9fbd f5a3 893d
00000150: 0611 c0bc 706a 973c ed1c de3d 28b2 60bc
00000160: 0ec6 7e3d 77cc b8bc 80a1 92ba 3e38 56bd
00000170: 836d 673d d09b b6bd 5135 cb3c c1fd be3c
00000180: bcc9 b13c 6a3e 323d 2cc1 04bd 00c0 e439
00000190: 3541 e0bd bc35 0abd 7b8f 2d3d 038b b7bc
000001a0: 94ed b7bc 9095 2f3c 3535 b3ba 7da9 4fba
000001b0: bc7b 4d3d f79b ad3d a0c4 7fbb 8b33 903d
000001c0: 8178 6b3d 013d 05bd 2424 c03d de52 543c
000001d0: 96f5 2fbd 9fac 9b3c 815f bebd 13d5 03bd
000001e0: adfb a7bd 93b9 e9bc b27d 99bd 3709 1b3d
000001f0: 2b4f 71bd fb08 d03c f692 183d f683 793d
00000200: ce65 c93d 482e c3bd 9520 fcbc 11d3 f63c
00000210: 7573 b2bd 9355 ad3d 4da1 bcbc a984 863d
00000220: a58b 82bd 2006 5dbd 4b7b 933d f633 593d
00000230: 2423 b53c 9048 eabc 0478 b63d 1650 db3c
00000240: 4063 c7bb 4b29 0d3e 475f 2bbd a3ae 15bd
00000250: 1484 f83c 4251 5e3d 7480 b4bd 9f50 b43d
00000260: ca7f 093d aa7c 9e3d daeb e23d 3adf 1bbd
00000270: cde7 29bd 75bf 79bd 0430 1b3d 0af1 c33d
00000280: dbed e3bb 8d70 333c 42ba a1bd 775b 41ba
00000290: 5636 a4bd 68ab 86bc 5b61 36bd b422 89bc
000002a0: 400f a9bb 9dd9 49bd d2e6 61bd 16c6 95bd
000002b0: f2ce 923d bf2e f93c 3720 bebd a873 093d
000002c0: af10 c7bd c6ee d4bc 1214 d13b d4b2 7dbd
000002d0: 2806 adbc 99ca 393d 0064 8e3d 30cc 923c
000002e0: fc20 00bd ac48 f4bb e910 833d 7fc5 8b3d
000002f0: 6c7d 18bd 45a4 a43d 07be c43d d702 ce3d
00000300: 52ac a2bd 189d 93bb 998f 613d ad6e 2abd
00000310: 3a5c ed3d 7f1b 89bd 86bd 1e3d 8026 0c3d
00000320: c838 35bd 77fe bdbb 4a92 11bd 8bc2 2a3d
00000330: 486e a1bd 6496 91bd c902 593d 65c3 ad3d
00000340: c6fc ebbc c0e2 933a 6af3 443d 4bf8 a0b9
00000350: 3c23 3d3d 0c66 adbc 15f2 883d f6a1 91bd
00000360: ee37 2cbd 8746 4ebc eb7e 8f3d fa7e 72bd
00000370: 7efe 643d 163c c33d 5ef1 72bd 480e 1d3d
00000380: 3d69 a23c 80a3 553d 53c8 803d 9059 82bd
00000390: f09a 1ebd 40b5 fabc c7f8 423d dc4e 273d
000003a0: a48c a9bd af9f ba3c 91f5 a53d 37ce ed3c
000003b0: d130 f5bc 492c af3d ebdf 913d 6d18 edbc
000003c0: afce 1a3d 0671 0cbd b5ce aa3d 8447 b43d
000003d0: fd1c a53c d477 a8bd 8cc4 fa3d 099e a2bd
000003e0: de43 583d 5191 5fbd b386 e03c 1696 9c3d
000003f0: 6164 b03d ed42 3ebd 54a9 f53c 4276 9cbd

fc2.bias f4 [64]
0.047813743 -0.019469677 0.20214725 -0.15410031 -0.34330145 0.061391834 0.066874914 -0.07029371
-0.015147251 -0.02254159 0.114482455 -0.25848183 -0.011812426 0.19091867 0.13713048 -0.039274555
-0.13720073 0.06101161 0.005223009 -0.42867386 -0.38173437 0.035495132 -0.027942697 0.0075725396
-0.02452036 -0.022706555 0.13101047 -0.08253517 0.0844914 0.1777849 -0.41225392 -0.1770363
0.08053036 -0.35319582 -0.057794005 0.10847407 -0.054278236 -0.07077746 0.039350677 -0.04908721
-0.08276783 0.041797675 -0.028699543 -0.50563616 -0.0044822725 -0.20720309 0.050699048 -0.1930172
-0.03437057 -0.02074522 -0.075410984 -0.06420901 0.0704749 0.08830154 -0.3340516 0.0756906
-0.4719309 0.055342488 0.0019003376 -0.016338171 0.015302766 0.15690716 -0.07228273 -0.03279319
00000000: 58d8 433d df7e 9fbc b0ff 4e3e 79cc 1dbe
00000010: 35c5 afbe 0176 7b3d b7f5 883d 26f6 8fbd
00000020: 2d2c 78bc 24a9 b8bc c775 ea3d bb57 84be
00000030: e888 41bc 2f80 433e ef6b 0c3e 5bde 20bd
00000040: 597e 0cbe 4fe7 793d c625 ab3b 247b dbbe
00000050: b072 c3be 5863 113d 15e8 e4bc 1123 f83b
00000060: ecde c8bc 1903 babc 9c27 063e 3308 a9bd
00000070: d409 ad3d 3f0d 363e f212 d3be 0149 35be
00000080: 1aed a43d 15d6 b4be 68b9 6cbd a727 de3d
00000090: db52 5ebd c6f3 90bd 2d2e 213d ac0f 49bd
000000a0: 2e82 a9bd 0a34 2b3d 4e1b ebbc 5f71 01bf
000000b0: 07e0 92bb 0c2d 54be cea9 4f3d 4da6 45be
000000c0: 28c8 0cbd e1f1 a9bc 1371 9abd 0380 83bd
000000d0: 2555 903d 70d7 b43d d008 abbe ac03 9b3d
000000e0: eda0 f1be ceae 623d c014 f93a a1d7 85bc
000000f0: 74b8 7a3c 45ac 203e f808 94bd 2752 06bd

fc3.weight f4 [32, 64]
0.07814928 0.086941026 0.11824037 0.13651755 -0.005988302 -0.080890864 -0.054892637 -0.019199535
0.013880859 -0.08115706 0.15640853 0.07793603 0.017754674 0.15846361 0.12578976 -0.00025044984
-0.019417122 0.030487109 0.120793276 -0.040186726 -0.0057963524 -0.08188268 0.06505133 0.027258161
0.09511407 0.04851662 -0.011566269 -0.026425958 0.08534609 0.1957276 -0.033849824 -0.050367597
0.017264422 0.036792975 0.09111595 0.01929414 -0.012994978 -0.031143963 -0.0039279507 -0.11519315
0.103002325 -0.018741578 -0.07626156 -0.01391402 -0.063355744 0.017066933 0.064108275 -0.06353561
0.09785303 -0.050940525 0.06168291 -0.044263322 0.023108197 -0.08737677 0.024306335 0.19636048
-0.026011102 -0.00039760396 -0.079996854 0.0059467074 0.055213984 -0.13338669 0.10917381 -0.07168073
0.08532148 -0.1226137 -0.021451568 -0.053211067 0.105526485 0.02043301 0.07600766 0.12482147
0.039804384 -0.016898826 0.08864644 -0.20952395 -0.06603931 0.08918975 -0.050783027 0.1118191
-0.02283179 0.023823021 -0.045475595 0.1870501 -0.07994314 0.13700728 -0.08865679 0.073753014
0.011408359 -0.07753235 0.01632489 -0.0963801 0.060385272 0.022648048 0.12010022 0.007084859
0.14009833 -0.12105602 0.10411285 -0.069383934 -0.026620764 -0.048685312 -0.022441773 -0.07572915
-0.12278267 -0.09240426 -0.062033962 0.08400451 -0.16401052 0.07727539 0.02334154 -0.34458765
0.09652277 -0.046447203 -0.11121226 -0.07927946 0.012876157 -0.035398737 0.072397314 -0.07934729
0.1794146 0.064839765 -0.064744145 -0.054789327 0.061173875 -0.022140337 0.00097538775 -0.05995134
-0.13206552 -0.07390519 -0.080875024 -0.10709431 -0.1340284 -0.08464588 -0.08906576 -0.08424741
0.04847493 0.02830726 0.026286457 -0.037307043 0.08513032 -0.02017416 0.014237077 -0.051380977
-0.024511473 0.10805545 0.051254462 -0.06862436 -0.099529244 0.01572065 -0.032861255 -0.09122747
-0.033127844 0.045232207 0.012326473 -0.049186036 -0.035073787 -0.006823629 -0.09238992 -0.029435232
-0.09977956 -0.104704894 -0.04300347 -0.10205075 0.0047409437 0.11498935 -0.12606716 -0.020757157
-0.018690465 0.043710724 -0.08386381 -0.053104773 0.06252516 -0.03634128 -0.0435309 -0.106634945
0.05905685 -0.10278038 -0.031053508 0.101841226 0.09585178 -0.05194599 0.010741468 0.059087962
-0.024457123 0.1178964 -0.019568145 -0.060502365 -0.101491146 -0.12356151 0.052430958 0.041086107
0.026368383 0.05188799 -0.006468372 0.010322475 -0.07647085 0.048312716 0.10313331 0.0823701
-0.015572774 -0.10116607 -0.050022174 0.14705655 0.12449971 -0.019306429 0.086829 -0.0046768407
-0.15135549 0.030954892 -0.00272574 -0.09027593 0.17120159 0.11123815 -0.026771892 0.08040479
-0.049337447 -0.033657096 0.12655765 -0.11295349 -0.10947035 -0.07756431 -0.086297706 0.06790975
0.044874918 -0.041025847 0.010372773 -0.03886684 0.027076513 -0.027034836 -0.035230927 0.07523431
-0.084345445 -0.1018765 0.056233928 -0.022972945 0.20775877 -0.01806605 -0.11123105 0.19569223
0.008705227 0.06112776 -0.08372282 0.028215887 0.021257848 -0.01705093 0.034118485 0.06992329
-0.0063334615 -0.09615189 -0.038160086 0.099673405 0.034150396 -0.126128 0.055100627 -0.03608735
00000000: bb0c a03d 230e b23d 0228 f23d 42cb 0b3e
00000010: 8539 c4bb 1caa a5bd 1ad7 60bd 5848 9dbc
00000020: 8b6c 633c ac35 a6bd 8f29 203e ed9c 9f3d
00000030: 4072 913c 4944 223e 08cf 003e cf4e 83b9
00000040: a810 9fbc 1ac0 f93c 7762 f73d d69a 24bd
00000050: 54ef bdbb 1bb2 a7bd a239 853d 824c df3c
00000060: 2acb c23d 5db9 463d 7380 3dbc 407b d8bc
00000070: eec9 ae3d d16c 483e 1da6 0abd 414e 4ebd
00000080: 1e6e 8d3c 3bb4 163d 009b ba3d bf0e 9e3c
00000090: e3e8 54bc a021 ffbc 0ab6 80bb 63ea ebbd
000000a0: e2f2 d23d f087 99bc 052f 9cbd a1f7 63bc
000000b0: a8c0 81bd f4cf 8b3c 334b 833d f51e 82bd
000000c0: 2b67 c83d 03a7 50bd 38a7 7c3d 754d 35bd
000000d0: 674d bd3c 98f2 b2bd 141e c73c b912 493e
000000e0: 3c15 d5bc 8075 d0b9 64d5 a3bd 99dc c23b
000000f0: 0f28 623d 8596 08be 8596 df3d 59cd 92bd
00000100: 07bd ae3d e41c fbbd 33bb afbc d9f3 59bd
00000110: 451e d83d 2163 a73c e7a9 9b3d 66a2 ff3d
00000120: ec09 233d 686f 8abc 448c b53d 728d 56be
00000130: 9e3f 87bd 1ea9 b63d dd01 50bd 6a01 e53d
00000140: bc09 bbbc 7f28 c33c 9e44 3abd 108a 3f3e
00000150: 3bb9 a3bd a34b 0c3e b191 b5bd d20b 973d
00000160: 20ea 3a3c 48c9 9ebd c7bb 853c ee62 c5bd
00000170: 8c56 773d 6688 b93c 1bf7 f53d 1b28 e83b
00000180: f075 0f3e 38ec f7bd 1e39 d53d 2a19 8ebd
00000190: ca13 dabc 406a 47bd cfd7 b7bc e217 9bbd
000001a0: 7b75 fbbd 723e bdbd 5317 7ebd 8e0a ac3d
000001b0: 60f2 27be 8f42 9e3d c236 bf3c cb6d b0be
000001c0: bbad c53d 6c3f 3ebd 41c3 e3bd 455d a2bd
000001d0: 84f6 523c 44fe 10bd 0b45 943d d580 a2bd
000001e0: 76b8 373e b6ca 843d 9498 84bd c66a 60bd
000001f0: 7591 7a3d a75f b5bc 2ab1 7f3a 898f 75bd
00000200: 2f3c 07be 9b5b 97bd cea1 a5bd 4354 dbbd
00000210: be3e 09be d25a adbd 1c68 b6bd e889 acbd
00000220: a68d 463d a0e4 e73c b256 d73c 45cf 18bd
00000230: ce58 ae3d 4844 a5bc a142 693c dc74 52bd
00000240: 49cc c8bc 2d4c dd3d 33f0 513d ee8a 8cbd
00000250: fdd5 cbbd 98c8 803c 8699 06bd 78d5 babd
00000260: 10b1 07bd 6845 393d faf4 493c 4c77 49bd
00000270: 88a9 0fbd c098 dfbb ed36 bdbd 2822 f1bc
00000280: 3a59 ccbd 856f d6bd 6824 30bd fcff d0bd
00000290: eb59 9b3b 897f eb3d c017 01be ea0a aabc
000002a0: bf1c 99bc 040a 333d cac0 abbd 6484 59bd
000002b0: 310d 803d 98da 14bd 754d 32bd 6c63 dabd
000002c0: 98e5 713d 857e d2bd ed63 febc 2292 d03d
000002d0: f04d c43d 52c5 54bd fbfc 2f3c 3806 723d
000002e0: 4e5a c8bc ab73 f13d 604d a0bc 54d1 77bd
000002f0: 97da cfbd d10d fdbd d8c1 563d e849 283d
00000300: 8202 d83c 8088 543d a3f4 d3bb 991f 293c
00000310: c09c 9cbd 8ee3 453d 8f37 d33d a8b1 a83d
00000320: f324 7fbc 2830 cfbd 0de4 4cbd fe95 163e
00000330: b4f9 fe3d 8428 9ebc 67d3 b13d 2f40 99bb
00000340: effc 1abe 1d95 fd3c 54a2 32bb 96e2 b8bd
00000350: 784f 2f3e d4d0 e33d ba50 dbbc 44ab a43d
00000360: 1016 4abd 06dc 09bd 5498 013e 2954 e7bd
00000370: fe31 e0bd 09da 9ebd dabc b0bd 4414 8b3d
00000380: c3ce 373d b80a 28bd 90f2 293c d632 1fbd
00000390: 90cf dd3c 2978 ddbc 4e4e 10bd 7214 9a3d
000003a0: 4ebd acbd a0a4 d0bd 8c55 663d c231 bcbc
000003b0: b7be 543e 41ff 93bc 1bcd e3bd 8b63 483e
000003c0: 5ea0 0e3c 1a61 7a3d df76 abbd 0125 e73c
000003d0: f024 ae3c 64ae 8bbc d3bf 0b3d f133 8f3d
000003e0: ed88 cfbb 48eb c4bd c04d 1cbd 9221 cc3d
000003f0: 49e1 0b3d b327 01be 32b1 613d 54d0 13bd

fc3.bias f4 [32]
0.047154594 -0.4011453 0.084377535 -0.11363017 -0.00043385883 0.012344049 -0.23231001 0.043255888
-0.18964536 -0.450791 -0.22845949 0.34653163 -0.059706084 -0.0939293 -0.043525442 -0.044923868
0.08391384 0.2051021 0.2705717 -0.35299772 -0.38631833 0.23675478 -0.2915097 -1.1237223
0.04078931 -0.11581651 0.17466427 0.051526684 -1.4393646 0.16861103 0.027865348 -0.20458621
00000000: 2d25 413d eb62 cdbe 21ce ac3d efb6 e8bd
00000010: 8c77 e3b9 b23e 4a3c ade2 6dbe 162d 313d
00000020: 6532 42be 14ce e6be 49f1 69be 986c b13e
00000030: 5e8e 74bd 015e c0bd bc47 32bd 1702 38bd
00000040: 05db ab3d 4906 523e 6088 8a3e 1ebc b4be
00000050: 84cb c5be d86f 723e c240 95be 22d6 8fbf
00000060: b112 273d 3531 edbd 31db 323e a50d 533d
00000070: 193d b8bf 5fa8 2c3e df45 e43c 0c7f 51be

fc4.weight f4 [2, 32]
-0.029839752 0.10839117 -0.020845978 -0.11348065 -0.10260125 0.15576738 0.07988546 -0.015577043
0.15051457 0.16891013 0.12686996 -0.25244844 -0.11893724 0.008028557 -0.10989096 0.1697233
0.16903386 0.3046821 -0.07214841 0.1197191 0.11818918 0.08254478 0.11614239 0.2774764
-0.040280927 -0.03905919 -0.097343385 0.15872546 0.3413153 -0.036243573 0.16371089 0.13147561
-0.19117105 -0.37858656 0.21054828 0.28100035 0.15252347 0.17765917 -0.3074281 -0.15469284
-0.09921115 -0.081429936 0.14278957 -0.50186944 -0.2053908 -0.116187684 -0.11152689 -0.030182438
-0.15093358 -0.1109988 0.03935563 -0.15593284 -0.22610931 0.38131338 -0.035734247 0.13711047
0.0042802515 -0.021932552 -0.07069594 -0.09825266 -0.020058349 -0.23861986 -0.07462412 0.0020671852
00000000: 7f72 f4bc 31fc dd3d 2fc5 aabc 8b68 e8bd
00000010: 9b20 d2bd 7c81 1f3e fd9a a33d db36 7fbc
00000020: 7e20 1a3e c7f6 2c3e 33ea 013e ec40 81be
00000030: 5e95 f3bd 358a 033c 830e e1bd f2cb 2d3e
00000040: 3617 2d3e 4bff 9b3e 8cc2 93bd 4a2f f53d
00000050: 2b0d f23d 3d0d a93d 10dc ed3d 6311 8e3e
00000060: 9dfd 24bd 87fc 1fbd f85b c7bd ed88 223e
00000070: e1c0 ae3e 2474 14bd d4a3 273e 8ba1 063e
00000080: 58c2 43be 19d6 c1be f899 573e 47df 8f3e
00000090: 1d2f 1c3e 49ec 353e 3767 9dbe cd67 1ebe
000000a0: 372f cbbd bdc4 a6bd 6e37 123e 847a 00bf
000000b0: f751 52be cff3 edbd 3668 e4bd 2941 f7bc
000000c0: 558e 1abe 5753 e3bd 5e33 213d dcac 1fbe
000000d0: 3389 67be 823b c33e 135e 12bd b066 0c3e
000000e0: 5a41 8c3b e5ab b3bc 08c9 90bd b138 c9bd
000000f0: 6851 a4bc c458 74be 88d4 98bd 9d79 073b

fc4.bias f4 [2]
-1.0202134 0.34476653
00000000: 5a96 82bf 3d85 b03e
