models/action_file/dqn_model.pth (torch, 46872 bytes, 8 tensors)

fc1.weight f4 [128, 3]
00000000: cb07 f0be 1e02 debe bc4e abbe f0b7 65be
00000010: 8a66 1cbe d94d 04bf acb5 093f eb16 c4be
00000020: 82ee f2be e867 0ebf 6f50 0fbf c8b9 0abf
00000030: 9221 0cbe 7278 e7be 9418 c23e fe5a bbbe
00000040: 5e56 0e3f b05b a9be 897f 13bf 5c55 e53e
00000050: 841b 9a3e 2e48 24be 00ec 62ba 949c f23e
00000060: 0cb6 7fbe 646f 2bbe 4d3a 08bf f87e fa3d
00000070: 9698 e4be 11d7 9dbe f208 a2be bc91 e03e
00000080: 6cfa 45be a46e 543e 3c9e b83e 8e84 ab3e
00000090: cacd 973e 6c90 753e 7ce1 eb3e 38ef 3f3e
000000a0: 105f 613d 4a1b c0be 5cb9 263e 54eb f93e
000000b0: 0cf0 133e 18ed 47be 005f 51bb 30f7 753d
000000c0: 00b6 b93d da69 07bf 2c75 e33e 9c0b ec3e
000000d0: 2410 a0bd f076 613d 208e 95bc c02c 943e
000000e0: a06c d53c c568 95be 4ef3 34be f205 97be
000000f0: 22eb cf3e bcd2 c93e 5c39 093f 5489 023e
00000100: 487d 9d3e 20b2 21bd 40bd cb3d b086 ab3e
00000110: ca77 02bf 7421 773e bea2 67be e0dc 193d
00000120: b896 f93d 4ddf a6be a4a7 553e 274a fdbe
00000130: 66f2 8f3e 7420 093f 62fb 15be 6cff 413e
00000140: 6e29 03bf 38ee 8a3e e02b fcbc ad15 93be
00000150: 1646 fdbe f0ce 8d3e fa73 033f 0443 073f
00000160: ecd2 c23e f8be c1bd f69e b5be 4469 b13e
00000170: 8779 f6be 6099 8ebc e007 bd3e ec9f f93e
00000180: 005f f33c f47c de3e d0d8 7fbe 2081 373e
00000190: 484b 953d 3ccb 103e ec79 d13e 2ee4 a73e
000001a0: b0a8 04bf bc08 503e fc4f dabe 12dc 56be
000001b0: c0cc 25bd fb47 82be 1cdf 063f d238 00bf
000001c0: dadc 10bf 6405 e9be 1e55 acbe 88e9 ec3e
000001d0: 08a9 b5be 5056 5dbe c8b9 ae3e 7ce5 9ebe
000001e0: f595 8abe e85c a1be f046 65bd 405d e2be
000001f0: 3c4d 993e 5eaa a03e 4e90 20be 9421 35be
00000200: f849 6e3e c8bc fc3e bcb0 9e3e 0670 803e
00000210: 2cdf 433e 901c c93d b9ce 9ebe 9832 523e
00000220: 1469 033e b1de c6be 3c16 913e 6c3d 203e
00000230: 00d7 f63e 0015 1b3c f488 e6be c6c6 0a3f
00000240: 6ca3 fa3e b4a5 b13e 3ca8 083e e522 f2be
00000250: 2b38 02bf d881 0b3e 5001 3cbd a5f3 b4be
00000260: c570 92be a0fc be3c 28f1 633e 783c 123e
00000270: b8b5 f8bd 42c0 ac3e 80c6 f8bc d042 49bd
00000280: 0214 fbbe 9dd4 c4be 40fd 5d3d dc8f d5bd
00000290: 2417 793e a207 34be 1cbe de3e a0c1 babe
000002a0: ce3d fdbe c00c adbc 1c9f 943e 2842 e03e
000002b0: 2c46 903e e832 cc3d 4e12 cdbe 1ca0 8f3e
000002c0: b28f f9be 50f2 aabe 6eb5 a93e 6a43 5bbe
000002d0: b2ef ac3e 7856 f3bd ac34 863e 8027 c6bb
000002e0: 14ee f6bd 18b6 e4bd 800f 8abc 0ae1 803e
000002f0: da7e c63e 5ad5 03bf 60fe fabc 9024 4dbd
00000300: 809b 4c3d 8ac5 0d3f 2add 7dbe 40ec 0ebd
00000310: 5078 0abd 78a3 39be efdc a4be 408e 28bd
00000320: c063 313c ec35 123f e009 f23e 3857 493e
00000330: aa26 adbe d62c 1abe 103d 3fbe b00d 813d
00000340: 3650 063f 1039 03bd 23a9 0bbf c415 09be
00000350: 442c 96be 9a63 b63e 9084 ba3e 9878 8f3e
00000360: 54a5 6bbe 92ae c1be a4fb 963e ae0a 76be
00000370: 18d8 ef3e 2842 c8be 506f 9d3e fe3e d33e
00000380: 88bb 33be b0e9 bf3d c0ac 8e3d 88d2 e93d
00000390: 0442 f03e 822d 953e 9faf 88be 9c42 363e
000003a0: c4f9 103e 70fa cb3e f096 dc3e c4cf 263e
000003b0: b656 47be 600b b93e 50dc 3e3d b0e4 d7be
000003c0: 3277 73be bc4b c33e ee46 b13e 3629 eabe
000003d0: c423 433e 7274 35be 2d01 dbbe c081 37bc
000003e0: 78c5 b9be cc5c 2a3e 283a dd3e 901f 893e
000003f0: 1e75 c6be 642d 4e3e b6c8 d7be cc20 f43e
-0.46880946 -0.4336099 -0.33458507 -0.22433448 -0.1527349 -0.51681286 0.53792834 -0.38298735
-0.47447592 -0.556273 -0.55982107 -0.5418973 -0.13684681 -0.4520908 0.37909377 -0.3659286
0.55600536 -0.33077765 -0.5761648 0.44791687 0.30099118 -0.1604316 -0.00086563826 0.47385085
-0.24971789 -0.16741711 -0.5321396 0.122312486 -0.44647664 -0.30828145 -0.3164745 0.43861187
-0.1933381 0.20745331 0.36058223 0.3349957 0.29649192 0.23980874 0.46070468 0.18743598
0.0550223 -0.3752082 0.16281646 0.48812354 0.1444704 -0.19524038 -0.0031947494 0.06005019
0.09067917 -0.5289589 0.44425333 0.46102607 -0.078155786 0.05504507 -0.018256247 0.28940392
0.026052773 -0.29181495 -0.17670938 -0.29496723 0.4060908 0.3941859 0.5360315 0.12747699
0.30759645 -0.039476514 0.09948206 0.33501196 -0.50964034 0.24133855 -0.22620675 0.03756416
0.121869504 -0.3259224 0.20864731 -0.49470636 0.28114623 0.53565145 -0.14646676 0.18945092
-0.5123509 0.2713487 -0.03078264 -0.28727475 -0.49467534 0.27696943 0.5134884 0.5283663
0.38051546 -0.094602525 -0.3547284 0.34650624 -0.48139593 -0.01740712 0.3692007 0.48754823
0.029708385 0.43454707 -0.24985051 0.17920351 0.072897494 0.14140028 0.40913332 0.32791275
-0.51819897 0.20315832 -0.42639148 -0.20982388 -0.040478468 -0.25445542 0.5268419 -0.500867
-0.5658699 -0.45511925 -0.3365869 0.4627192 -0.35480523 -0.21614957 0.34126115 -0.31034458
-0.27067533 -0.31516194 -0.055975854 -0.4421177 0.29941738 0.3137998 -0.15680048 -0.1768859
0.23270404 0.4936278 0.30994213 0.25085467 0.19128102 0.09819901 -0.31017092 0.20527112
0.12833053 -0.38841775 0.28337276 0.1564843 0.48210907 0.009465456 -0.45026362 0.54209554
0.48952806 0.34696734 0.13345426 -0.47292247 -0.50866956 0.1362375 -0.04589969 -0.35342136
-0.2860166 0.02331382 0.22259963 0.1428088 -0.12144035 0.3374043 -0.03036809 -0.049135983
-0.49038702 -0.3844346 0.054196596 -0.104278296 0.24325234 -0.17581037 0.43504417 -0.3647585
-0.49461216 -0.021124244 0.2902764 0.43800473 0.28178537 0.09970647 -0.40053028 0.2805184
-0.48742443 -0.33387995 0.33146232 -0.21412435 0.33776623 -0.11881727 0.2621206 -0.0060471892
-0.120571285 -0.11167544 -0.016853094 0.2517169 0.38768655 -0.51497424 -0.030638874 -0.050083697
0.049952984 0.55379546 -0.24791399 -0.034893274 -0.033806145 -0.18128765 -0.3219981 -0.041151285
0.010827005 0.5711353 0.4727316 0.19662178 -0.3381856 -0.15056166 -0.18675637 0.06301439
0.5246614 -0.03203684 -0.5455496 -0.13387209 -0.29330647 0.35622865 0.36429262 0.28021693
-0.23012286 -0.378285 0.29488862 -0.24027511 0.46844554 -0.39112973 0.30748987 0.41258997
-0.17552006 0.09370744 0.06966543 0.11417109 0.46925366 0.29136282 -0.26696488 0.17798847
0.14157778 0.39839506 0.43083906 0.16290194 -0.19466671 0.3614149 0.046596825 -0.42166662
-0.23775938 0.38143718 0.34624428 -0.45734566 0.19056612 -0.17720202 -0.42774335 -0.011200368
-0.3628347 0.16636962 0.43208432 0.26781893 -0.38761228 0.20134503 -0.42145318 0.47681272

fc1.bias f4 [128]
00000000: ec90 283e 56d8 55be a83f 123f 4612 01bf
00000010: 684a 933e 97dc c6be 2c97 553e 9678 3cbe
00000020: 86d4 0cbf 6c8e ee3e a08d 5cbd c844 6abe
00000030: 204c 9b3d 4bca 82be 20af e03e f89d 55be
00000040: 6b79 09bf 1443 0a3e be16 80be 5083 f33e
00000050: 9602 0c3f 6861 a8bd ac1e 0abf 54ca 07be
00000060: bbbd 11bf a4d7 ea3e 96f9 a33e 5079 c7be
00000070: f49a 343e 7ec4 003f d817 fc3d c487 48be
00000080: 62f8 083f 7848 2b3e c2b9 073f e2ac 813e
00000090: a418 9f3e e4f7 2e3e 00a8 d0bb 46fd 0d3f
000000a0: 508f e53e b885 ccbe 3a72 9f3e 48d7 96bd
000000b0: a661 9f3e 4890 113e 208b 923c 68b2 ec3e
000000c0: b021 be3e a26f 0a3f 80ce b33e 78fe b7be
000000d0: 1890 df3e b0b3 983d ae35 b83e 74ed 03be
000000e0: e6e9 aebe d40f db3e c098 17bd 727b bebe
000000f0: 564b 0bbe 1287 a0be 1c3f ebbd 8e50 c53e
00000100: 1cd9 513e 18a6 7e3e dc03 12be 18fa f4be
00000110: 508d 3cbe a1d3 f5be d85e 93be a14e 0ebf
00000120: f42e 103f 003d 1cbb b44a cf3e 7c13 d93e
00000130: 8475 873e 6e43 ce3e ac7c 0ebf e6fd c0be
00000140: 2005 9b3e ac4d f9bd 6baf 11bf c073 873c
00000150: 8011 b43c ca44 9d3e d0c9 313d f048 39bd
00000160: 6363 8fbe 50bd 1fbd 5e7f 11bf c014 f5be
00000170: 38b4 633e 8001 e4bd 80c6 67be 16f8 51be
00000180: fcf9 01bf c807 cd3e 20cf 043f 9084 6dbe
00000190: e0c2 983c 2c39 e2be 56c8 0ebe e09c be3e
000001a0: 5eed 893e 7237 a53e 72c2 8e3e fad6 b43e
000001b0: 6313 0bbf 08e7 e33e 6844 583e 588f a53d
000001c0: 70e5 a33d a5a6 87be 6a0b 0d3f 867b a53e
000001d0: 38b2 fe3e d8c1 d73e b068 ce3d 604e f93d
000001e0: 4373 f0be b4c0 1f3e b02d 6e3d 94bf 183e
000001f0: fe9b 833e 44dc 4c3e 1020 513e 4381 fbbe
0.16461533 -0.20883307 0.5712838 -0.5041851 0.28767705 -0.38840172 0.20858449 -0.18405375
-0.55011785 0.46593034 -0.053846 -0.228778 0.07582879 -0.25544962 0.4388361 -0.20861042
-0.53700894 0.13502151 -0.2501735 0.4756112 0.54691446 -0.08221704 -0.5395305 -0.13260776
-0.5693013 0.45867646 0.32026356 -0.38959742 0.17637235 0.50299823 0.12309235 -0.1958304
0.53504 0.16726863 0.5301782 0.25327212 0.31073487 0.1708675 -0.0063676834 0.5546459
0.448359 -0.3994577 0.31141835 -0.073652804 0.31129187 0.14215195 0.017888606 0.46229863
0.37135077 0.5407659 0.35118484 -0.35936332 0.43664622 0.07456148 0.35978454 -0.1288355
-0.34162825 0.42785513 -0.037010908 -0.37203556 -0.13602957 -0.3135305 -0.114866465 0.3853802
0.20492977 0.24868047 -0.14259285 -0.47847056 -0.18413281 -0.48013023 -0.28783298 -0.5558873
0.56321645 -0.002384007 0.4048668 0.42397678 0.26456845 0.4028582 -0.55658984 -0.3769371
0.30277348 -0.12173018 -0.5690829 0.016534686 0.021981 0.30716544 0.043405354 -0.045235574
-0.28005514 -0.0389989 -0.5683497 -0.47867393 0.22236717 -0.111330986 -0.22634315 -0.20504794
-0.5077207 0.40045 0.5187855 -0.231951 0.018647611 -0.44184244 -0.1394361 0.3722906
0.2693891 0.32268864 0.27882725 0.35320264 -0.54326457 0.445122 0.21119845 0.08083981
0.08002746 -0.26494327 0.5509554 0.32320803 0.49745345 0.4214008 0.10078561 0.12173152
-0.46962938 0.15600854 0.05814904 0.14916831 0.2570495 0.200059 0.20422387 -0.49122056

fc2.weight f4 [64, 128]
00000000: 364c 0f3d 69d3 9e3d 782f 14bc dffc 69bd
00000010: 007d fa39 e40a 53bd 5aac a4bd ecba 73bd
00000020: 001e 18b9 60af a5bd 9934 aa3d c0f0 463c
00000030: 8804 133d 109d c5bc f4f9 913c d8b5 9bbd
00000040: 8839 953c e8be 0b3c 89ab b23d 9e8f 3cbd
00000050: 7168 a5bd 081d c8bc 007d d1bb fef4 773d
00000060: 6517 a93d 5ea2 f4bc de11 13bd 037b b43d
00000070: 8274 653d d028 113c 1e77 84bd 7ae3 093d
00000080: 1ab6 a4bd 82e3 483d 43cc 64bd 338e 943d
00000090: 13a5 01bd 3084 823c 0078 243a 7e06 adbd
000000a0: 845b 9a3c f8af b6bc 98e7 a0bd 0906 54bd
000000b0: 2ef4 4a3d c699 303d b643 29bd 4a94 93bd
000000c0: 9ace 703d bfb2 b43d 248a 83bc e4da 1abd
000000d0: 8573 903d 331c 983d 6acd 403d 3cb9 8cbc
000000e0: 6d96 48bd 6600 033d de6b 1ebd 5afa 30bd
000000f0: 3204 433d 20f0 a83c 0007 883a 506c 063c
00000100: 2a61 3c3d d057 c93c 76d8 33bd 46c2 68bd
00000110: 8054 2fbc b7f2 963d fc95 3fbd 9b4d 28bd
00000120: 82f1 88bd 10a6 083c aa9d 183d a37c 87bd
00000130: 2b37 833d d0bb a9bb cfdc 933d 2af7 313d
00000140: c867 87bc 9222 fbbc 25fa 90bd 60bd a9bb
00000150: 0de8 aa3d 8830 a4bd ae10 6b3d db93 30bd
00000160: 908e b33c b4e6 96bc 5d3a 89bd 28e0 48bc
00000170: dbd9 833d b906 43bd 604f 1dbd 1e4f b2bd
00000180: aaa7 793d e7f9 81bd a73e 873d 39c7 8dbd
00000190: 88cb 6e3c 40a6 32bd a672 4b3d 71d6 af3d
000001a0: 202c d03c 9c89 76bd 6783 98bd 34aa cfbc
000001b0: 6996 3abd 21be a0bd 00b4 dcb8 20ca 7a3c
000001c0: 861f 613d 0077 0dbc 07c1 7fbd 9c08 9c3c
000001d0: 0a81 a8bd 10f2 d63b 00c5 20ba 30c9 3dbc
000001e0: 203f be3b 8008 bfbc c879 003c 2011 9cbd
000001f0: 40f4 a0bd 742d ef3c 75da 58bd a267 0b3d
00000200: b5bc 983d 209f 5ebd 7035 c1bc b03b 5ebc
00000210: a2c4 93bd d073 2fbc fbb7 90bd ecfe 0d3d
00000220: f0da a03c 7878 883c 5e28 9bbd 08d8 b3bd
00000230: 70a8 e73b 3a38 39bd 39b7 89bd 4013 8e3b
00000240: 5dca 59bd be14 32bd 4845 84bd 97a1 923d
00000250: 88ef c53c 10cf 21bc 79cb 903d c8d8 033c
00000260: b44d acbd 00d4 7539 66bd 553d 6626 a4bd
00000270: ae5a 453d 59ac b23d 5067 cabb 8307 913d
00000280: e893 b73c fc33 d53c d1b1 a7bd 3d4a a83d
00000290: 3e84 213d a197 913d 8014 5cbc bb13 b33d
000002a0: 38f2 1dbc d428 c0bc 209b 8bbd 7426 853c
000002b0: 898c 843d 4030 3abc 9e56 6f3d 960a 2ebd
000002c0: 266b b2bd b543 b43d 820c 643d c45d a8bc
000002d0: 6560 af3d 08ef 2c3c 20e4 2b3c b63a 31bd
000002e0: 0e3f 3e3d 6409 50bd 5e04 81bd 54bc 9dbc
000002f0: cf41 9a3d 6a9a 0bbd 0a66 7c3d 8ff4 8f3d
00000300: a0b9 e1bc c0b3 353b 3029 6f3c 3c0d f33c
00000310: f054 4dbd 0657 573d 1bad 9cbd 42ff 0e3d
00000320: 0054 acb8 a0c0 1a3c 9c04 96bc 1e42 90bd
00000330: f585 10bd 7072 dbbc cc8d c6bc a435 11bd
00000340: f95d 823d d7bd b1bd a0cb 47bc 4876 c1bc
00000350: 003d 603c 77a4 9d3d 3475 86bd 7586 823d
00000360: a239 643d 93f5 b23d 0082 483c a7e7 98bd
00000370: 4653 713d f48e 68bd c361 0abd 769b 01bd
00000380: 0802 0e3c a8b4 56bc fd7a 943d b901 873d
00000390: 5851 97bc 56b5 493d 3c42 46bd 3077 963b
000003a0: 673a 9f3d 58c9 d3bc b144 813d ce98 463d
000003b0: c58f 9e3d 1cb7 cb3c b262 383d a6c0 603d
000003c0: e104 96bd be3d 65bd 42e3 ffbc 5980 97bd
000003d0: 096d 9abd 50e9 e43c ecac 8dbc 3058 acbc
000003e0: 2d9e ab3d 10d5 39bd 1d3f 1dbd 0200 31bd
000003f0: c012 463c 26d0 a4bd f59d 55bd 6d2c 853d
0.03498479 0.07755167 -0.009044521 -0.057125922 0.00047776848 -0.051524058 -0.08040686 -0.059504434
-0.00014507025 -0.08090091 0.083108135 0.01214236 0.035892993 -0.024122745 0.017819382 -0.07603043
0.01821591 0.008529402 0.08724124 -0.0460354 -0.08076561 -0.024427906 -0.006393075 0.060536377
0.08256415 -0.029862579 -0.03590571 0.08812525 0.056019314 0.008859828 -0.06468032 0.033664204
-0.080425456 0.049045093 -0.05585886 0.07253685 -0.031651568 0.015932173 0.0006273985 -0.08448504
0.018842466 -0.022300705 -0.07856673 -0.051763568 0.049549274 0.0431154 -0.04132434 -0.07206018
0.05879078 0.088231556 -0.016057082 -0.037806407 0.070532836 0.074272536 0.047070898 -0.01717817
-0.048971582 0.0319828 -0.03867709 -0.043207504 0.047611423 0.020622313 0.0010378063 0.008204535
0.0459911 0.024578005 -0.043907605 -0.0568259 -0.010701299 0.07370513 -0.046773896 -0.041089635
-0.06686689 0.008340374 0.037259735 -0.066155694 0.06407007 -0.0051798597 0.0721985 0.043448605
-0.016528979 -0.030656133 -0.07078961 -0.005180046 0.083450414 -0.08017069 0.057388954 -0.043109756
0.021918565 -0.018420555 -0.06700585 -0.012260474 0.06438037 -0.047613833 -0.038405776 -0.08706497
0.060950913 -0.06346493 0.06603747 -0.06922764 0.014574893 -0.04361558 0.049669884 0.08585823
0.025411665 -0.06018983 -0.07446938 -0.025349714 -0.0455536 -0.07848764 -0.00010523945 0.015306979
0.054961704 -0.008634329 -0.062439945 0.019047074 -0.08227737 0.006559618 -0.0006132871 -0.011583611
0.005805865 -0.023319483 0.007841535 -0.07620454 -0.07859087 0.029196478 -0.05294271 0.03403438
0.07457868 -0.054350972 -0.023585051 -0.013564035 -0.07215239 -0.010708764 -0.070663415 0.03466694
0.019635648 0.016659006 -0.07576059 -0.08781439 0.00706964 -0.045219637 -0.067244 0.004335791
-0.053171504 -0.043476813 -0.06458527 0.07159727 0.024162069 -0.009876028 0.07070059 0.00804729
-0.08413258 0.00023443997 0.052182578 -0.080151364 0.048182182 0.08724279 -0.0061768666 0.07081511
0.022409394 0.026025765 -0.08188213 0.08217285 0.039432757 0.07108999 -0.013432622 0.08743998
-0.009640269 -0.023456968 -0.06816697 0.016253687 0.064721175 -0.011364043 0.058432214 -0.042490564
-0.08711843 0.088019766 0.05567599 -0.020552523 0.08563308 0.010555036 0.010491401 -0.04326888
0.046446852 -0.050790206 -0.06299661 -0.01925484 0.07532083 -0.034082808 0.06162075 0.07029068
-0.027554333 0.0027725548 0.014597222 0.029669397 -0.05012983 0.052573226 -0.07650205 0.0349114
-8.217245e-05 0.009445339 -0.018312745 -0.07043861 -0.035284 -0.026787966 -0.024237536 -0.035451546
0.0636558 -0.08678787 -0.012194544 -0.023615971 0.0136864185 0.07697385 -0.065653235 0.06373302
0.055719025 0.08738246 0.012238026 -0.07466059 0.058917306 -0.056776956 -0.03378464 -0.0316424
0.0086674765 -0.013104595 0.07250021 0.065921254 -0.018471405 0.0492452 -0.04840301 0.004591845
0.07774811 -0.025852844 0.0631193 0.04848557 0.077422656 0.024867587 0.045016 0.054871224
-0.07325149 -0.055967085 -0.031236295 -0.07397527 -0.07540328 0.027943283 -0.01729437 -0.021038145
0.08379779 -0.045369208 -0.038390268 -0.043212898 0.012089431 -0.08047514 -0.052152593 0.06502614

fc2.bias f4 [64]
00000000: c75d a63d e474 a13c 747a c0bc b9f8 9bbd
00000010: 3bb8 01bd 7622 733d d291 7ebd ebaf a13d
00000020: 9507 9c3d 1ce3 2bbd 1f9c 943d 1459 97bc
00000030: 7de6 71bd 8025 1b3a 02ac abbd 009e 4b3c
00000040: e25f 553d b69e 563d b8bd 1bbd 6a34 353d
00000050: c2cd 67bd 14ef 89bc 0a7b 783d 0263 6b3d
00000060: 734f b13d 06d5 53bd 8c31 f03c 1c5d a0bc
00000070: 047f 7abd 6bdf b13d f20a 2fbd c4aa b3bd
00000080: 1490 103d 9bad 65bd b288 553d 58b5 31bc
00000090: e77b a63d 8ac1 253d fed6 1abd 84aa f43c
000000a0: a0bb be3c 9a0c a1bd 1331 51bd b40b d1bc
000000b0: d12b a23d b621 493d 4eaf e1bc 47ac 95bd
000000c0: 507a e3bb a0d9 e83b 0c3d cabc 1ca3 a4bd
000000d0: f69c 27bd d8ab 26bc b802 aabd 955d 3bbd
000000e0: 16dc 473d 4a8a 1c3d 0fff 96bd ca96 b0bd
000000f0: 80f2 3ebd 78c5 423c d4e3 ea3c 0887 e73c
0.08123355 0.019709058 -0.02349589 -0.076157995 -0.031669836 0.059359036 -0.062150784 0.07894882
0.07618634 -0.041964635 0.0725634 -0.018475093 -0.0590577 0.00059183687 -0.08382417 0.012427807
0.052093394 0.052397452 -0.038022727 0.04423944 -0.05659271 -0.016837634 0.060664214 0.057467468
0.08657732 -0.051716827 0.0293205 -0.019575648 -0.061156288 0.08685192 -0.042735048 -0.08772805
0.035293654 -0.056073766 0.052132316 -0.010846458 0.08129101 0.040467776 -0.03780269 0.029866464
0.023282826 -0.07863732 -0.05107219 -0.025518276 0.079185136 0.049104415 -0.027549412 -0.0730825
-0.006942071 0.007106021 -0.024687313 -0.08038923 -0.040921174 -0.010172807 -0.083013 -0.045743544
0.048793875 0.03821782 -0.07372867 -0.08622511 -0.046617985 0.0118879005 0.02867309 0.02826263

fc3.weight f4 [32, 64]
00000000: c4d2 a03d a0ab adbd 80a0 1dbc 0a07 db3d
00000010: 70c7 293d dcca 3cbd 2ce4 413d 26da 943d
00000020: 5e46 983d 7e8d a9bd 4029 a03b 683f cfbd
00000030: 00d4 753d f054 23bc 206e 1e3c f8fd b1bd
00000040: a0fa ca3d f068 75bd ec9f 25bd 70e1 e7bc
00000050: 9868 52bd 00b2 023a 40c8 a13c 9038 043c
00000060: 1cde 2b3d aa85 c43d 34e4 f73d ac4c 763d
00000070: 001e 68bc c008 993b ccae 54bd e026 fd3c
00000080: 1065 b13c 8422 23bd c4af 9fbd 4c7b d13d
00000090: a6de cabd 9228 f2bd a425 ee3d ceae dcbd
000000a0: 16f6 cf3d 50ee 843d 166b f2bd 40fc a5bc
000000b0: 3815 eebc da61 de3d 34da c43d 4c53 99bd
000000c0: 2ac6 f7bd 00ae 9a3c 2476 073d 381d 7d3d
000000d0: c06f 493c 1875 bcbd fccf c73d f625 9d3d
000000e0: 60cb fbbd 4cba bd3d cc2e 65bd 50b7 c5bd
000000f0: 18f0 9cbc ac06 7b3d 3088 223d 680a 55bd
00000100: 8483 3b3d ae84 9c3d 48f0 afbc 28b1 bebd
00000110: 002e 493c 80da ba3a c0c6 59bc 4007 a9bb
00000120: c87e b9bd f01e f8bc 5e35 fe3d 22a0 b73d
00000130: b045 80bc fada a0bd 1834 1cbd 8016 073d
00000140: 64d2 ff3d d203 9bbd 9414 1a3d 40fc c33d
00000150: a012 21bd b856 6b3d aa8e f2bd c01e 4b3d
00000160: 7ee7 b8bd b89d 5cbd bcaa d2bd b0cb fe3c
00000170: d22a c73d 36a6 c6bd 3073 ae3d 9409 fe3d
00000180: 3029 f03c ea8a bcbd a2fb a23d 2880 88bc
00000190: 26ff f4bd 124f 9ebd 2800 b63d 78af 993c
000001a0: d259 ee3d 502c 57bc c871 ddbc e063 c43c
000001b0: 78e8 f13d 200e 95bc 64b5 b4bd 0090 9abd
000001c0: 2013 d1bb d254 f33d 5292 ae3d bcab 563d
000001d0: 64f6 943d 244b 933d 3a11 dfbd 985d c2bc
000001e0: e4e0 443d 6acb f83d 6009 36bc b870 9ebd
000001f0: c639 833d 64c6 96bd 1cb8 a33d d0ad b5bd
00000200: 808b 003b 38ed 6a3d 22e4 cebd 0046 c139
00000210: 3666 a73d 9084 6c3c 40b0 f53c 0c26 a53d
00000220: 7408 82bd e003 933c 9ab1 b33d 80e4 713c
00000230: 8424 c6bd 3a4c d4bd fc8d 053d 00b9 8e3c
00000240: ec9f 843d f058 8dbd 7672 f1bd 8cbc 003d
00000250: 0842 e4bd dc68 9f3d d0d4 56bd 9808 a33c
00000260: de16 c2bd e847 8dbc 20d9 e7bc 90f4 c73d
00000270: b0b2 963d 688c edbd b483 563d eaa6 e0bd
00000280: 784a cc3c 7052 b4bc b674 d33d 7c0e f03d
00000290: acb6 c13d e24f c8bd fc8c 97bd 64a4 613d
000002a0: d02c d73d 66c4 cfbd 2694 a7bd 5a13 a5bd
000002b0: 10e5 183c 40a7 c2bd 6a77 91bd 74d7 8dbd
000002c0: d819 a6bd dccd 043d 6048 873d d24c cd3d
000002d0: e82d a43d 00e1 4f3a 005d f53b 1a97 f1bd
000002e0: e23b eb3d 302a 913d 9e1b 97bd 1ebc e53d
000002f0: 7097 09bc 1e67 e5bd f81c a2bc 389e 983c
00000300: e437 cfbd dcf5 13bd 9089 e73c a03e 33bd
00000310: 940d de3d 080a 93bd 14fc df3d 1625 89bd
00000320: a80a 99bc 948d 8e3d 54a9 adbd f4a0 4a3d
00000330: e092 633c a04c 75bd c66f cdbd c866 2bbd
00000340: 9408 433d 82d0 e13d 5c88 ce3d e0e8 533d
00000350: cc85 8c3d 48b6 2abd f8de 68bd 6adb 843d
00000360: c0e2 b33b b037 44bc ee8c b2bd 84a6 02bd
00000370: 648e 523d ba5c a03d 3c22 773d 5840 9e3c
00000380: 3a31 ccbd 2edb a1bd 981e d2bc 20ea 07bd
00000390: e4ab 763d a068 e03c fecf fd3d a440 983d
000003a0: ce53 8c3d 88a4 823d c089 f3bc cc54 8e3d
000003b0: 9c38 d1bd 8ca7 93bd 489b c6bd 3858 f63c
000003c0: 8c7d e63d 10ff bebc 1481 e43d ca2b 96bd
000003d0: 0c3c d4bd 8865 7b3d 823c 8cbd 60ab 723d
000003e0: 807b eabb bead c9bd 10e7 dbbd 90a1 44bd
000003f0: 44d0 993d 02ca f5bd c02d 2ebd 10b1 9ebd
0.078527 -0.084800005 -0.009620786 0.10694702 0.041449964 -0.0460919 0.047336742 0.07268171
0.074352965 -0.082789406 0.00488773 -0.10119516 0.060016632 -0.009968981 0.0096698105 -0.08691019
0.09911084 -0.05991453 -0.040435717 -0.02830574 -0.05136928 0.00049856305 0.019748807 0.008070126
0.041959867 0.09595807 0.12104073 0.060131714 -0.014167309 0.0046702325 -0.05192451 0.030902326
0.021654636 -0.03982784 -0.077971965 0.10228595 -0.09905748 -0.118241444 0.11628273 -0.10775529
0.10154359 0.06490767 -0.11836831 -0.020261884 -0.029062852 0.108585075 0.096119314 -0.07486591
-0.12098344 0.018881798 0.033071652 0.061795443 0.01229471 -0.09202021 0.09756467 0.07673256
-0.1229465 0.09264049 -0.055952832 -0.09654105 -0.019157454 0.06128566 0.03968066 -0.052011877
0.04577972 0.07642494 -0.02147688 -0.093111336 0.012279034 0.0014255792 -0.013292015 -0.005158335
-0.09057385 -0.03028819 0.12412523 0.0896609 -0.01565823 -0.078542665 -0.038135618 0.032980442
0.12491301 -0.07569088 0.03761728 0.09569597 -0.039324403 0.05745575 -0.11843617 0.049589872
-0.09028529 -0.05386135 -0.10286471 0.031102985 0.09724964 -0.09699671 0.08518064 0.12404171
0.029316515 -0.09206183 0.079581514 -0.016662672 -0.11962728 -0.07729925 0.088867486 0.018760428
0.116382256 -0.0131331235 -0.027031794 0.023973405 0.11811918 -0.018195212 -0.0882366 -0.07546997
-0.0063804537 0.118814126 0.08524002 0.052409872 0.07273558 0.07192066 -0.108919576 -0.02372627
0.048066035 0.12148173 -0.011110634 -0.07736343 0.06407504 -0.07362059 0.079941005 -0.08871043
0.0019614398 0.057355136 -0.10102107 0.00036863983 0.08173792 0.014435902 0.02999127 0.080638975
-0.063492686 0.017946184 0.08774109 0.014763951 -0.096749336 -0.103661016 0.03260611 0.0174222
0.06475815 -0.06901729 -0.1178941 0.031429812 -0.11145407 0.07783672 -0.052449048 0.019901559
-0.09477018 -0.017246202 -0.028301775 0.097634435 0.07358301 -0.11599046 0.052371696 -0.10969336
0.024937853 -0.022011966 0.10324995 0.11721513 0.0945867 -0.097808614 -0.073999375 0.055088416
0.10506594 -0.10144882 -0.08182554 -0.08060332 0.0093319565 -0.09504557 -0.071028545 -0.0692586
-0.08110398 0.032422885 0.06605601 0.10024418 0.080165684 0.0007929951 0.007487893 -0.117963985
0.11486031 0.07088125 -0.073783144 0.11217521 -0.008397922 -0.11201309 -0.019789204 0.018630132
-0.10118082 -0.03612314 0.028263837 -0.043760896 0.108424336 -0.07179648 0.10936752 -0.06696527
-0.01868184 0.06960598 -0.084795624 0.049469903 0.013889998 -0.05988753 -0.10031085 -0.041846067
0.047615603 0.11026098 0.10084602 0.05173576 0.06861457 -0.041677743 -0.056853265 0.064871624
0.005489677 -0.011976168 -0.087182865 -0.031897083 0.051405326 0.07830186 0.060335383 0.01931779
-0.09970327 -0.07903133 -0.025649354 -0.033182263 0.06022252 0.02739364 0.12393187 0.07434204
0.06851922 0.06379038 -0.02972877 0.069497675 -0.102158755 -0.072096914 -0.09697586 0.030071363
0.11254415 -0.023314983 0.11157432 -0.07332571 -0.103630155 0.061376125 -0.068474784 0.059245467
-0.0071558356 -0.09847592 -0.10737431 -0.04800564 0.07510427 -0.120014206 -0.0425241 -0.07748616

fc3.bias f4 [32]
00000000: 90b4 e4bc 905c a83c dcb0 c4bd 18ca fe3c
00000010: 1a33 d33d 2065 f0bb 902e 27bc 4864 72bd
00000020: e6e2 e9bd 348e f0bd d2db cb3d 3c8b 8fbd
00000030: caf1 f6bd c02c f7bd 70e4 1ebd ec27 36bd
00000040: e09e 11bd fc49 2fbd 2c3e 2e3d 4456 2b3d
00000050: 4068 68bd 3807 6ebd 403b 12bd 58e8 fe3d
00000060: 4856 3abd a8a1 b2bc d0f5 bf3c 084a 1bbd
00000070: dc07 8fbd d42d 5cbd b6d1 ac3d b0df 013c
-0.02791813 0.02055195 -0.09604046 0.031102225 0.10312481 -0.007336274 -0.010203972 -0.059177667
-0.114202306 -0.11745873 0.09954037 -0.07008979 -0.12057836 -0.12069082 -0.038792074 -0.044471666
-0.035551906 -0.042795166 0.04253976 0.041830316 -0.056740046 -0.058112353 -0.035701036 0.1244666
-0.04549244 -0.0218056 0.023432642 -0.0379124 -0.06983921 -0.053754643 0.08438437 0.007926866

fc4.weight f4 [2, 32]
00000000: 6320 283e e451 5c3d cf8f acbd 264c 22be
00000010: 1637 de3d b0eb f73c e0ef bbbd e2c7 0abe
00000020: e288 ad3d c27c 63bd 759d 9fbd 2bde ebbd
00000030: 93a5 323e 0020 0ebd d9ed 083e f079 27be
00000040: 8074 a23b 20e3 b83c 080d c9bc b2d7 af3d
00000050: d514 0d3e bf98 a2bd b55c 23be 843c 163d
00000060: e09f 09bc e8d5 ed3c 8c82 5b3d ecec c6bd
00000070: e3bf 203e 64ac 513d b630 81bd 9cb9 31bd
00000080: 1cd8 783d 6090 0c3c 6fde 023e 58b7 5ebd
00000090: 3cd6 1cbe 9a7d e5bd 53c6 1abe 0843 1d3d
000000a0: f038 04bc 5443 4ebd bcd9 2cbe e808 1c3d
000000b0: c517 f1bd 6034 fcbc 1e8a d83d 9cef 863d
000000c0: f8b3 d0bc 0e2a 843d 2f49 b1bd 00c0 923b
000000d0: 77f0 053e b042 c7bc f228 d9bd c6c4 c93d
000000e0: 8e56 a13d c3bb 0c3e 30b9 06be e44b 583d
000000f0: aced 633d f661 c43d f05d 1cbd 6c7c 583d
0.16418605 0.053789034 -0.08425867 -0.15849361 0.108503506 0.030263752 -0.09176612 -0.13552812
0.08473374 -0.0555389 -0.077937044 -0.115169846 0.17445974 -0.034698486 0.13371982 -0.16355109
0.0049577355 0.02256924 -0.024542347 0.085860625 0.13777478 -0.0793929 -0.15953334 0.036678806
-0.008399934 0.029032663 0.053591296 -0.09713158 0.15698199 0.051189795 -0.06308119 -0.0433899
0.060752973 0.008579344 0.12780164 -0.05437407 -0.15316099 -0.11205597 -0.15114717 0.038394004
-0.008070216 -0.050357178 -0.16879934 0.03809443 -0.11772112 -0.030786693 0.10573219 0.065886706
-0.02547644 0.06453334 -0.08656537 0.0044784546 0.13080011 -0.024323791 -0.10603513 0.09851985
0.07877837 0.137435 -0.13156581 0.05280675 0.055646583 0.09588997 -0.038175523 0.052853033

fc4.bias f4 [2]
00000000: b8c6 89bc f177 09be
-0.01681839 -0.1342466
