compare/action_file/ddqn_model.pth (torch, 46884 bytes, 8 tensors)

fc1.weight f4 [128, 3]
00000000: 4da8 7d3d 7182 84be ec55 453f 7e3e 27bf
00000010: 9ff8 533e 5a69 553f d00a f5be ca0b 303e
00000020: 3b08 c6be eb44 6b3d fd50 f5bd 3c08 3dbf
00000030: 1a89 36bf 67ce 223f 8539 803b 3764 d5be
00000040: 9f5b c3be 5a2c d0be 31a1 a83d 44c7 d9be
00000050: 25f1 84bf fb08 a1bf e33c 8c3f 2ede b33f
00000060: accb 84be e5dd f5be 706e 633d 702f 33bf
00000070: ea1e 823e 07e3 8fbf aaf7 0cbf 9e18 1ebe
00000080: eef5 77be 5883 aebe 6fa7 353e 9f83 76bd
00000090: 5133 043e 4c52 84be 17f7 003e 943b 913d
000000a0: 9cef 08bf 89d3 a0bf aee1 5abe bcd6 a7bd
000000b0: fc5c babd 3e6b 263d 2aaa 08be 2103 8cbf
000000c0: 9fc7 933d 65c9 8cbe 75be 813f ded6 67be
000000d0: 3993 89be 9bcf f6be 17ae 7d3e 4acd 3f3e
000000e0: 3252 fa3f 58a1 b6be 0aad d73d 3495 b8bf
000000f0: 11fc 983d 4748 dfbf 5534 1ac0 9116 fcbe
00000100: 9757 863e f545 f4bf 43cf d43e 7bbe 60bb
00000110: 4dde f0bf 22af 37bf 1c6a ac3e 3da0 4f3e
00000120: 2c5b 6cbe 1802 cebd 003c 3bba 1cea 4cbf
00000130: e696 b13e 5843 af3e d2b3 213d c452 793c
00000140: c0c0 0e3f 88f2 56be a958 febe f088 5bbd
00000150: 50c3 d3be c4a2 fbbe b6c7 c53e ca5b 4fbf
00000160: 36a9 573f 4b67 7fbe b02a 19bd 1008 3ebd
00000170: 68f3 453e 0535 94bc 7644 3bbd bd26 793f
00000180: b430 b6bd b00f d6bc 5d82 ea3e bce9 f1bd
00000190: fc8b b0bd e013 523d dae2 e73e 607b 783e
000001a0: 01b1 e9be d9d7 98bc f578 35be 6cfd 6cbd
000001b0: 4516 d2be 24f5 98be aebc 3fbe da41 9abe
000001c0: 54e9 843d 0de7 02c0 1819 7cbd 8763 bbbe
000001d0: bfe1 873f 65c0 e7bd 4c62 01bf 3aa1 803f
000001e0: f8ef aabd adc0 12bf 0012 183b 3d61 653d
000001f0: 0eb1 0abf ae22 a53e 3b8c 813d f883 84be
00000200: 2640 6d3f b3e7 45bf b16d b93e 616c 6fbe
00000210: a41b 163d 66a8 4ebf e2da 493e 7066 22bf
00000220: 8749 043d d88c 97bd 29f8 833d 48c7 ec3c
00000230: f7c3 d5bf 460a 40be 7541 193e 701e 8f3f
00000240: 70dc 77be 3ac0 1cbe d851 b9bd bcd0 a3bd
00000250: 5841 39bf b829 73be 19ed b9bd caf4 dcbd
00000260: 109b d13f 62e0 76be e0c8 05bd 791a 1bbe
00000270: d405 493d 2385 1fbf 8b3b b6be b7e3 13bf
00000280: fd56 5e3e 4971 fcbe 4ad8 103f d29d e6be
00000290: bc55 b73e 8053 3cbe 5eda 31be 0899 1abf
000002a0: a84a fbbe 70b9 bdbe 3e62 6cbe 8012 55bc
000002b0: 00ec 1a3c 992e b5be c297 17bf fbf7 8b3e
000002c0: d30f b3bf 107c 54bd b59e 87be 406e 2abe
000002d0: 15c7 153e 2841 a7be a4aa 733f 9d91 0c3e
000002e0: a725 6e3a 714f 0cbe d906 e43d a08d 8e3d
000002f0: c605 4bbf 5829 20be 00b9 e5bc 70df 42bd
00000300: e8ff 04bf 28cd a3be 113f bdbe 6a11 8ebd
00000310: b7f0 38bd e0f6 0240 8aab b8be 6cab 06be
00000320: d0a3 c6bd 5f68 c7be d990 0bbf 6e31 cb3e
00000330: 1c2f 0fbf 271d 88be 28bb e83d a7d3 02bf
00000340: 8f92 d63d 101b 8b3f b6e7 c2be 9ee0 6fbe
00000350: 81b0 05bf 2e0a 9bbe 015c 233e 8a77 8a3e
00000360: f4d6 15bc 83b8 91be ec3e 0a3e c097 21bf
00000370: f182 0a3e fc6a cabf d88c 95be b97b c43d
00000380: 8620 ff3e fdaa cfbe 7c33 a5bd f2fd 043f
00000390: 1218 b23c 3b89 1bbf 7205 423e 853a 7ebe
000003a0: ff6e 6fbf e1fb d3bf 93d2 8fbd eacc 8d3d
000003b0: 3d46 47bf 131e e6be 7695 793d 80f9 9c3b
000003c0: f755 dcbe 303c 193d ac4f 1f3e 1fbc 8fbe
000003d0: b0a0 07be 9a30 91be 1566 c5bd e6fa 0dbc
000003e0: 5543 f4bf d2d0 f6be d3fc 333e c365 22be
000003f0: db68 aabe 860e 4cbe d8b0 cabd 18ec 273b
0.061928082 -0.2588077 0.7708423 -0.6532973 0.2070031 0.8336388 -0.47859812 0.17191997
-0.38678154 0.057438772 -0.11978338 -0.7384069 -0.7130295 0.63596195 0.003913107 -0.4167802
-0.3815584 -0.40658838 0.0823387 -0.4253484 -1.0386091 -1.2580866 1.0956081 1.4052179
-0.2593664 -0.48020855 0.055525243 -0.6999426 0.2541421 -1.1241158 -0.55065405 -0.15439078
-0.24214908 -0.34084582 0.17739652 -0.060184117 0.129102 -0.25844038 0.12594257 0.07091442
-0.53490615 -1.2564555 -0.21375152 -0.08195254 -0.090997666 0.040629618 -0.13346162 -1.0938455
0.07215809 -0.27497402 1.0136248 -0.22640559 -0.26870134 -0.48205265 0.24773441 0.18730655
1.9556334 -0.3566997 0.105310515 -1.4420533 0.07469953 -1.7443932 -2.409444 -0.49235967
0.262387 -1.9083849 0.41564378 -0.0034293223 -1.8817841 -0.71751606 0.33674705 0.2027597
-0.23081654 -0.10058993 -0.00071424246 -0.8004472 0.3468544 0.34231067 0.03947813 0.015217487
0.55762863 -0.20990956 -0.49677017 -0.05359739 -0.4135995 -0.49147618 0.3862893 -0.80999434
0.8424257 -0.24941747 -0.037394226 -0.046394408 0.19331133 -0.018091688 -0.045719586 0.97324735
-0.08896008 -0.026130527 0.45802584 -0.118121594 -0.0862045 0.051288486 0.45290262 0.24265814
-0.45642856 -0.018657612 -0.17721923 -0.05785887 -0.41032615 -0.29874527 -0.1872432 -0.30128366
0.06489816 -2.0453522 -0.06154737 -0.3659937 1.0615767 -0.11315993 -0.50540614 1.0049202
-0.08346552 -0.5732525 0.0023204088 0.056000937 -0.54176414 0.3225302 0.06325575 -0.25881934
0.9267601 -0.7730667 0.362165 -0.23381187 0.036647454 -0.80725706 0.19712403 -0.6343756
0.032296684 -0.07399911 0.06443817 0.028903618 -1.6700429 -0.18753919 0.14966376 1.1181164
-0.24205184 -0.15307704 -0.090488136 -0.07998797 -0.7236533 -0.23746383 -0.09078426 -0.10788877
1.6375446 -0.24109033 -0.032662272 -0.15146817 0.049077824 -0.62312526 -0.35592303 -0.5776934
0.21712871 -0.4930518 0.5658003 -0.45042282 0.35807598 -0.18391228 -0.17368457 -0.6038976
-0.49080396 -0.3705554 -0.23084351 -0.013004899 0.009455681 -0.35387114 -0.5921594 0.27337632
-1.3989204 -0.051876128 -0.2648827 -0.1664362 0.14626725 -0.32666898 0.9518225 0.13727422
0.000908459 -0.1370218 0.111341186 0.069606066 -0.79305685 -0.15640771 -0.028042316 -0.047576368
-0.5195298 -0.3199246 -0.36962178 -0.06936915 -0.04515144 2.046318 -0.36068374 -0.1315133
-0.096992135 -0.38946816 -0.54517895 0.3968615 -0.5593126 -0.2658474 0.11363822 -0.51104206
0.104771726 1.0867634 -0.38067406 -0.23425528 -0.5222245 -0.30281204 0.15953065 0.27044326
-0.009145487 -0.28461084 0.13500565 -0.6312218 0.13526513 -1.5813899 -0.29209018 0.09593911
0.498295 -0.4056014 -0.080664605 0.5194999 0.021739993 -0.6075627 0.1894739 -0.24827011
-0.9352874 -1.6561242 -0.07022586 0.0692385 -0.7784155 -0.4494482 0.060933553 0.004790485
-0.43034336 0.037410915 0.15557736 -0.28073213 -0.13244891 -0.28357393 -0.09638611 -0.008665776
-1.9083048 -0.48206192 0.17576914 -0.15859132 -0.33283123 -0.19927415 -0.098970115 0.00256229

fc1.bias f4 [128]
00000000: 1fe7 0ac0 f2ff 073f 7d67 e5bd 3996 98bf
00000010: 2412 87be 7496 df3e bf1d b0bf 4cd5 a23e
00000020: e2b3 e9be f287 99be 4838 8fbd 1bd7 d7be
00000030: 86cd 2cc0 f4e3 78bf a67b 51be 64f1 3fbf
00000040: 8ff0 13c0 2608 103f e1ba 86c0 576b 99bf
00000050: e552 1bbe 6a79 2bbf 8e8a 82c0 3984 0dbf
00000060: db50 97be b62d 90be e95a cbbf 144e 74be
00000070: 8435 503e f42f 883f 4ea2 29be 0f57 36bf
00000080: 47cb 513e 002b bbbc 9bf7 8dc0 b2ae 603e
00000090: 9636 073f e993 c23d cf18 c1bd 9770 c03e
000000a0: 4a78 b53e c58c 87bf ffca 06c0 db48 ddbe
000000b0: 5996 c6be e908 c3be 6ad1 e1bf 5d69 3fbf
000000c0: 2c05 0c3e a5be 3d40 5170 0dbf 6b8f 8a3e
000000d0: 292c 03bf 2ab1 c8be 887a 65c0 1c60 1e3f
000000e0: 30af 093f 20d0 75bd e0d0 d0be 2234 8bbe
000000f0: c27a 51c0 9bd4 3fc0 475c 46c0 0451 723e
00000100: 11cd b0be 3387 a8bf 6e53 843e 6071 ff3c
00000110: ac0e 2c3e bce3 fbbe 2c9b da3e 4b9d cfbe
00000120: a12c 393e 1c03 abbf 4be3 d0bf 804f 173e
00000130: 7d50 12be 5c9d 3c40 aac6 d5be 34b0 cbbd
00000140: 28ef 133e a0ce 513e 5535 0cbf 8bb3 223e
00000150: e038 e83e 2530 263d 321f 0340 1add c73e
00000160: c0e3 ddbe 44f3 183e 56e5 dabe 78ea 01c0
00000170: 44bb c3be 87f1 d6be 9def 5bbf 7702 22bf
00000180: 5b1a 31c0 e31b adbf 7696 69c0 cfc3 46c0
00000190: 149a a9bd 3a59 6bbe dd8a 64c0 7607 113f
000001a0: 7364 13c0 7765 75c0 a816 7b3e 8cde 8c3f
000001b0: 4c47 803e 2c99 05bf 11b3 5640 c86d 5b3e
000001c0: a220 cebf e086 8a3c 4a8c 63c0 ee8a 63bf
000001d0: 2526 673e c464 8cbe f21b fabe aaea 423f
000001e0: b2d9 113f 3a18 c4be bddb 7ec0 6e12 26bf
000001f0: 4c5e 87be d44d 24c0 a8ba 693e 83e7 e8be
-2.1703565 0.53124917 -0.112013794 -1.1920844 -0.26381028 0.43669474 -1.3759078 0.31803358
-0.45645052 -0.2998653 -0.06993157 -0.421563 -2.7000442 -0.9722283 -0.20457324 -0.7497771
-2.3115575 0.56262434 -4.2103124 -1.1985883 -0.1516834 -0.6698214 -4.0794134 -0.5527988
-0.29553875 -0.28159875 -1.5887119 -0.2385791 0.20332915 1.0639634 -0.1656582 -0.7122659
0.204877 -0.022847652 -4.4364753 0.21941641 0.52817667 0.09500868 -0.0942856 0.375859
0.35443336 -1.0589834 -2.10614 -0.43219647 -0.3878658 -0.38092735 -1.7642033 -0.74770147
0.13673848 2.964761 -0.55249506 0.27062544 -0.5123926 -0.39197665 -3.5856037 0.618654
0.5378294 -0.060012937 -0.4078436 -0.27188212 -3.2731175 -2.9973514 -3.0993822 0.23663718
-0.34531453 -1.316626 0.25844902 0.031181991 0.16802472 -0.49197185 0.42696512 -0.40549693
0.18083431 -1.3360324 -1.6319364 0.1477642 -0.14288516 2.9471045 -0.4175313 -0.099457175
0.144467 0.20488977 -0.5476888 0.15888803 0.45355892 0.040573258 2.048779 0.39035875
-0.43337822 0.14936548 -0.42753094 -2.0299358 -0.3822881 -0.41981146 -0.85912496 -0.6328501
-2.7672336 -1.3524135 -3.6498084 -3.1057012 -0.08281341 -0.22983256 -3.5709755 0.5665201
-2.303006 -3.834318 0.24520361 1.1005416 0.25054395 -0.52186847 3.3546793 0.21428597
-1.6103709 0.016910017 -3.5554376 -0.88883865 0.22573145 -0.27420628 -0.48849446 0.7613932
0.569728 -0.38299733 -3.9821618 -0.6487187 -0.2643913 -2.5672503 0.2282511 -0.4548913

fc2.weight f4 [64, 128]
00000000: d41a ecbd 68a6 a2bd ff28 08bd 1fa9 19bc
00000010: 1933 1fbb a02a e23b 6328 bbbd 9e17 c8be
00000020: a869 b0bd 9fde 82bc 4424 08bd a3f5 623b
00000030: 4bad 9dbc b5f6 bd3c f0fc 923c e543 f8bd
00000040: 88b8 03bd 6280 46bd 3735 76bd 977a fabc
00000050: 4560 d73c 5e5b 8e3c 969d 31be 8205 3f3d
00000060: a2ca 043d 9846 313c 0192 58bd 0877 9dbd
00000070: 306e 8dbd b1ee 343d 3533 803d 0deb 8ebd
00000080: 7f95 bfbd c23f 173d 0563 11be 0dca 443d
00000090: fdf2 adbd 8f1a 193d 94cc 00bb 531e 1c3c
000000a0: 07c6 2ebd 279e f3bd 3083 8dbd a7b5 fb3c
000000b0: 7d8d a93d dde6 a1bc 8a0a acbd 0bcb 2d3c
000000c0: 3772 12bd a950 64be 7488 2dbd d1e6 a7bd
000000d0: f9fb b7bd 752c bd3c 3c9c 95be 828f 8ebe
000000e0: 2b2f 8f3d 401b fbbb 377f b1bc defc 413d
000000f0: 974e c7be 5573 29bd a347 4a3b 1bc1 8abd
00000100: 78eb 833c 2c2e 4abd e15c 943d b121 a53d
00000110: 3305 34bd 4b7d 193c a7eb 29bd 7ca1 1d3d
00000120: e9cd 31bd 3840 7ebd 7933 06be a7e0 08bd
00000130: 2435 7e3c 8186 6abb b8ca bfbd b125 883d
00000140: 063e 6c3d 03db 14bd f939 23bd fa41 08bd
00000150: b565 0cbd 9b27 9d3c eda6 91be 9d93 a43d
00000160: ce15 abbd 5dd2 20bd 9079 cbbb c1e7 e2bd
00000170: 05f9 cbbd bb7a 0a3e 6e84 543c d14d 08bd
00000180: acad cebd 5847 bdbd c37f d2bc c331 22be
00000190: c6f6 91bd 75c6 a43d 9547 bcbe facb d9bd
000001a0: 00be 34bd 54f5 0cbc b031 73bc 267e 103d
000001b0: c8b1 25bc 51c6 aa3c 906d 95be 0c20 ef3c
000001c0: 6cd3 0c3d 0450 e83c dfa2 b3be cbda d9bc
000001d0: ef0e 3f3c d17b 2dbd f853 303c e7bd a6bd
000001e0: 850b 1e3d aff1 57bd 933d 71be e01b 0d3d
000001f0: 2802 da3a 89f4 91bd 9555 54bb dc34 abbd
00000200: 58f9 71bd 4bf1 76bc 00f5 e1bc cf01 ec3c
00000210: 9f16 4fbd c8be ae3c e8e2 603c f450 0bbc
00000220: b738 26bd a783 f0bd d093 05bc 4af9 a9bd
00000230: 449f d6bc 8d1b 0dbe 94c8 833c 33f4 babd
00000240: fc6e 83bd f782 873d 8cae 31bb eb8c 0cbe
00000250: 2a0c 423d e20d ecbd 677f dbbd 2115 1fbd
00000260: 80b2 64ba fc4a 8ebc f924 123c c7b3 9a3d
00000270: 2334 0fbd 558d 52bd 7c7f 8dbc d6a1 67bd
00000280: b0e6 dd3b 95f6 15bd d1c2 8cbd 74a3 76bd
00000290: e88a 103d ce3b 883c 9c3d ecbd 26e8 2c3d
000002a0: 9613 263d 8eb0 92bd 0f8d a83c 3e10 7ebd
000002b0: 59df 99bd 736a 2e3b f23b 97bd 6881 413c
000002c0: 802e 6eba a036 dbbc 691e f7bd 2c74 cdbd
000002d0: 8257 56bd 4fc9 c5bc 9813 3e3c 58a8 83bd
000002e0: c843 e5bc f558 a8bd 367e 0cbc ef59 8bbd
000002f0: f3fd 84bd 9eb5 b6bc ac17 b3bd 18d1 de3c
00000300: 5083 923c 87f3 11bd d0d1 d6bb 5c65 fd3c
00000310: 6bbb aebd 7c30 0bbd 405d 74bc c06f 81bd
00000320: 209f 49bd 9625 d2bd 6a54 8ebd 9337 953d
00000330: afa4 a53d 4615 003d b90d 31bd af61 99bd
00000340: 38b1 19bc 80b8 fe3b 3519 783c b567 6dbd
00000350: b27e 80bd 9971 e739 9d44 3bbc 7462 d93c
00000360: 5e00 223d 893e 67bd 38ce 18bc ed75 e8bd
00000370: 1481 ebbd 9ff5 24bd cd13 c9bd 5311 c4bd
00000380: b35a 6bbd 4030 f0bb 0034 e9bd cde8 b6bc
00000390: 00a5 f83a 9a6e 3b3d 000f 37bb 401b b93b
000003a0: b70d 6abd 5fb2 b6bc 635f 8cbd 25a6 0cbe
000003b0: 80a6 f5ba ba9a 533d 0002 68ba 11e6 f5bc
000003c0: 5a53 39bd b643 32bd 3e62 013d 27ae 8a3c
000003d0: ae84 853c 50f2 563c bc6a 083d 1ffb f2bd
000003e0: 1e52 b5bd d2f2 483d 459d 9b3d 3ed4 85bd
000003f0: 971e 4cbb f718 f0bd a7b3 59bd 55f1 95bd
-0.115285546 -0.07941896 -0.033242222 -0.0093787005 -0.0024291931 0.006902054 -0.091385625 -0.39080518
-0.08613902 -0.015975295 -0.03323771 0.0034631274 -0.019247672 0.023188928 0.017942876 -0.12122325
-0.032158405 -0.04846228 -0.060109343 -0.030576034 0.026291022 0.017377552 -0.1734527 0.046636112
0.03241981 0.0108200535 -0.052873615 -0.07688719 -0.06905782 0.044172946 0.06259767 -0.06978426
-0.09354686 0.03692604 -0.14197929 0.048044253 -0.08493612 0.037378844 -0.0019653188 0.009528714
-0.042669322 -0.118953995 -0.06909788 0.030726267 0.0827894 -0.019763405 -0.08400448 0.010607491
-0.035753455 -0.22296394 -0.04236646 -0.081983216 -0.08983607 0.023092488 -0.2922076 -0.27843863
0.069914185 -0.0076631606 -0.021667106 0.047360294 -0.38927147 -0.041369755 0.0030865453 -0.06775113
0.016103491 -0.04936044 0.07244278 0.08063067 -0.04395027 0.009368251 -0.0414845 0.03848408
-0.04340926 -0.062072963 -0.13105573 -0.03341737 0.015515599 -0.0035785737 -0.093648374 0.06647814
0.057676338 -0.03634168 -0.03985021 -0.033266045 -0.034276683 0.019183924 -0.28447667 0.080359675
-0.08353768 -0.039263118 -0.0062095597 -0.1107936 -0.09959606 0.1352338 0.012971027 -0.033277337
-0.10091719 -0.09242123 -0.025695687 -0.15839295 -0.071271464 0.08045665 -0.36773363 -0.106346086
-0.04412651 -0.008603413 -0.014843389 0.035276555 -0.010113187 0.020846518 -0.29185152 0.029190086
0.034381315 0.028358467 -0.35085198 -0.026593586 0.011661275 -0.04235441 0.010762207 -0.0814169
0.038585205 -0.05272072 -0.23558645 0.03445041 0.0016632723 -0.071267195 -0.0032399644 -0.083596915
-0.059075683 -0.015072177 -0.027582645 0.028809456 -0.050558683 0.021331206 0.013725974 -0.008503187
-0.04058143 -0.11743861 -0.008152917 -0.08299501 -0.02619899 -0.13780041 0.016086854 -0.091286086
-0.06417653 0.066167764 -0.0027112095 -0.13725631 0.04737488 -0.115260854 -0.107176594 -0.03883851
-0.00087241083 -0.01736974 0.008919948 0.07553821 -0.03496183 -0.051404316 -0.017272703 -0.056550823
0.006771885 -0.036612112 -0.06873096 -0.060214475 0.03528872 0.01663008 -0.115351886 0.04221358
0.040546022 -0.071625814 0.020575074 -0.06202721 -0.07513303 0.0026613742 -0.073844805 0.011810638
-0.00090859085 -0.026759446 -0.12066347 -0.10031924 -0.052329548 -0.024143843 0.011601351 -0.064285934
-0.027986422 -0.08220092 -0.008575013 -0.06804263 -0.064937495 -0.022303399 -0.087447494 0.027199313
0.01788488 -0.035632636 -0.0065557733 0.030932121 -0.08531841 -0.033981785 -0.014914811 -0.06320143
-0.04922402 -0.10261075 -0.069496945 0.072859906 0.080880515 0.031270288 -0.043225978 -0.07489335
-0.009380631 0.007773459 0.015142729 -0.05796023 -0.06274165 0.0004414439 -0.011429933 0.026536204
0.03955113 -0.056456123 -0.00932651 -0.113506176 -0.11499229 -0.040273305 -0.0981823 -0.09573617
-0.057459544 -0.0073299706 -0.11386871 -0.022327805 0.0018970072 0.045759775 -0.0027932525 0.0056490004
-0.057141986 -0.02230185 -0.06854131 -0.13735254 -0.0018741637 0.05166123 -0.00088503957 -0.03001693
-0.045245506 -0.043521605 0.03158783 0.016928745 0.016298618 0.013119295 0.033304915 -0.11864304
-0.08853553 0.049059696 0.07598356 -0.065346226 -0.0031146163 -0.11723512 -0.053149845 -0.07321421

fc2.bias f4 [64]
00000000: aecc b1be cb9e 88bd 5d9b 71be e54e f2bc
00000010: baae 8ebf 82f9 10be 48f1 c8bf 7f70 b6be
00000020: 4a09 a5bd 8d86 77be 5fcc be3e 0d1c dabe
00000030: 8df5 babe 9f9b 18be ea70 80be 28c5 39be
00000040: f501 8dbe 1a37 88be 5c45 86bd 143a ffbe
00000050: 516e a7be d744 25be 64a4 16c0 cf4d ecbe
00000060: a6bc 35bf ed0d 1dbe ce79 8abe 5f63 7abe
00000070: ba33 e3bf 8ca0 c6be 6476 fd3c 4a5c 78bf
00000080: 3136 17bd 26e3 6cbd ed22 2abe 846e 92be
00000090: 66d9 0dbe dd9a bd3e 94a8 4abf b93a 153f
000000a0: ebdf 90be a04e 643f 51b6 8ebf d9fe 02bf
000000b0: a8bd e3bc db40 67bd fdaf 2cbf b76e 01be
000000c0: a784 5cbd 0d11 83bf adc6 f9bd 7b2e 01c0
000000d0: 75fc 09be f836 fbbd a01a 7abf d8a1 e1be
000000e0: 9e56 4bbe 0ba5 e1bd a05d aebf 5bc1 bdbe
000000f0: 3713 d93a ae2c babe 10a4 eebe 0cf7 bbbe
-0.3472647 -0.06670912 -0.23594423 -0.029578635 -1.1147072 -0.1415768 -1.5698633 -0.35632703
-0.080584124 -0.24172421 0.37265298 -0.42599526 -0.36515465 -0.14903115 -0.25086147 -0.18141615
-0.27540556 -0.2660454 -0.06556198 -0.49848998 -0.32701352 -0.16139542 -2.3537836 -0.46153113
-0.7099098 -0.15337344 -0.27046055 -0.2445197 -1.7750161 -0.38794363 0.030940242 -0.9701582
-0.036916915 -0.057833813 -0.16614886 -0.28599942 -0.13852462 0.37032214 -0.7916348 0.5829273
-0.28295836 0.8918247 -1.1149389 -0.51170117 -0.027800396 -0.056458335 -0.67456037 -0.1263989
-0.053837445 -1.0239578 -0.121960975 -2.018462 -0.13475211 -0.12266344 -0.97696877 -0.4406879
-0.1985726 -0.110178076 -1.3622322 -0.3706158 0.0016561513 -0.36362213 -0.46609545 -0.3671192

fc3.weight f4 [32, 64]
00000000: 9762 89bd 0b6b ce3c 1283 f73d 3862 e33d
00000010: 7daa 26be 3177 333d 656a 1fbe 002d a9ba
00000020: 4731 44bd b1b0 ecbd a8d2 33be ccde 3f3d
00000030: c7a5 25be 142c 2d3d 8c72 2b3d 860e f6bd
00000040: a036 12bc 830b 30be 0d41 0a3c f711 1dbd
00000050: c3de abbe beb7 3dbe 1830 1cbd 0074 8b3c
00000060: f3be ac3b a019 bd3b 5aca 9bbd c1f7 0f3e
00000070: bad2 a1bd d49a 4e3c e83e e0bd 80b8 64bc
00000080: c7d3 0cbd e5c8 3a3e 8d4a efbd c474 2abe
00000090: 5c2f 613d e508 27ba 39bb 81bc 959e 37bc
000000a0: 43ce 3abd c4b8 1f3c 25b9 963d 88bd a1bd
000000b0: f642 19bd e3f5 90bd e5c5 3e3d dc6b 923d
000000c0: 9be1 7fbd e1d8 9cbe 6091 00bd c221 d2be
000000d0: 1b6e 08be a0d1 e1bb afab 6bbb eca7 8e3d
000000e0: 88b5 663d 1503 09be b17a 1fbe 2c34 eb3d
000000f0: ba88 4a3c b976 efbb f69f 953d 51ca f13d
00000100: 7826 913d 2092 8b3c 24a2 763d 401d 013c
00000110: 885d 05bd a896 c4bd 6801 c03c a6e8 8e3d
00000120: 9add 84bd 2873 2abe 0972 81be b869 52bd
00000130: 14a5 9abd 4aa8 b43d a65f d23d 1cc3 a6bd
00000140: 7c85 483d 7ace 7abe 90e9 2f3d a4be 08bf
00000150: 5248 ecbd 8527 b8bd c609 83bd c871 263d
00000160: 1d67 f5bd ac22 293d 4662 e8bd e886 ab3c
00000170: 40ae e0bd ec32 e1bd 5259 86bd 7483 873d
00000180: 223c b73d f2c0 9f3d 003a f1bd f83a 2d3d
00000190: c805 cb3d 7ca3 39bd b2f2 a1be eec2 bbbe
000001a0: 4487 433d d8f0 81be f088 b93c 8079 ad3c
000001b0: 388c f83d 6855 69bd 62b9 d63d 6024 abbd
000001c0: 800c 53bd 194a c9be 88de bebc 282e 79be
000001d0: 663d e33d 2cfa 1dbd 7646 abbd 44e7 05bd
000001e0: 525a 9c3d 4ced 7c3d a79d 28be 365a a73d
000001f0: 701c f13c d056 583c 54b7 ff3d 4833 8c3d
00000200: 47bc 583d 3dbe 8b3d a0d2 efbd 44cd 9dbb
00000210: aae5 643c f66e dc3d 04ed 09be d622 2cbd
00000220: 75ed a83e 6c74 2b3d 9c2d b83d baf5 87be
00000230: 4a99 8c3e 650b 713e 3aba 7fbe dea8 943e
00000240: 0f63 23bd a51f 293e fb14 313e f5bd e43d
00000250: ce69 de3e ff40 2dbf 8771 51bf 6e40 92be
00000260: f52f a0bc a97c 1bbe 5683 cf3d 8a0e 96bd
00000270: 34b5 59be 038b 6d3d 9604 cf3c 247a e9be
00000280: de11 e03d 7ba2 963d af76 d73e f032 4a3e
00000290: fc73 993e e5f6 6e3f 8695 81bd 9fe5 e0be
000002a0: 3501 1abe ff46 d5bf c1f7 1bbd b36b a7be
000002b0: e97b 353e be4d 033e dd79 07bf 557d 0c3e
000002c0: 4120 d73c 31c9 933d d10a 383e 903b c5bd
000002d0: 4686 153e 71df 113e 7d86 8dbf b8c8 24be
000002e0: 9ed6 953d 2606 9bbc 3a01 18be 3bc1 6c3e
000002f0: 4bde 613d b77a 233e 0ae9 3d3d 8b6a cdbd
00000300: 46c2 7ebc 20ad b8bc f6f3 383d d09e 323d
00000310: fed9 36be d998 a1bd a11c d7bd 12d0 39bd
00000320: 99ee 14bd 8da2 36be 00dd 3ebe 8855 67bd
00000330: 68e9 3fbe 5047 803d 5f80 adbb fa6e 0cbd
00000340: 94d3 123d 32b1 913c da9d 24bd 2492 8fbd
00000350: e8ec 6c3d eb55 b5bd 94ac 16bd 04e2 7fbd
00000360: 41f4 b8bc 3a70 953d a5e2 1fbd c5d3 553d
00000370: 67b2 4abd ec74 83bb 6813 fabd 2c74 123d
00000380: 411c 233d 5288 6fbd 33e6 87be 6ef8 a83d
00000390: 32c5 d2bd ca86 09be 5d7e b4be ea79 a2bd
000003a0: 009c 06be c245 3ebe 0fe7 f6bd a06e 3dbc
000003b0: e8f5 2bbe 4b4a f5bd c66c 40bd a8c7 8abd
000003c0: 863e 513d 747a 2fbe 4492 103d 17db 02be
000003d0: 4be5 cd3d a8bc fe3c 794a abbd f6f7 ca3d
000003e0: 56ec b43d f8ec a2bd 976a 48be 4062 6bbc
000003f0: 404b d1bd 2add 803d 541b 89bd c2e8 683d
-0.06708258 0.025197526 0.120855466 0.11102718 -0.16275974 0.04381484 -0.1556793 -0.0012907088
-0.047898557 -0.11557139 -0.17560828 0.046843335 -0.1617652 0.042278364 0.041857287 -0.12014489
-0.008924156 -0.17191891 0.008438361 -0.03834721 -0.3356839 -0.18527123 -0.038131803 0.017023087
0.0052717864 0.005770877 -0.07606955 0.14059354 -0.07901521 0.012610156 -0.109494984 -0.013960004
-0.034381654 0.18240698 -0.11684141 -0.16646105 0.054976806 -0.000637187 -0.015836345 -0.0112072425
-0.045606863 0.009748641 0.07359532 -0.07897478 -0.037417375 -0.07078149 0.046575446 0.07149479
-0.062471014 -0.30634215 -0.03138864 -0.4104138 -0.13323252 -0.0068914443 -0.0035960486 0.06965622
0.056325465 -0.13380082 -0.15574147 0.1148456 0.0123617 -0.007307854 0.07305901 0.11806167
0.070874155 0.017037451 0.060213223 0.007880509 -0.0325599 -0.09599048 0.02343817 0.06977968
-0.0648758 -0.16645491 -0.25282314 -0.051370353 -0.075510174 0.08821161 0.1027215 -0.08142683
0.048955426 -0.24492827 0.042947352 -0.53415895 -0.115372315 -0.08991913 -0.063983485 0.040635854
-0.11982558 0.04129283 -0.11346869 0.020938352 -0.109707355 -0.10996041 -0.06560005 0.066168696
0.08947016 0.07800473 -0.11778641 0.042292565 0.09913212 -0.045321926 -0.31630474 -0.36672157
0.04773642 -0.25379062 0.022648305 0.0211761 0.121361196 -0.056966215 0.10484578 -0.08356547
-0.051525593 -0.39314345 -0.02329947 -0.24334013 0.11095695 -0.03856866 -0.08363049 -0.032691255
0.07634415 0.06174974 -0.1646639 0.08171503 0.029432505 0.013204291 0.12486139 0.068457186
0.05291393 0.068233944 -0.117100954 -0.0048157293 0.013970772 0.107633516 -0.1346932 -0.04202541
0.32993665 0.041859075 0.08993074 -0.26554662 0.274607 0.23539503 -0.24973384 0.29035085
-0.03988939 0.16515978 0.1729316 0.11169044 0.43440098 -0.676773 -0.81813854 -0.2856478
-0.019554118 -0.15184273 0.10132472 -0.07326992 -0.2126053 0.0579939 0.025270741 -0.45600998
0.10940908 0.073552094 0.42082736 0.19745994 0.29971302 0.9334548 -0.063273475 -0.43925187
-0.15039523 -1.6662291 -0.038078073 -0.32699355 0.17723049 0.12822625 -0.52920324 0.13719685
0.026260497 0.072161086 0.17972876 -0.09630501 0.14602003 0.14245392 -1.1056668 -0.16092193
0.073163256 -0.01892383 -0.14844218 0.23120587 0.055143636 0.15964781 0.04636482 -0.10030087
-0.015549248 -0.02254349 0.045154534 0.043608487 -0.17856595 -0.078904815 -0.105035074 -0.045364447
-0.036360357 -0.17835446 -0.18638992 -0.056478053 -0.18741381 0.06263602 -0.005294844 -0.034285523
0.035846308 0.017784689 -0.0401896 -0.07010296 0.05784312 -0.08854278 -0.036785677 -0.062471405
-0.022577407 0.07296796 -0.039034504 0.052203912 -0.049486544 -0.004011741 -0.12210733 0.03575532
0.039821867 -0.058479615 -0.26542816 0.08250509 -0.10291518 -0.13430324 -0.35252658 -0.079334095
-0.13145447 -0.18581298 -0.1205579 -0.01156202 -0.16793025 -0.11977061 -0.046978734 -0.06776363
0.051085018 -0.17136556 0.03529574 -0.12778889 0.100535 0.031095818 -0.08363814 0.09910576
0.0883414 -0.079553545 -0.19571911 -0.014366686 -0.10219431 0.06292184 -0.066946656 0.0568626

fc3.bias f4 [32]
00000000: 9588 18be dcd6 0cbf 9f8a 853f f41a 3ebf
00000010: 7b8f 12c0 05b0 983e 1c2c 9ebe 0a43 71be
00000020: 85f2 19be ba07 853f 91de 7bbe 521f 2bbe
00000030: a6a9 16c0 f0f3 b3be 2dea 51be 41f7 2dbf
00000040: fd33 d2be ef42 a6be ab15 c9be 62f3 debe
00000050: 8a61 bd3f 5c5b b3bc 4a7c 18bf a842 65ba
00000060: 7b64 1fbe 7565 27bf 261f f3be 77ce a5be
00000070: 11a1 78bf a986 01bf f527 98bd 43f8 22bf
-0.14895852 -0.5501535 1.0432929 -0.7425988 -2.2900074 0.29821792 -0.30893028 -0.2356073
-0.1503392 1.0392983 -0.24596621 -0.16711167 -2.3541045 -0.35147047 -0.20499487 -0.67955405
-0.4105529 -0.3247294 -0.39274344 -0.4354506 1.4795392 -0.02189415 -0.5956465 -0.00087455893
-0.15565674 -0.65389186 -0.47484702 -0.32384083 -0.9712077 -0.505961 -0.07429496 -0.6366007

fc4.weight f4 [2, 32]
00000000: 5660 083d cabf c33d 299b 8ebe d427 fdbd
00000010: 7401 8e3e f7dd 64bc 699b fb3c a0fb c83b
00000020: f5de 493b f469 d43e 544d d3bd c9d1 f6bb
00000030: af3e 1a3e ddaa 063f 3c43 cc3e 000e 26bd
00000040: 5cdb cabd b1ae 3e3d 4814 c73c 9924 50be
00000050: 4d4b eabd 748c 073f efe2 c13e 8bea c63e
00000060: 3a0a e63d 5ca2 f03d d559 ec3d e770 833d
00000070: 3bec 08bd 28c6 b8be 185d b03c 101c a1be
00000080: af87 e03b b06e 783e 09ce 69bd 5b57 8bbc
00000090: 3345 643e f8a3 bdbe 92e0 363c a2a5 083d
000000a0: 758a cebd 7981 053e 11d9 87bd baad 11bc
000000b0: 307a c7be b176 8bbc d1f3 8dbe 1013 953b
000000c0: 49cd c3ba f09e 493e 6309 383d 2a54 73bd
000000d0: 6ee9 9b3e 5e40 62bd 3c0d f8bc dc6d 6e3d
000000e0: ad5c e53d cfa4 4dbe 4494 00be d953 983d
000000f0: 06a1 3d3e 8473 be3d c130 32bd ab09 193e
0.033294998 0.09558065 -0.27852753 -0.12361112 0.27735484 -0.013968936 0.030713754 0.0061335117
0.0030803059 0.41487086 -0.103174835 -0.0075323326 0.15062974 0.52604467 0.39895046 -0.040540695
-0.09905121 0.046553317 0.024301663 -0.20326461 -0.11440144 0.5294869 0.3786845 0.38850817
0.11232419 0.117497176 0.115405716 0.06418019 -0.033428412 -0.3608868 0.021528766 -0.31466722
0.0068521122 0.24260974 -0.057081256 -0.017009428 0.22292022 -0.3703916 0.01116194 0.033361085
-0.10085002 0.13037671 -0.06633199 -0.008891517 -0.3896041 -0.01702437 -0.2772508 0.0045493916
-0.0014938499 0.19689536 0.044930827 -0.059406437 0.3045153 -0.055237167 -0.030279748 0.05821024
0.11199317 -0.200824 -0.12556559 0.07437868 0.18518457 0.092993766 -0.043503527 0.14945094

fc4.bias f4 [2]
00000000: d7a3 b8be 73e9 46be
-0.360625 -0.19424991
