compare/action_file/ddqn_model.pth (torch, 46884 bytes, 8 tensors)

fc1.weight f4 [128, 3]
000000 9e 79 bf be e3 53 0d bf 21 41 18 bf 26 a7 fc bd
       -0.37397474 -0.55206126 -0.5947438 -0.123365685
000010 fc 73 41 be 58 42 c5 be 38 e8 36 be 21 48 af 3d
       -0.18891901 -0.3852718 -0.17862022 0.08558679
000020 a0 2b bb 3f 57 37 65 bf 6f a6 a2 3e 3c 08 2a bf
       1.4622688 -0.89537567 0.31767604 -0.66418815
000030 c8 0d cf 3d 95 7b 3d be f7 01 02 c0 9e cc 97 be
       0.101100504 -0.18504174 -2.03137 -0.29648298
000040 cc da ad be 40 e3 d1 bc aa 3a 17 bb b6 e1 9a bf
       -0.3395599 -0.025621057 -0.0023075738 -1.2100132
000050 55 af 2c 3f 29 a2 28 3d 99 c7 73 3c 00 6d 55 40
       0.67455035 0.041170273 0.014879131 3.3347778
000060 66 8f f1 ba 83 d5 9b be e4 2f ef 3d b0 0c 50 bd
       -0.0018429577 -0.30436334 0.11679056 -0.05079335
000070 b1 ff 86 be 66 09 12 bf 8e 3c 7c 3d 30 f7 00 3e
       -0.26366952 -0.5704559 0.061581187 0.12594295
000080 42 98 09 c0 0c ec f4 bd 87 eb ee 3d 86 12 47 bf
       -2.149918 -0.11959085 0.11666017 -0.7776264
000090 76 58 a8 be 72 ce d6 be 68 e0 a7 3d 6d d9 ea bd
       -0.3287999 -0.4195438 0.08197099 -0.11467252
0000a0 0b d0 28 be f2 c7 20 40 71 76 8d be 7a f5 ef bd
       -0.16485612 2.5122037 -0.27629426 -0.11716743
0000b0 70 83 48 40 b0 d0 4b 3c 33 cc ac bd eb 52 b5 bf
       3.1330223 0.012439892 -0.084373854 -1.416593
0000c0 cc 72 45 be 60 21 e9 3d 52 f4 5a be 49 5a 98 3d
       -0.19282073 0.11383319 -0.21382263 0.074390955
0000d0 76 ad 6a be 64 f3 a0 bf 4c cb ba bd 99 6e d8 3d
       -0.22917733 -1.2574277 -0.09120807 0.1056797
0000e0 10 5c a3 bf 99 b8 f4 ba a7 6a ce be 6a 33 ad bf
       -1.276247 -0.0018670737 -0.40315744 -1.3531315
0000f0 cc c2 23 bd a4 67 8c be e6 71 2c 40 d1 f8 0e 3c
       -0.039980695 -0.27422822 2.6944518 0.008726315
000100 66 db a7 3d 20 74 01 c0 26 19 af be 38 64 bf be
       0.08196144 -2.0227127 -0.34198874 -0.37381148
000110 64 74 bb 3e 61 aa 55 3d f8 a7 67 bd 4f 37 7e 3f
       0.36612236 0.05216444 -0.05655667 0.99303144
000120 a4 8f 10 bf 4f 51 12 bf 8a ce 10 3f db 4d 8a bd
       -0.5646918 -0.5715532 0.56565154 -0.06753131
000130 30 b9 90 3d 9c 40 24 bf 44 0c d5 bd a8 c6 f3 be
       0.07066572 -0.64161086 -0.1040273 -0.476125
000140 99 00 00 bf 73 3b e3 be fc 9e 74 be d8 85 40 3e
       -0.5000091 -0.44381294 -0.23888773 0.18801057
000150 86 73 82 3d dc fc 02 bc ed fa 59 bf 8f 7a 20 bd
       0.063696906 -0.007994857 -0.8514851 -0.03917938
000160 15 ad 33 3e 73 fe 19 bf fd 95 72 be 81 f0 ca 3b
       0.17546494 -0.60153884 -0.23690028 0.006193221
000170 71 72 d5 3f 80 bc 2d 3e a4 97 11 bd ee 1b 33 be
       1.667555 0.16966438 -0.035545006 -0.17491123
000180 9b 96 c2 3d 8f ec cb bd 91 a1 d1 be 64 8c 20 3d
       0.09501382 -0.09957229 -0.40943578 0.039196387
000190 48 e4 0a be e6 ab db 3e 72 fb e3 bb 06 f3 10 be
       -0.13563645 0.42904586 -0.006957465 -0.14155206
0001a0 1a a0 46 bf 8f 4e 39 bb d3 25 62 bf 63 d6 89 3f
       -0.77588046 -0.0028275584 -0.88338965 1.0768551
0001b0 c0 8a 37 bc 6c 58 c7 bd 00 39 af 3c dc 89 b4 bd
       -0.011202514 -0.09733662 0.021389484 -0.08815357
0001c0 54 e9 ed be dc 7f 78 be ea 9f 89 be 5e 59 d9 be
       -0.46467078 -0.24267524 -0.26879817 -0.42450994
0001d0 0e 41 c3 3e bc b9 df 3a b7 f1 8d c0 33 6d 21 bf
       0.3813557 0.0017068903 -4.435756 -0.6305725
0001e0 26 72 e9 be 04 80 0c be ba 6a df be fa f5 ac be
       -0.455949 -0.13720709 -0.43636113 -0.33781415
0001f0 b3 4b 81 be 38 e6 cf 3e 7f 65 87 bb df 9e 2c bf
       -0.25253066 0.4060533 -0.0041319723 -0.6742992
000200 d9 e5 03 3f 5d 02 e2 3d c0 f5 03 bd c8 76 bd 3e
       0.51522595 0.11035607 -0.032216787 0.37004685
000210 1e d6 0e bf 90 ee af be 50 83 64 3d be 94 68 bf
       -0.55795467 -0.34361696 0.05578929 -0.9085196
000220 f4 60 c5 3e 89 18 fd be 26 8d d8 be bd d0 9b be
       0.38550532 -0.4943278 -0.42295188 -0.30432692
000230 20 47 36 40 58 61 25 bf cb ac 3b 3e f8 68 f6 3f
       2.8480911 -0.6460166 0.18327634 1.9250784
000240 6b 5d ab be 0e 9b f8 3d b9 d2 38 3e f8 ad b5 bd
       -0.3346971 0.12138949 0.18049134 -0.088710725
000250 ae 8a b0 be 03 fa 4b 3e 7f 7e a9 3d 2f e3 8b 3c
       -0.34480804 0.1991959 0.0827608 0.017076103
000260 02 af c4 be 9c 87 13 3e cf 48 1f bd 07 18 03 c0
       -0.3841477 0.144072 -0.038887795 -2.0483415
000270 89 88 65 bf ac a2 d3 3e 48 75 6a bf 7b c0 d5 3c
       -0.8966146 0.41335046 -0.91585207 0.026092758
000280 c6 df f6 3c 59 0e 5d bc ad 5e 03 bf 13 c1 b7 be
       0.030136 -0.01349219 -0.5131634 -0.3588949
000290 89 24 89 be 34 dd 80 bd 51 1c 60 bf ca e2 4a 3f
       -0.26785687 -0.06292191 -0.8754321 0.792523
0002a0 fd 01 e6 3c ba 4a 28 be 48 d8 46 be ec 80 94 bc
       0.02807712 -0.16434756 -0.19418442 -0.018127881
0002b0 68 25 4a bf ad 25 d2 3f f0 d4 90 bd e0 ea b9 bc
       -0.7896333 1.6417748 -0.070718646 -0.022695005
0002c0 40 f0 e3 3c c1 93 53 bf 22 f1 88 3e 22 0d 95 be
       0.027824521 -0.8264733 0.2674647 -0.29111582
0002d0 d5 fc cc 3c 15 1a c7 bd 8d 1e 99 bf cf 5f a8 bc
       0.025022903 -0.09721772 -1.1962448 -0.020553498
0002e0 92 06 46 bf 40 6a b0 3f 02 9b d7 be 32 c6 38 be
       -0.77353776 1.3782425 -0.4211045 -0.18044356
0002f0 34 e7 8c be 1d 50 00 39 91 d3 9e be 3c 6d 5b 3e
       -0.27520144 0.00012236876 -0.31020787 0.21428388
000300 cd e5 f2 be 84 ee 15 3e 44 22 05 be 5f 01 da 3d
       -0.4744095 0.14641768 -0.13001353 0.10644793
000310 b0 dc b7 bd 75 23 94 be 60 3d 7a bf e9 34 ea 3f
       -0.0897764 -0.28933302 -0.977499 1.8297397
000320 01 11 98 bd 2a 4f 62 be 74 9e d7 be 62 63 09 bf
       -0.07425118 -0.22100511 -0.42113078 -0.5366727
000330 77 32 75 3e fa c4 3a bf 41 f5 f4 3e c6 6b 4a be
       0.23945032 -0.7295681 0.47843364 -0.19767675
000340 08 ea cd be 18 ac 18 3f bb 41 7d 3f ff 10 04 3d
       -0.40217614 0.59637594 0.9892842 0.03224277
000350 73 77 e9 bf 58 d5 3d 3c db 22 9e 3d c6 ce 5d 3b
       -1.8239578 0.01158651 0.07721492 0.003384517
000360 e8 b1 c7 b9 47 00 43 be 53 b2 ef bf 48 49 60 be
       -0.00038088788 -0.19043075 -1.8726295 -0.21902955
000370 50 d8 35 bd 42 21 09 bf 25 43 00 3c de c4 8a be
       -0.044395745 -0.5356637 0.0078285085 -0.27103323
000380 af 08 26 bf d4 8a 6d bd ed 34 83 3d 9d 44 67 3f
       -0.64857 -0.057993725 0.06406579 0.9033907
000390 8a 5f 3a be 26 bc 1b be 88 6c 66 3e a6 3c d7 be
       -0.18200508 -0.15208492 0.22502339 -0.4203846
0003a0 c0 91 73 bc e0 34 4d bd 9a 57 a3 bd 63 24 84 3b
       -0.0148662925 -0.050099254 -0.07975693 0.004032658
0003b0 a9 cb 92 3f 8f 7f b6 bd cf 7e 4c bf a5 7d 8b 3f
       1.1468402 -0.089110486 -0.79880995 1.0897719
0003c0 54 23 f7 3d 66 5f 00 bf dc 81 44 c0 ca 54 a7 3d
       0.12067285 -0.50145566 -3.070426 0.08170469
0003d0 14 58 85 be bd 28 ba bf 98 fb 92 be 54 d2 db bd
       -0.2604376 -1.4543682 -0.28707576 -0.10733476
0003e0 56 04 00 3f 38 ce bb be 8d d0 32 bf 00 b6 83 be
       0.50006616 -0.3668077 -0.69849473 -0.25724792
0003f0 35 e1 33 bf ac a6 93 3e a0 93 d1 bc 61 e3 e6 be
       -0.70265514 0.28838098 -0.025583088 -0.4509535

fc1.bias f4 [128]
000000 b4 94 e4 3f 3e 24 64 3d 8e d7 75 be bd 5a c3 3e
       1.785788 0.055698626 -0.24008009 0.38155165
000010 d2 d9 03 c0 2c ac 32 3e 08 27 41 3e 9f 4a 9d c0
       -2.0601697 0.17448491 0.18862545 -4.915359
000020 62 d8 ea be e0 1d 8f bc b0 7f 29 c0 74 1c 99 bf
       -0.45868212 -0.0174703 -2.6484184 -1.1961808
000030 34 df 54 be 91 e9 8a bf fe b7 64 be 4c 2d 38 be
       -0.2078827 -1.0852529 -0.22335812 -0.1798603
000040 80 6e e7 be c4 eb b1 bf f6 5f 60 bf bf 04 fb bc
       -0.45201492 -1.3900075 -0.87646425 -0.030641912
000050 27 a6 ff bf b9 29 99 bf 48 db 82 3e 0d 34 07 c0
       -1.9972581 -1.1965858 0.25557923 -2.112552
000060 76 a4 20 be 4b 67 ef be 98 fa 88 3e 80 bb f4 bc
       -0.15687737 -0.46758494 0.26753688 -0.029874563
000070 b5 99 eb bf f8 9e d9 bf ea d1 55 3f 3d 3a 65 c0
       -1.8406283 -1.7001638 0.8352343 -3.5816796
000080 2e 48 fe bf 1f 73 ab bf 8f c5 0d 3e a6 b7 a0 be
       -1.9865777 -1.3394507 0.13844894 -0.31390113
000090 7c db 65 be c0 d3 f5 3d 20 eb f4 3e fb c2 f0 40
       -0.22447008 0.12003279 0.47835636 7.5238013
0000a0 3e 1a b6 3e 60 c3 b5 be e8 f2 8c 3d cd 43 2d c0
       0.35566896 -0.35500622 0.06882268 -2.7072632
0000b0 78 a2 2b 3e 4f ab 73 be 20 37 46 3f 44 6d 2b 3f
       0.16761196 -0.23795818 0.77427864 0.669636
0000c0 20 91 0b 3d 55 02 db 3e 58 57 0f c0 10 8d 5d c0
       0.03407395 0.42775217 -2.239706 -3.4617348
0000d0 6f 10 0f bf 57 e9 bf bf cc ed bf be 0d eb 55 3f
       -0.5588445 -1.4993085 -0.37486112 0.83561784
0000e0 50 8c 03 bf b4 a0 ab bf 16 4a 02 bf 87 ec 1e 3f
       -0.51385975 -1.3408418 -0.50894296 0.6207966
0000f0 b0 40 0a bf ef 1a 1f bf d6 3f e7 be 85 06 da bd
       -0.54004955 -0.6215047 -0.4516589 -0.10645775
000100 8e 9e 89 3e eb 81 1a c0 fa 88 67 40 ca 7b b6 be
       0.2687878 -2.4141796 3.6177354 -0.3564132
000110 a3 eb a1 c0 90 b7 f8 3e 10 b7 ff c0 ef c2 86 bf
       -5.0600142 0.48577547 -7.9910965 -1.0528239
000120 21 54 f4 3d b2 51 7a be 2f 1b 07 bf 94 61 6d bf
       0.11930109 -0.24445227 -0.52775854 -0.9272702
000130 a0 3c 8e bd e8 7c 8d bd 53 b1 ee be 3c 26 27 3f
       -0.06945157 -0.069085896 -0.46619663 0.65292716
000140 da c8 21 c0 77 71 cf bf b0 cd 90 3d 56 16 0a 40
       -2.527884 -1.6206502 0.07070482 2.1576133
000150 db 38 0a be 54 6b 3b 3e 8c d5 17 3e 07 e9 0a bf
       -0.13498251 0.18302661 0.14827555 -0.5426182
000160 c4 82 07 bf 89 92 ed 3e cc 77 ec 3e d2 af bf 3e
       -0.5293391 0.4640086 0.46185148 0.37438828
000170 08 0f 20 bf f5 ff 08 bf 08 4b ad 3f 5e 14 3b bf
       -0.62522936 -0.5351556 1.3538523 -0.7307795
000180 44 54 f8 3e 54 82 14 c1 e5 58 55 bf ab a4 6e be
       0.4850179 -9.281818 -0.8333877 -0.23305003
000190 34 e7 44 c0 aa b5 75 3f bc 2a fb bf 70 b7 af 3d
       -3.0766115 0.9598032 -1.9622416 0.0857991
0001a0 02 8c fb be 79 43 cc be 95 c0 d1 3d a7 c5 b0 be
       -0.49130255 -0.39895228 0.1024181 -0.34525797
0001b0 00 e9 fa 3b 52 35 52 bf 89 a5 09 bf 93 c4 2d 40
       0.0076571703 -0.8211261 -0.5376821 2.715123
0001c0 c6 44 09 3f d0 0d 7b 3d 24 f7 bf be 23 d5 25 bd
       0.53620565 0.06129247 -0.3749324 -0.040486466
0001d0 0b 38 03 c0 82 d1 f6 be 29 da 7d bf 66 8c d6 3e
       -2.0502956 -0.48206717 -0.9916101 0.4190399
0001e0 eb bd fa be 1b 57 52 be e0 b3 bd 3e 13 e4 83 be
       -0.4897302 -0.2054104 0.37051296 -0.25759944
0001f0 66 eb 9d 3f 9c 0b 72 3e 03 44 06 c0 61 66 64 bf
       1.2337463 0.23637241 -2.097901 -0.8921872

fc2.weight f4 [64, 128]
000000 af 6d 2f be d0 17 38 3c 99 2c 05 bd b3 cc 83 3d
       -0.17131685 0.011236146 -0.032513235 0.06435528
000010 bc ec 16 3d ea 04 ff bc d4 36 69 bd 45 53 7c be
       0.03684686 -0.031130273 -0.056937054 -0.2464114
000020 45 c0 b4 bc 10 b3 c9 3b 96 88 b9 bd 9b 17 ad 3c
       -0.022064338 0.006155379 -0.09059255 0.02112942
000030 00 ac 12 ba d0 e3 97 bc b6 e5 96 bd 13 81 f5 bc
       -0.0005595088 -0.018541247 -0.07368033 -0.029968774
000040 d7 73 8f bd 7f f4 de bd 1f 46 9c bc 34 d4 d1 bd
       -0.070045166 -0.10886478 -0.019076405 -0.10245553
000050 b5 6e 88 3b ac 59 8d bb 62 e1 2f 3d d6 d1 29 bc
       0.004163588 -0.0043136682 0.04293955 -0.01036497
000060 dd eb a2 bd c5 8c 36 3d ac 35 bd 3c be 83 fd bc
       -0.079551436 0.044567842 0.023096882 -0.030946609
000070 60 6d 1e bd 2b 48 c9 bd e8 14 7a 3c d9 e2 bf 3c
       -0.038678527 -0.09828218 0.0152637735 0.0234236
000080 2c 67 23 bc 58 0f ec 3c b3 a6 fe 3c 8c 76 48 3d
       -0.009973329 0.02881591 0.031085348 0.04894118
000090 f9 30 38 bd 8e 0d 9e bd 38 53 86 bc d2 15 d9 be
       -0.04496858 -0.07717429 -0.016397104 -0.4239946
0000a0 1f 76 b0 3d c0 b6 ed ba 51 ff da bd ee 51 c7 bc
       0.0861628 -0.0018136129 -0.10693229 -0.02433106
0000b0 ad 9f 65 bd 6e f5 d2 3b 84 01 86 bd 06 72 6d 3d
       -0.05606048 0.006437949 -0.06543258 0.05797007
0000c0 4b 5a a6 3d f2 a1 90 bc 5e b8 a6 bb 52 40 33 3d
       0.08122691 -0.017655347 -0.0050878963 0.043762513
0000d0 73 b9 83 bd 4e 22 af bd 4e 8a 4b 3d d7 16 5e 3d
       -0.06431856 -0.08551465 0.049692445 0.054221
0000e0 69 b3 90 bc 38 c7 c6 3c a9 22 8c 3d 9e dd 6e 3d
       -0.017663674 0.024264917 0.068425484 0.05831682
0000f0 24 3d e7 bc 5e 10 25 3d f0 9e ef bb 7f bf fb 3c
       -0.028227396 0.040298812 -0.007312648 0.03073096
000100 51 3c 43 bd 2f 04 75 3d 29 23 04 bf a0 ec d0 3c
       -0.047664944 0.059818443 -0.5161615 0.025503457
000110 48 87 b7 be 76 12 14 3d 11 bf be bd 7f cc 47 3d
       -0.358454 0.03615042 -0.09313787 0.048779007
000120 e1 32 44 bc 60 6d 6e bc 65 aa 0b 3e 30 3a 74 bc
       -0.011975021 -0.014552444 0.13639219 -0.014906451
000130 a7 f9 a4 bd 60 ee c5 bb 51 d5 b4 bc 29 8c 44 3c
       -0.0805543 -0.0060403794 -0.022074373 0.011996307
000140 ce e5 dc bc cb 75 d5 3c cc e8 85 3c e4 44 48 be
       -0.026965048 0.026057145 0.016346358 -0.1955753
000150 c4 09 ec 3d e0 7e 12 3c a0 ba 9e bd 94 8b f3 bc
       0.115253 0.008941382 -0.0775044 -0.029729642
000160 40 71 ae 3b da 8d dc 3c 30 8b 84 3c 78 e7 81 3d
       0.005323559 0.026923109 0.016179651 0.06342977
000170 a5 bf 91 bc 8c 17 81 3c bf 68 ae bd 73 70 42 bc
       -0.017791579 0.015758298 -0.085160725 -0.01186763
000180 65 94 58 bd 3d b3 c2 3c a8 5b 2e bd 0a 2a 57 bc
       -0.052875895 0.023767108 -0.04256788 -0.0131325815
000190 b8 3a 3c 3d d0 92 7f 3c 8f 2f 4d bc c4 c7 e9 3c
       0.045954436 0.015598968 -0.012523546 0.028537638
0001a0 18 0e dc bc 46 bf 86 bd a1 0f 9c 3d a8 c6 bd 3c
       -0.02686219 -0.06579451 0.076201685 0.023166016
0001b0 a9 9e a4 3d b2 00 20 bd b8 3f 4c 3c de 60 b8 bd
       0.080380745 -0.039063163 0.012466364 -0.09002851
0001c0 c8 b7 3d bd ac 5e 59 bd f8 aa d9 3c 61 97 25 bd
       -0.046317846 -0.0530688 0.026570782 -0.04042757
0001d0 30 04 0e bd 04 1c e3 3c 76 5e 85 bd 71 f5 28 bc
       -0.034671962 0.02772332 -0.065121576 -0.010312424
0001e0 d4 83 ad 3c 6e 6d 02 bc 20 f7 a8 3b 10 be c5 bb
       0.021181025 -0.00796066 0.0051564127 -0.00603462
0001f0 cc 5a d4 bd 38 d2 d9 3c 45 f7 af bd 9c cd 71 3d
       -0.10368881 0.026589498 -0.08592085 0.059033975
000200 83 ce 13 be 80 99 b6 3c 9d dd e8 bc 86 79 0b 3c
       -0.14434247 0.022289991 -0.028425986 0.00851286
000210 db 36 f0 bd c8 14 33 3c 0e 5f 2b 3d 33 43 c8 be
       -0.11729213 0.010930248 0.041838698 -0.3911377
000220 70 61 10 3c 5d 04 9c bd e0 98 fd bc 25 37 05 be
       0.008812293 -0.0761802 -0.030956686 -0.13009317
000230 d6 2f 14 bd e2 90 82 bd 3f 04 1a 3c e9 fe a4 bd
       -0.036178432 -0.063752905 0.009400426 -0.08056433
000240 55 58 94 3d 00 71 0a ba 2e 92 0e be 0a 61 fb ba
       0.072434105 -0.00052811205 -0.1392295 -0.00191787
000250 54 46 b8 bd 95 ae 8b 3c 90 96 c0 3b fb 8e 98 3b
       -0.08997789 0.01705102 0.0058773234 0.0046557165
000260 5e e7 4e 3d c1 5d dd bd 8a 5d 55 3d 8e 35 02 3d
       0.050513618 -0.10808898 0.05209116 0.031789355
000270 e8 cf aa bc 78 76 0a be 50 f4 9f 3c c2 b0 29 bd
       -0.02085109 -0.13521755 0.019525677 -0.041428335
000280 13 ef 6f bc 08 af 6d bd b7 8e 62 bd 36 c6 cb bd
       -0.014644402 -0.05802825 -0.055311885 -0.09949915
000290 76 c7 46 3d 26 20 23 3d 4d 05 a2 3d 39 d5 1e bd
       0.048530065 0.03982558 0.07911167 -0.038777564
0002a0 68 7d 1d bd eb b0 6c bd 4d 21 ab 3d a6 77 4d bd
       -0.038449675 -0.05778591 0.08355961 -0.050162934
0002b0 66 81 42 3d dd 88 df bd 8c 9a f9 3b 13 1e f3 3b
       0.047486685 -0.109147765 0.0076173004 0.0074193566
0002c0 77 fd e9 bd 88 0d 96 3c 6e ea 22 bd 84 44 c4 bd
       -0.11425298 0.018317 -0.03977435 -0.09583381
0002d0 f1 24 e3 bd 53 40 0c be e8 a5 9a 3c 20 49 ea bc
       -0.110910304 -0.13696413 0.018877938 -0.028599322
0002e0 f9 35 69 bd 55 ee f7 bd c9 06 a8 bd 2d d9 84 3c
       -0.056936238 -0.12106005 -0.08204419 0.016216839
0002f0 53 26 05 be db 5a 52 bd 51 cd a1 3d 2a 9c 7c 3d
       -0.13002901 -0.051356178 0.07900489 0.061672367
000300 be 94 60 bd 99 ee 3e 3b 1f e3 5d bd 00 b0 98 bc
       -0.05482935 0.0029133915 -0.054171678 -0.01863861
000310 d5 b1 9c bc 37 cd ef bd 5f 3e 01 bd fd fb 02 be
       -0.019127766 -0.117090635 -0.031553622 -0.12791438
000320 f1 c2 82 bc 98 ee a4 bd 2a bc 2f bd b3 3b b9 3b
       -0.015962096 -0.08053321 -0.042904057 0.0056528687
000330 70 e0 0b 3d fd b6 9d bd a0 f9 c1 bd af c5 d0 bd
       0.034149587 -0.07700918 -0.0947144 -0.10193955
000340 41 d6 90 3d b1 9c b1 3b f6 54 5b bd 34 00 90 be
       0.07072116 0.0054202904 -0.053547822 -0.28125155
000350 a7 80 a8 3c 3c a3 a2 bd 45 66 a1 3d 1f 1a c9 bd
       0.020569159 -0.07941291 0.078808345 -0.09819435
000360 d0 fd f7 bc be 91 60 3b 22 dd 23 3d 07 f0 34 bc
       -0.030272394 0.0034266557 0.04000581 -0.011043555
000370 80 e5 66 bd f9 13 9c 3d ce 7f 67 bd 9b c1 f6 bd
       -0.056371212 0.07620997 -0.05651837 -0.12048646
000380 f0 fb 17 3c 32 14 a5 bd 70 36 fe bd b9 2e e3 bd
       0.009276375 -0.080604926 -0.12412727 -0.11092896
000390 64 a4 a2 bd ca 19 ee 3b 99 44 73 bd 38 b0 aa bc
       -0.07941511 0.007266258 -0.05939159 -0.02083598
0003a0 c7 db 74 bd 2b b5 cd bc 9a 7f ae bd 81 c2 91 bd
       -0.05977991 -0.025110802 -0.08520432 -0.07117177
0003b0 7b 47 a7 3d 12 c4 d1 bd 00 38 97 ba fa a3 5c bd
       0.08167931 -0.102424756 -0.0011537075 -0.053867318
0003c0 fe e9 74 bd 30 3d 93 bc fc 1e 9c bc 48 75 48 bd
       -0.059793465 -0.017973512 -0.019057743 -0.048939973
0003d0 aa 62 04 be 94 28 f6 3c 92 3d b5 bd 28 0a 0f be
       -0.12928262 0.030048646 -0.08849634 -0.13968718
0003e0 c0 cc f4 bb fe e5 88 bd c8 30 02 bd fa 41 01 bd
       -0.007470697 -0.066844925 -0.031784803 -0.03155706
0003f0 5a 0d 39 3d 4c 91 e3 3c 4f 98 d6 bd 25 97 27 bc
       0.04517875 0.027779244 -0.10478269 -0.010228907

fc2.bias f4 [64]
000000 91 10 d6 bd 4e 9e b8 be c7 e1 eb bd f8 a3 da be
       -0.104523785 -0.36058277 -0.11517673 -0.42703223
000010 27 14 c0 bd 46 cf 0a c0 00 09 d8 bf 92 da 8e bd
       -0.09378844 -2.168901 -1.6877747 -0.06975283
000020 60 d0 9b be e8 4c 3f be fb ed b0 be 35 46 44 be
       -0.30432415 -0.18681681 -0.34556565 -0.19167407
000030 12 ed 9b be 41 ce 80 bd 37 e3 01 bf a3 7c ca bd
       -0.30454308 -0.0628934 -0.5073733 -0.09887054
000040 a9 3f 67 be 53 78 9d be d3 65 14 ba 20 9b c3 be
       -0.22582878 -0.30755863 -0.0005660925 -0.38204288
000050 be 68 8e be 66 82 a1 be 83 52 8f c0 8b e0 c1 be
       -0.27814287 -0.315448 -4.478822 -0.37866625
000060 0f 36 1a be fc fe 42 be d9 c2 8a c0 f2 72 1b be
       -0.15059684 -0.19042581 -4.336285 -0.15180567
000070 bf 59 14 bd 5c 06 99 bd 3e 8d 3c bd c9 1e a2 be
       -0.0362184 -0.07471916 -0.046033137 -0.31664112
000080 1e aa 76 c0 f9 b9 da be d8 b0 9b bf f3 14 c7 be
       -3.8541331 -0.4272001 -1.2163343 -0.3888317
000090 45 f4 10 40 bb 64 a1 bf ca c2 6c 3f 56 82 1f be
       2.264909 -1.2608865 0.92484725 -0.15577063
0000a0 d1 e2 58 be 6d 17 ad be 3a 92 4b be 9d 08 18 be
       -0.21180274 -0.33806935 -0.1988 -0.14847036
0000b0 f4 95 ed bd bd d2 87 3e b4 ee b5 be 6f cc e9 be
       -0.11600867 0.26527968 -0.3553368 -0.45663783
0000c0 e6 da d4 bd f5 46 f8 be 4e d4 ba bd 45 b9 ba be
       -0.10393314 -0.48491636 -0.09122525 -0.36469474
0000d0 c7 ec a8 bd 39 9a 67 be 18 bf 55 c0 29 67 34 be
       -0.08248287 -0.22617425 -3.3397884 -0.17617477
0000e0 1b 2c a5 be b4 e0 1f bf 02 00 01 bf 81 d3 da bd
       -0.32260212 -0.62452245 -0.50390637 -0.106848724
0000f0 28 04 38 be 17 55 f9 bd 0b 66 f7 bd 97 0a f3 be
       -0.17970335 -0.12174433 -0.1208001 -0.47469017

fc3.weight f4 [32, 64]
000000 4d 69 52 be 14 90 63 3d dc d7 a0 bd 1e 7d 88 3d
       -0.20547982 0.055557325 -0.07853672 0.06664489
000010 f1 ef 50 3c 08 5d 24 be f1 0a 1f bd f8 73 df 3d
       0.012752519 -0.16051114 -0.038828794 0.10910791
000020 67 b7 4b bd 40 cf de bd 00 66 fb 39 b4 79 78 bd
       -0.049735453 -0.108793736 0.00047950447 -0.06066294
000030 ee 4c a0 3d 5a 6e 48 bd 48 47 9f 3d 44 a8 b7 bd
       0.07827173 -0.048933364 0.07777268 -0.08967641
000040 48 0d d9 3d fc a3 11 be a8 57 93 3d b0 e6 a7 3d
       0.10598236 -0.14222711 0.071944535 0.08198297
000050 e7 74 56 3c 68 5c 71 be cf 4a a9 be 82 61 f0 bd
       0.013089395 -0.23570406 -0.33064887 -0.11737348
000060 94 8f 68 3e 00 9f 31 3e 6c 9f 29 be 63 98 04 3e
       0.2271102 0.1734581 -0.16564721 0.12948756
000070 f2 22 8c 3d 06 fd 67 bd d0 19 5c 3c bf 13 39 3c
       0.06842603 -0.056637786 0.013433889 0.011296212
000080 55 09 ae be de 9c fe bd 87 f8 c7 bd 77 09 5a 3d
       -0.33991495 -0.12432264 -0.097642 0.053231683
000090 fa 7f 99 3c d3 6f 9f 3d 27 7f 0e 3d 4f ca 22 3d
       0.018737782 0.07785001 0.03478923 0.039743718
0000a0 18 2b d8 bc bc 37 d0 bd 60 95 a0 3d ac a3 8b be
       -0.026387736 -0.101668805 0.07840991 -0.2727331
0000b0 5c 20 99 3d 3d c5 d7 bd 3e b7 f4 bd 0c 7d 61 3d
       0.07476875 -0.10535667 -0.11949013 0.055050895
0000c0 97 65 92 3d c0 2f d2 3c 54 a9 45 3d c0 ea ce 3b
       0.07148283 0.025657535 0.048257187 0.0063146055
0000d0 70 80 b3 3c 64 0d 60 bd 5e d5 e7 bd 24 84 07 3d
       0.02191183 -0.05470027 -0.113199934 0.033085003
0000e0 b5 cf e5 3c ae 3f 93 bd 94 4a 31 3d 78 b8 3e bd
       0.028053144 -0.0718988 0.043284014 -0.04656264
0000f0 e8 6f 95 3c 51 58 8f bd b0 e6 e5 3d 5b c0 ae be
       0.018241838 -0.06999267 0.11225641 -0.3413113
000100 85 e2 45 3e 4f 33 92 bd 85 96 32 3e b7 57 a6 bd
       0.19324692 -0.071386926 0.17440231 -0.08122199
000110 94 ab 80 3d 46 05 55 be bd 4e 06 3d 4e 5b d1 3c
       0.06282726 -0.20802793 0.032789934 0.025556233
000120 aa 56 cb 3e cc d8 64 bd 78 65 bd 3d e4 a2 11 3d
       0.39714557 -0.055870816 0.09247869 0.035555735
000130 53 7b 33 3c 12 5c 17 be 7e f8 9e bd 50 c7 36 be
       0.010954696 -0.14781216 -0.0776224 -0.17849469
000140 40 82 de 3b 56 14 b6 bc 62 9d 19 3d e1 23 3e 3e
       0.0067904294 -0.022226494 0.037503608 0.18568374
000150 49 6a 2f bd 62 f6 09 be e9 eb 15 3f dd 48 c5 3d
       -0.04282597 -0.13472894 0.58563095 0.09633038
000160 83 de 96 3a 0a cd 68 3d c1 01 56 bd ff bd 54 3d
       0.0011510405 0.056836165 -0.052247766 0.051939007
000170 e0 cb a5 bd 28 b5 b1 3c b8 e3 60 bc 86 32 5f 3d
       -0.08095527 0.021692827 -0.013726167 0.054491542
000180 41 f3 70 3e 03 f0 88 be 2c 8a ac bd ea 7c f9 3b
       0.23530294 -0.26745614 -0.08424792 0.007613768
000190 98 86 c3 be 58 f1 03 be ee 0c b4 3e eb e8 68 3d
       -0.38188624 -0.12885034 0.35166115 0.056862753
0001a0 c8 d9 e4 bd d0 a7 26 3e 53 83 86 be d4 42 39 3e
       -0.11174351 0.16274953 -0.26272067 0.18091899
0001b0 27 66 9b 3d a0 a6 18 be 83 66 a5 bc 98 2d 71 3e
       0.075878434 -0.14907312 -0.020190483 0.23552549
0001c0 f8 ce fd 3d 2a c3 cf bd 66 42 df bd dd 90 dc 3d
       0.12392992 -0.101446465 -0.10901336 0.10769818
0001d0 d6 8f 81 bd 2c 2d 97 bd e8 d2 c1 3c f8 77 b7 bd
       -0.06326263 -0.07381663 0.023660138 -0.08958429
0001e0 c5 6a df 3d 8a 59 9a 3d 2c 5d 38 3d 10 c2 e3 bc
       0.109090365 0.075366095 0.04501073 -0.027802497
0001f0 c1 76 a8 3d 24 8e 90 bd 38 b1 02 3d 66 3d 0c be
       0.082257755 -0.07058361 0.03190729 -0.13695297
000200 e3 31 6e bd 20 fb d3 3d f0 cf ae bc d0 27 1e 3d
       -0.058153044 0.10350633 -0.021339387 0.038612187
000210 e4 20 ce bd ad f3 97 3b 52 5e d6 bd 1a 60 1a be
       -0.10064867 0.0046372027 -0.10467209 -0.15075722
000220 c9 b8 25 be 76 ff 3a bd 75 22 02 be e4 e4 49 bd
       -0.16183771 -0.045653783 -0.12708457 -0.049290553
000230 20 e1 71 3d 96 87 e8 bd e4 3e 91 3d 2c e6 bd be
       0.059052587 -0.11353986 0.070920736 -0.3708967
000240 c4 f0 b8 3d 64 50 32 bd 54 4f 47 bd c7 75 0f be
       0.090302974 -0.043533698 -0.048659638 -0.14009772
000250 be 2b e4 3e 50 96 39 be 24 a0 9c be 4a ff d7 bd
       0.44564623 -0.18123746 -0.30590928 -0.105467394
000260 08 72 89 bd 0c fd be 3d 93 37 d8 be 48 70 9b bd
       -0.06711203 0.093256086 -0.422299 -0.07589775
000270 2c 96 9c bd 44 66 38 3d b8 06 c7 bc 4e a6 f5 3d
       -0.076458305 0.045019403 -0.024295196 0.11994611
000280 ad 4d 50 bf 52 84 82 3d 04 a3 88 bd 30 e1 41 bc
       -0.81368524 0.06372894 -0.06671718 -0.011833474
000290 23 98 b9 bc c4 27 e2 bd 00 26 00 bf f4 87 cb bd
       -0.022655552 -0.11042741 -0.50057983 -0.099380404
0002a0 cb 2b 14 be c0 69 d3 bb cc 68 f7 bd 56 c0 83 be
       -0.1446983 -0.0064518154 -0.12080535 -0.25732678
0002b0 e0 6c 1a bd 10 da 26 be 46 74 8c 3d e8 69 f4 3c
       -0.037701488 -0.16294122 0.06858115 0.029835656
0002c0 d5 cd b1 be 40 f3 fd 3c 40 1d ea bb b5 95 b6 bc
       -0.3472735 0.03099978 -0.0071446 -0.022288183
0002d0 c4 13 53 bd 54 5f 0b bd 37 91 58 bf 9b f7 52 bc
       -0.05153252 -0.03402646 -0.8459658 -0.012876417
0002e0 9f 09 7f 3c c0 4d 9d be 80 0d be 3b a6 51 ee bd
       0.015566259 -0.3072338 0.005799949 -0.11636667
0002f0 20 ca 13 be d2 d2 8d 3d 00 14 4f bc 12 98 12 be
       -0.14432573 0.069249764 -0.012639046 -0.14315823
000300 68 ea 08 bd 90 d6 4d bd 5e 66 88 bd 36 17 d6 3d
       -0.033426672 -0.05025345 -0.0666015 0.10453646
000310 a2 8d 6b bd 7c 03 e1 3d be 59 56 be f4 35 7c bd
       -0.05750812 0.10986993 -0.20932671 -0.06157489
000320 95 46 87 3c 84 c4 ef 3d c2 c6 88 3c a2 32 68 3c
       0.016513148 0.11707404 0.016696338 0.014172228
000330 de bc 16 3d 69 6c 9e 3d b4 79 a9 bd 92 aa ab bd
       0.03680121 0.07735521 -0.08275166 -0.08382143
000340 30 59 ca 3d b8 34 68 bd d8 0c 15 bd bc b9 98 3e
       0.098802924 -0.0566909 -0.036389202 0.29829204
000350 ad db 31 be 18 44 4b be e1 fb 5e be 48 60 49 3e
       -0.17368956 -0.19850194 -0.21775772 0.19665635
000360 29 f6 ca 3b d5 33 1a 3e ee cc c3 bd 2e 31 08 3d
       0.0061938954 0.15058835 -0.095605716 0.033250026
000370 4a 25 fa bd 43 3d ab 3d 58 14 91 bd 54 4d 79 bc
       -0.122141436 0.08361294 -0.070839584 -0.01521619
000380 3e 23 ab be 26 d5 d8 3d 92 95 0d bd fd 08 8d 3d
       -0.33425325 0.1058753 -0.03456647 0.0688648
000390 5e 1b a8 3a a6 5a 00 3d b8 7c 83 bd b8 5d 06 be
       0.0012825539 0.03133645 -0.064202726 -0.13121688
0003a0 80 26 7c 3c 40 be 74 3d 88 a7 5a be 3c 94 16 3e
       0.0153900385 0.05975175 -0.2135297 0.14704984
0003b0 d8 14 ee bd 9a c4 96 bd ec d4 ea 3d f2 60 30 be
       -0.116250694 -0.073617175 0.11466393 -0.17224482
0003c0 f1 5d bc 3d 20 f8 89 bd ac 96 67 bd 0d c1 1c 3d
       0.091976054 -0.06736779 -0.056540176 0.038270045
0003d0 1c 27 7a 3d b4 c0 13 3d 38 c4 48 3c 40 bc 10 bb
       0.061072454 0.036072448 0.012253813 -0.0022084862
0003e0 e8 9f 11 3d c8 b2 a8 bd f6 ce 9b 3d ec 99 15 3d
       0.03555289 -0.08237225 0.07607834 0.036523744
0003f0 8d 28 62 bd 99 36 38 be 0c 68 a5 3d 06 c8 3f be
       -0.055214453 -0.17989577 0.08076486 -0.18728647

fc3.bias f4 [32]
000000 d7 96 0c bf c3 cf 6b c0 d2 34 1a bf 5d 4e 95 bf
       -0.54917663 -3.6845558 -0.6023685 -1.166454
000010 7e bb cf bb 34 9a 14 bc bb 59 97 be 64 44 37 bf
       -0.0063394895 -0.009069968 -0.29560646 -0.7158873
000020 d1 e7 9b bf 36 81 0b bf 30 0d 23 be 72 d6 63 be
       -1.218012 -0.54494035 -0.15923 -0.22249773
000030 e1 56 ec bf 05 cf 45 bf 74 02 c4 be b1 64 e7 be
       -1.8464013 -0.7726901 -0.38283122 -0.4519401
000040 cd 3d 17 c0 40 4b a9 be fc 70 d1 3e 13 90 06 be
       -2.363147 -0.33065224 0.40906513 -0.13140897
000050 01 59 33 bf 61 73 f2 be b7 1c 93 be 7f b9 05 c0
       -0.70057684 -0.47353652 -0.28732845 -2.0894468
000060 6f 9b bd bf b1 4e cf be a2 f9 d0 bd ca f4 d4 3f
       -1.481306 -0.40489724 -0.10203864 1.6637204
000070 b5 06 84 be e2 1a ab be 27 65 18 bf a2 bb 10 bf
       -0.25786367 -0.33418947 -0.59529346 -0.56536305

fc4.weight f4 [2, 32]
000000 24 34 a6 3e 58 b2 87 3e 23 e7 d9 3c ee 71 28 3d
       0.32461655 0.26503253 0.026599472 0.041124277
000010 c1 07 21 3e 80 c8 c0 be e2 e4 30 bd da 68 17 3e
       0.15725614 -0.3765297 -0.04318703 0.14786091
000020 23 eb 9d be ed 18 7d bd 79 7e 9e be 6f a9 34 bf
       -0.30843458 -0.06179135 -0.30955866 -0.70571035
000030 64 da 8e be a7 cf 78 be e1 cd a5 3b 4d b0 84 3e
       -0.27900994 -0.24297963 0.005059943 0.25915757
000040 63 80 8b 3e 23 36 b7 bd db 62 15 bf cf c1 cc 3d
       0.2724639 -0.08945873 -0.58353966 0.099979036
000050 08 e8 70 bd 39 53 a0 3d 6e c3 03 3e d2 b4 31 3d
       -0.058815032 0.078283735 0.1286752 0.043385334
000060 c2 42 70 3d ed 3e 62 bc 09 b4 5a be db 68 11 be
       0.058657415 -0.013808948 -0.2135774 -0.14200155
000070 44 7f 0f 3b 59 ba 31 3e eb d1 8d 3d f1 5d 85 bd
       0.0021895925 0.17356242 0.06924804 -0.065120585
000080 30 f4 0f bc 9d 1f 93 bd ad 2b d0 3d f0 37 4d bd
       -0.008786246 -0.07183764 0.101645805 -0.050102174
000090 c4 9b c1 bd 4b bf a8 bc 02 56 ac 3d f4 fd a4 3d
       -0.09453538 -0.020599028 0.08414842 0.0805625
0000a0 4a e3 3f 3e ff 4b 48 be 02 89 b0 bd 05 e5 df bd
       0.18739048 -0.1956024 -0.08619882 -0.10932354
0000b0 84 8d c0 3d 50 52 3e be f1 fb 8f bb ba 02 99 be
       0.09401992 -0.18586087 -0.0043940474 -0.29884893
0000c0 24 dc 9b be 89 6d 57 be 61 40 c5 3e 2a f6 cb 3b
       -0.3044139 -0.21037878 0.3852568 0.0062244134
0000d0 cf 45 44 3e c7 7b 54 3d 7e f2 47 3e ee 7a cc be
       0.19167255 0.051875856 0.19526097 -0.39937538
0000e0 45 dc ed bd 69 fc 21 3c 63 79 85 be 62 20 71 3e
       -0.11614279 0.009886839 -0.26069173 0.2354751
0000f0 1b 96 36 3e b6 c8 a5 3d a0 8a 69 3e d9 ed 03 3e
       0.17830698 0.08094923 0.22806787 0.128837

fc4.bias f4 [2]
000000 81 d5 ae be 78 10 ba be
       -0.34147266 -0.3634069
