compare/action_file/dqn_model.pth (torch, 46872 bytes, 8 tensors)

fc1.weight f4 [128, 3]
00000000: bbb5 04bf b421 2fbe e099 123e 808f 8fbc
00000010: 0fd1 853e a3f5 013f aea7 2a3e c8ca 8cbe
00000020: d4c3 8f3e deb3 7bbd eec8 8a3e e8fa 01bf
00000030: d488 d9bd 7aa9 6abe 0054 b6ba 1488 d6bd
00000040: bbef 04bf 1440 1f3e b293 98be 51e4 a63e
00000050: 47dd 10bf 48db 29bd 92f4 183e 2478 a13d
00000060: a734 3a3a b369 933e b587 a93e ab35 9cbd
00000070: 7eec 943e 81d5 df3e 2cfe 113d bc7d 793e
00000080: b44b a6be e1ec b9bd 104c 733e 4c55 d43e
00000090: 1de3 d53d e479 43be 19c1 863e ba1b 09bf
000000a0: 1f4b e7be 432a 96be 9710 afbe 1831 833e
000000b0: b877 1d3e a096 ec3c e171 183e 0152 713d
000000c0: a998 77bd 6a90 653e ad7f d43e 881a 91bd
000000d0: c081 523c 7a80 4bbe 6bee b9be d3fd e13e
000000e0: 790b 9f3e 681e b6be da49 aa3e d8d9 b1bd
000000f0: a266 c9ba d36a 4b3d 9ce5 c43e 09d3 9cbe
00000100: f3a4 c8be 00be 993c 0882 1ebe e058 0dbd
00000110: c473 de3e 2305 143d 3f72 2c3e f2ce 04be
00000120: f3f2 b7bb 23bc 3e3e f27f 17bf 6f89 d93d
00000130: 595a f83d 0bce debc 1e23 bdbe 94b1 d5be
00000140: b8e0 313e e6ef 7a3d 5c65 cc3b dd7d bcbe
00000150: 80df f73b c1ea 0dbf 86fd 0bbf 43f1 c1be
00000160: 0021 60bc 731a 8bbe 6f3d 3dbe 9c9b 033e
00000170: 0461 b5be 8a0a ebbe 140a 023f 6f92 d6bc
00000180: 8436 01bf 209b 603d d432 69be d9f9 8fbb
00000190: a4f9 263d 9be4 533e 30d7 913d 37bb 1f3e
000001a0: 275d 743e 752a 8fbc af7c 9f3e e445 d1be
000001b0: 6067 a93c 005e e3be 1003 2a3d cd03 09bf
000001c0: a188 153f 555f 36bc 2d2a 0d3e 7a2e 32bc
000001d0: 4a46 1abf a0f5 62bd b30c 173e a700 e5be
000001e0: 3d71 83bc b919 783e 2816 62bd c9e3 813c
000001f0: 4762 dabd 9cb1 d43e 58e2 b6be c0b0 44bc
00000200: 8b4a d8be dff9 cfbb 66dd b33e 1270 14bf
00000210: e4cd 0abf 50c9 883e c909 9fbe 995a fabb
00000220: 73d1 993e efda 17be 9d0a d63d 669f 373e
00000230: 9fed 273f 5096 bebe 8055 01bf 4082 903d
00000240: 0cb6 4f3e ae29 c0be 62ae 023f ee59 06bf
00000250: 00a8 83bd a05c a03e 204f 9f3c 119b 103e
00000260: 5281 97be 5af6 d8be 6029 d43d e2b0 823e
00000270: 34c9 07bc 86ea 793e 3e25 58be 90e6 45bc
00000280: 67da e0bc b152 403e e7a1 02bf cc9b c13e
00000290: d603 c3be 9f7a 0abe c2ba 9d3e e445 193f
000002a0: b0a2 f3be b0c6 f93d ac41 79be b4c0 1a3e
000002b0: f8ef 58be 8d94 f23e 48f2 e23d 5801 353e
000002c0: 5cb6 ecbe 182c 12bf cf23 f4be d041 be3e
000002d0: 3997 ebbc 82a8 1e3d 524f f33e 6e23 2ebe
000002e0: cdf5 09bf 405a 133f 091b f4bc ee83 d03e
000002f0: ce19 4abe 0fc5 9abe f2bd b8be 78da a63d
00000300: 50b1 b9bd f4cc aa3e ca52 b93e dcef 22be
00000310: 42fe fabe f47d 6f3e 60c9 03be 3c97 d1be
00000320: bcfb fc3e 185c 463e 6544 8dbe 4eca 13bd
00000330: 10d4 e6bb 2982 c83d 8506 e4be 24ad 86be
00000340: 3ed5 dd3e d569 133f f9ea bdbe a1b2 07bf
00000350: 4a6e 7ebe 660f cf3d 3dfa 093d f86c b7bd
00000360: 08c4 34bd f2f1 e83d 2d98 763d 4322 853e
00000370: 4c68 e3be 1405 ef3e 6044 32bd 082a 24be
00000380: 00d4 38be 6741 b0be 60de 61bd f856 eb3d
00000390: 8772 9e3d 0af6 0e3e 93e4 f8be 035e 11bd
000003a0: cd27 843d 896d 023d e112 a4bd 7f24 da3d
000003b0: be73 e03e 9a68 123e 3d8f 80be dde1 1b3e
000003c0: 2861 033e a18f f5bd 16d5 243e 8252 e1be
000003d0: f093 903d 080c 103f 8555 a73e a92d 8abe
000003e0: 19c7 f7bc 6c18 a13e bb3f 05bf 83ca 23be
000003f0: d365 203d 1193 b53e f28c 1e3e 7846 cfbe
-0.518398 -0.171027 0.14316511 -0.01752448 0.26136062 0.50765437 0.16665527 -0.2749846
0.28079093 -0.06145083 0.27106422 -0.5077348 -0.10621801 -0.22916213 -0.0013910532 -0.104751736
-0.519283 0.15551788 -0.29800183 0.32596067 -0.5658764 -0.04146889 0.14937046 0.07884243
0.0007103183 0.2879158 0.3311135 -0.07627424 0.2908668 0.43717578 0.035642788 0.2436437
-0.32479632 -0.09078384 0.23759484 0.41471326 0.10443709 -0.19089466 0.26319197 -0.5355793
-0.451745 -0.29329118 -0.34192345 0.25623393 0.153777 0.028880417 0.14887191 0.058916096
-0.060448322 0.22418371 0.4150366 -0.070851386 0.012848318 -0.19873229 -0.3631471 0.44138965
0.3106344 -0.35570073 0.3325947 -0.086841285 -0.001536567 0.049662422 0.38456428 -0.30629757
-0.39188346 0.018767357 -0.1547929 -0.034508586 0.43447697 0.03613771 0.16840456 -0.12969568
-0.0056136786 0.18626456 -0.59179604 0.106219165 0.121266074 -0.027197858 -0.36940855 -0.41737044
0.1737088 0.06126394 0.006237669 -0.36814776 0.007564485 -0.5543633 -0.5468372 -0.3787938
-0.013679743 -0.27168617 -0.18480466 0.12852329 -0.3542558 -0.45906478 0.5079663 -0.026192872
-0.5047381 0.05483544 -0.22773296 -0.004393798 0.04076542 0.20692675 0.07121122 0.1559876
0.2386366 -0.0174763 0.31149814 -0.40873635 0.020679176 -0.44407654 0.041506827 -0.53521425
0.58411604 -0.011131127 0.1378562 -0.010875339 -0.602635 -0.055410028 0.14750938 -0.4472706
-0.016045207 0.24228562 -0.05519691 0.015855687 -0.10663276 0.41541755 -0.35719562 -0.012005031
-0.42244372 -0.0063469256 0.3512985 -0.57983506 -0.54220414 0.2671609 -0.31062153 -0.0076401946
0.3004261 -0.1482961 0.10451243 0.179319 0.65596956 -0.37224054 -0.5052109 0.07056093
0.20284289 -0.375318 0.5104734 -0.5248097 -0.06428528 0.31320667 0.01944691 0.14121653
-0.2959085 -0.4237545 0.10359454 0.25525576 -0.008287717 0.2440587 -0.21107957 -0.012078896
-0.027447892 0.18781544 -0.51028293 0.37814176 -0.38088864 -0.13523339 0.30806547 0.5987227
-0.47585058 0.121961 -0.24341458 0.15112573 -0.21185291 0.4737896 0.11081368 0.17676294
-0.4623288 -0.5709853 -0.4768357 0.37159586 -0.028758632 0.03873492 0.47521454 -0.17005703
-0.5389069 0.57559586 -0.029798048 0.40725654 -0.19736406 -0.3022847 -0.36082417 0.08147138
-0.09067023 0.33359492 0.36195976 -0.15911812 -0.49022108 0.23387891 -0.12869787 -0.40935695
0.49410808 0.19371068 -0.27591243 -0.036081605 -0.007044323 0.09790451 -0.44536224 -0.2630397
0.43326753 0.5758336 -0.37093332 -0.5300694 -0.2484676 0.10110359 0.03368591 -0.08956331
-0.044132262 0.113742724 0.06020372 0.26002702 -0.4441551 0.46683562 -0.04352224 -0.16031659
-0.18049622 -0.34424898 -0.055143714 0.11491197 0.07736688 0.13961044 -0.48611888 -0.035490047
0.06452904 0.031842742 -0.08011413 0.10651492 0.43838304 0.14297715 -0.25109282 0.15222879
0.12830031 -0.11990286 0.16096911 -0.4400826 0.07059467 0.5626836 0.32682434 -0.2698796
-0.030246304 0.31463945 -0.5205037 -0.15995221 0.039159607 0.35463765 0.15483454 -0.4048345

fc1.bias f4 [128]
00000000: bad6 0b3f bff1 7bbc fc72 d4be b463 02bf
00000010: 38e7 d83e e2f6 123f a95f 9f3e 4722 3f3f
00000020: 2db0 a2be 59fd 5e3f a12c 10bf a4dc 3b3e
00000030: b53b 183f 1605 bb3e c951 af3b d33b 95be
00000040: 2a98 273f 1070 2bbd 6f6d 7dbd 4069 123f
00000050: 24d3 713e fb71 02bf 483b 8c3e 0a5f ddbe
00000060: fe4f 5e3d 9ef8 25bf 70f3 4b3e 5b9d 0cbe
00000070: 180e 0abf 7588 9dbe a878 c63e abf4 d83e
00000080: 0ea8 ce3e ffd0 593c 28f1 25bf dd5a 213b
00000090: e484 12bf d405 133f 7d12 c6be 3652 3e3f
000000a0: 47b4 fa3c 2d0d 523f 245e 2bbe 5a90 59be
000000b0: bbad 09bf 275a 4abe 0481 5ebf 711a 0bbf
000000c0: 4ec0 a6bd 0072 cb3a d291 40be 681b d13d
000000d0: 5fa0 2ebe 6c3f 063e 917e 6e3e f1d2 293f
000000e0: 580b cc3d 23a0 8b3e e22b 56bf 8085 5abc
000000f0: 7c0d 483e 702d 3abe e5c6 a83d 40e4 6abd
00000100: 67c1 343f e071 5f3e f625 003f dc2c 4ebf
00000110: 2bd6 3f3e 8ad0 003f 1ad5 c9be 6930 f1be
00000120: dd89 8f3d ba31 e6be 4416 8dbe cfec f6be
00000130: c50b 1fbf 58dd a63e 30b2 1f3f e689 383f
00000140: 234e 4fbe 48b6 9f3d 1572 5fbf 20fb 923e
00000150: e2cb 26bf 6cef d7be a1a4 2dbf 5081 1ebe
00000160: 84ce f53e 90f8 ee3d 17fe 5abf f10d 503f
00000170: aa13 b43e ef25 353f 60b5 94be 9888 81bd
00000180: 4825 f2be ccc6 483f 06e2 cebd 282c d6be
00000190: 66b0 1b3f 46e8 193e 3bcf 07bf d573 a03e
000001a0: 30b4 d6be b97b 4ebe 9692 d9be 36bb f9be
000001b0: 551d 3c3e 58cc 223f a568 b5be a4ed 543e
000001c0: e0b3 803e 5d1c 9abc 8005 b3be f962 00bf
000001d0: 6a25 99be 1af6 c8be b236 6ebe 6b19 4dbf
000001e0: 1a46 00bf 11b0 12be f6e3 08bf 6b5b 8bbe
000001f0: 8665 01bf 1c48 7c3e a669 32bf 608e c1bc
0.5462452 -0.015377461 -0.41493976 -0.50933385 0.42363906 0.57407963 0.3112767 0.7466168
-0.31775036 0.8710533 -0.563181 0.18345886 0.59466106 0.36527318 0.0053503257 -0.29147205
0.6546656 -0.041854918 -0.061871942 0.5719185 0.236157 -0.5095517 0.27388978 -0.43236572
0.054275505 -0.64832485 0.19917083 -0.13731901 -0.53927755 -0.3076817 0.38763928 0.42374167
0.4036259 0.013294457 -0.648211 0.002462081 -0.57234025 0.5743077 -0.3868598 0.74344194
0.030603541 0.82051355 -0.1673513 -0.21246472 -0.53780717 -0.19760953 -0.8691561 -0.5433722
-0.08142148 0.0015521646 -0.18805626 0.102103055 -0.17053364 0.13110131 0.23290469 0.66337496
0.09963101 0.27270612 -0.8366071 -0.013337493 0.19536394 -0.18181396 0.08241061 -0.057346582
0.7060761 0.21820784 0.50057924 -0.805372 0.18734042 0.50318205 -0.39420396 -0.47107247
0.07008717 -0.44959813 -0.2755605 -0.48227546 -0.62127334 0.32590747 0.6238127 0.72085416
-0.2024465 0.07798439 -0.8728345 0.28707218 -0.6515485 -0.42174852 -0.6782933 -0.15479016
0.4800912 0.11668503 -0.8554396 0.8127127 0.35171252 0.7076101 -0.29044628 -0.06324881
-0.47294068 0.7842834 -0.10101704 -0.41830564 0.6081604 0.15030012 -0.53050584 0.31338373
-0.41934347 -0.20164384 -0.4249465 -0.48775643 0.18370564 0.63593054 -0.354314 0.20793778
0.25137234 -0.018812353 -0.34965134 -0.5015102 -0.29911357 -0.3925026 -0.23263052 -0.8011691
-0.50106966 -0.14324977 -0.5347284 -0.27218184 -0.5054554 0.24636883 -0.69692457 -0.02362746

fc2.weight f4 [64, 128]
00000000: 60b2 043c 5b4a 69bd e9e8 633c 9190 943c
00000010: e46d e3bc a080 c4bb 10f9 3d3d 39c7 b7bd
00000020: fb34 cf3d 375b dcbd 9fa2 15bd 76b5 463d
00000030: 3b1a 163c c0f6 8f3a cb4b e13c 1899 203d
00000040: a744 d6bd 5ded 7bbd 0b44 843d 43d3 f03d
00000050: 139d bbbd 261c 313d 24c2 d63c 483a b93d
00000060: b03e 9fbd 576a a93d 75fb afbd 9e85 11bd
00000070: 80a8 73bb eb24 47bd bb85 953d a794 68bd
00000080: 8000 77ba b7cc 783d e9ed 853d 48db 87ba
00000090: 7015 10bc ea55 933d fe42 ac3d 18e1 6abd
000000a0: 908b 9b3d ca4c 5abd dda8 913d 21ad 793d
000000b0: 4606 4a3d b261 1dbd ba03 a03d 0a82 77bd
000000c0: 1b4a f6bc b85c 00bc b339 8d3d 9af4 70bd
000000d0: 66b3 46bd dc3e 6cbd 23e2 d63c 1481 7c3c
000000e0: e235 8fbd 6725 cabd afe8 193d dac7 603d
000000f0: 31d6 59bb 125a 553d ad0c 36bd a0d2 083c
00000100: 3dc4 fdbd e759 a5bd 1e56 233d 525c 0a3e
00000110: 223f a7bd 8a5e d3bd 0668 683d 2d69 70bc
00000120: ed29 993c 5004 243d 9b0a 48bd 9f43 06bd
00000130: 4a6f 4d3d 4fbd c83c 42e9 f3bc dc87 fbbd
00000140: cee7 5f3c 32a7 55bd c886 fd3d 7e17 323c
00000150: 1754 fd3c 9bb9 f23c 034c a53d be50 643d
00000160: 1fd8 a0bd 60d6 8dbd 2d22 0d3d 600f 2d3c
00000170: d94d a0bd 9676 efbc 8fe3 ac3c 1e6d 363d
00000180: 9968 b43d e87e 853d cc39 cd3c 57c3 c93c
00000190: cced 883c 4b46 aa3d ec40 ba3c 6f08 a2bc
000001a0: 792a eebb ebac 0cbd 3c8b a23d cc3d 0a3d
000001b0: 78fc d4bc 091f 91bd 7812 ac3d e720 35bd
000001c0: 7cc5 c83c 6006 dd3b 4ca6 1b3d 6853 62bc
000001d0: 1bde dbbb 8945 12bd 2030 283d a098 ed3d
000001e0: 22f1 e5bc 0de6 853d 7552 fd3c 2d22 b4bd
000001f0: 15fd 843d 8642 683d 284a f63d 4a7f 733d
00000200: 59a9 903d 134b afbd 13b8 973d 4622 29bd
00000210: 68dc a23c 32b1 7c3d a2f2 8f3d d7f3 a93d
00000220: a9ff 923d a704 21bd db6c 7dbd f217 413d
00000230: b891 8e3d 00fc ec3c 06c3 263d ce80 a0bd
00000240: 2101 4abd 5144 b03d 40ee 84bd e908 b63d
00000250: 0ea4 033d ea50 263d cbc0 64bd a5fe de3c
00000260: 2a33 273d 1ec1 8abc 604d 1e3b a518 1039
00000270: 92c7 6b3d 300a 14bc eca2 5e3d 9a1c 763c
00000280: 2cba 5ebd 27ba e2bc fb8d 643d 4391 9dbd
00000290: 9201 113d 38d2 843d ef6a 8dbd bfba 42bd
000002a0: f40d ad3d 78ab a33d 7182 83bd 95d8 9dbd
000002b0: e0ba 93bc 9e0b 0a3d 282f 89bd 02f9 013d
000002c0: 19c6 8dbc 2048 6a3c 8e23 97bd a8ee 89bc
000002d0: b449 b03d 8b5d a83d e758 71bd 9d4a f1bb
000002e0: d674 433d c6af 31bd dee3 84bd bb82 913d
000002f0: 495f 0cbd 4872 16bc fd8b a8bd 2def 943d
00000300: c24a 263d 1990 3bbd 6598 9e3d 5406 3ebd
00000310: 344f a23d 96c8 35bd f8ee 073d 0a94 abbd
00000320: 68f2 84bd 2977 7abb 4423 6cbd 056d 99bd
00000330: b23b ac3d 5c4e 963c d25e 363d 3914 a73d
00000340: 44e6 eb3b dde4 9b3d 1f5b 33bd 4bdc a83d
00000350: 6a58 463d d623 4e3d 1f94 9abd 569c 31bd
00000360: 313d b33d f8c5 833c 62cf 59bd 2b09 9fbd
00000370: f7fc b83c cc31 8e3d 2920 58bd 7838 a7bd
00000380: b5ca 84bd 06c0 223d 7e66 94bd 8ef2 753c
00000390: 18ba af3c 4c5d 9cbc 465a 94bd a38d 98bc
000003a0: e580 80bd cef1 0e3d 20b5 21bc 3092 923b
000003b0: 325e 0abd 46e1 8fbd 40f3 b7bd fa2c c9bb
000003c0: e8a8 8bbc a406 283d ee79 7e3d 6216 7b3d
000003d0: 1ea6 073d eb9e 933d e6c2 9c3a 20e7 733c
000003e0: 6d8f 8abd 645b 283c 745f 45bd 47cf 02bd
000003f0: ff5e aabd 75e5 993d c2c6 8ebd 5e51 3ebd
0.008099169 -0.056955677 0.013910511 0.01813534 -0.02776236 -0.0059967786 0.046380103 -0.089735456
0.10117527 -0.10759585 -0.03653204 0.0485129 0.009161527 0.0010983571 0.027501961 0.0392085
-0.10462313 -0.061505664 0.06458291 0.11759045 -0.09160819 0.043239735 0.02621562 0.090443194
-0.077756286 0.08272236 -0.085928835 -0.035527818 -0.0037179291 -0.048619192 0.07300898 -0.05678239
-0.0009422377 0.060742106 0.065395184 -0.0010365034 -0.008794174 0.07194121 0.08411215 -0.057343572
0.07594979 -0.053295888 0.07112286 0.060956124 0.04932239 -0.038423248 0.07813211 -0.06042675
-0.030064633 -0.007834606 0.06895771 -0.05882702 -0.04851093 -0.057677135 0.026230877 0.015411634
-0.06992699 -0.09870415 0.03757542 0.054878093 -0.003323924 0.05208785 -0.044445682 0.008350998
-0.12390945 -0.08073788 0.03987705 0.1351178 -0.081663385 -0.10320766 0.05673983 -0.014673513
0.01869675 0.040043175 -0.04883824 -0.032779332 0.05015496 0.024504332 -0.029774312 -0.122817725
0.013666106 -0.052161403 0.12379223 0.010869859 0.030923886 0.02962952 0.08071139 0.055741064
-0.07853722 -0.069256544 0.03445642 0.010562748 -0.07827348 -0.02923135 0.021104602 0.044537656
0.08809013 0.06518346 0.025051974 0.024629278 0.016714953 0.083141886 0.022736035 -0.019779412
-0.0072682467 -0.034344595 0.07936713 0.03375034 -0.025999293 -0.070859976 0.0840196 -0.04422083
0.02450823 0.0067451447 0.03800039 -0.013813831 -0.0067098266 -0.035710845 0.04106152 0.116013765
-0.028069083 0.06538019 0.030923108 -0.08795581 0.06493584 0.056704067 0.12025863 0.059447564
0.070635505 -0.08559241 0.07408156 -0.04129245 0.019880489 0.061692424 0.070287004 0.08298462
0.071776696 -0.039311077 -0.06187139 0.047141977 0.069613874 0.028928757 0.040713333 -0.078370675
-0.049317483 0.0860678 -0.06490755 0.08888418 0.032138877 0.04060451 -0.055847924 0.027221033
0.04082028 -0.016937789 0.0024155006 0.00013742091 0.057563372 -0.009035632 0.054354593 0.015021468
-0.054376766 -0.027676655 0.055799466 -0.07693722 0.03540189 0.064854085 -0.069051616 -0.047541376
0.08449927 0.079916894 -0.06421364 -0.07707325 -0.018033445 0.033702485 -0.066984475 0.031731613
-0.017306374 0.0142994225 -0.073798284 -0.016837433 0.08607808 0.08220967 -0.058922675 -0.007363631
0.047718845 -0.04338052 -0.06488775 0.07105013 -0.03427056 -0.00918252 -0.08229826 0.07272182
0.04059864 -0.04579172 0.07743911 -0.046392754 0.07925263 -0.044380747 0.033186883 -0.083778456
-0.06491548 -0.0038217998 -0.05765082 -0.07491497 0.084098235 0.018347912 0.04452402 0.08158154
0.0071990807 0.076120116 -0.04378807 0.082451425 0.048424162 0.050327145 -0.07547783 -0.043361984
0.08751906 0.01608561 -0.05317629 -0.077654205 0.02258156 0.06943092 -0.052765045 -0.081650674
-0.06483976 0.03973391 -0.07246111 0.015011443 0.021451041 -0.019087456 -0.07243781 -0.018622225
-0.06274585 0.03489857 -0.009869844 0.0044729933 -0.033781238 -0.070253894 -0.08981943 -0.006139395
-0.017048314 0.041021958 0.062128 0.061300643 0.033117406 0.072080456 0.001195994 0.014886647
-0.067656375 0.0102756955 -0.048186734 -0.031935956 -0.083189 0.075144686 -0.06971504 -0.046464317

fc2.bias f4 [64]
00000000: e4ab b3be e11d d0bc 0aef fabe e5d6 a6bd
00000010: 3dd8 8e3d e135 b13c a578 c73c d1ff 86bd
00000020: 6147 9c3d 3873 863d be23 febc f8d1 0dbc
00000030: 4c77 4f3d 2a47 58be f57a df3b b016 21bf
00000040: 4ef5 623d db16 f7bc edb0 f23c 2896 fbbd
00000050: f96a a33d c6b8 6cbd fa69 6fbe f007 2dbd
00000060: ccf0 9f3e 76e5 43bd 2a19 2e3d 2f89 363d
00000070: c0c0 95ba f6e8 a7bd 552d a33d ea89 99be
00000080: 0e04 543e 18b4 0b3d 1a82 853c 1c60 d63a
00000090: 202a 633d 068d 8f3e 1dc0 28bd 3f4e 7f3c
000000a0: a7f5 28bd d649 243c 946e 933e b68a 2e3d
000000b0: 6899 0c3c 2c1c ddbe 09e6 a33d ea9f 9dbe
000000c0: 7126 9c3d 80b3 30ba d7d6 aabe 52dc 49bd
000000d0: d854 22be 8c60 0fbe 7f5a 8bbd 85e0 0abe
000000e0: 1ac0 903d 58f2 4dbe 3838 4c3d f000 b5bd
000000f0: 69a1 1ebd 90a0 f33d c48d 96bd 1ef6 babe
-0.3509208 -0.025404872 -0.49010497 -0.08146457 0.06974838 0.021632137 0.02434952 -0.06591762
0.07630802 0.06564945 -0.031022903 -0.0086560175 0.05065088 -0.21120897 0.0068200775 -0.62925243
0.055409722 -0.030162266 0.02962538 -0.122844994 0.07979388 -0.0577934 -0.2338027 -0.042243898
0.312384 -0.047826253 0.042504467 0.044564422 -0.0011425242 -0.08198731 0.07967631 -0.29988033
0.20704672 0.034107298 0.016297389 0.0016355547 0.055460095 0.2803728 -0.04119884 0.01558262
-0.041249897 0.0100273695 0.28795302 0.042612754 0.008581497 -0.43185556 0.0800286 -0.30786067
0.076245196 -0.0006740615 -0.33367035 -0.04928238 -0.15852678 -0.14001673 -0.0680437 -0.1356221
0.070678905 -0.20111978 0.049858302 -0.088380694 -0.03872815 0.11895859 -0.073512584 -0.36515898

fc3.weight f4 [32, 64]
00000000: 8fbe 0d3d 9f34 74bd 5bc0 41bd b47d 71bd
00000010: 8242 f73d 8bbc 743d 5d99 4d3b 5d7b 85bc
00000020: 7de3 f6bb 63d5 fcbd d3e7 f33d 586f b53d
00000030: 7754 c3bd d1ca 2bbc 5a6d 0b3e 3f17 08be
00000040: cbc6 d7bd d420 c73d 719a 073c e774 b6bd
00000050: 9cb8 0f3d 501d 8c3d 27e4 d3bd 000a c83d
00000060: 7aea e93d 0008 0b39 57a8 2fbd e5c5 a4bd
00000070: 44a2 9cbd a856 c2bc aec6 863d ae77 37be
00000080: 6c1c 523c ead2 edbd 8e4c a1bc d741 70bd
00000090: 5b79 ef3d c0f5 f43c dce9 63bd 0371 8dbd
000000a0: 5b7f d03d 0f7b 393d d5bc 863d 080b debc
000000b0: 2e09 a4bd 1534 0fbe a6ed 703c e4a6 4c3d
000000c0: 74ee 2a3a 9c44 ce3d 2ba5 db3b ab0c c13d
000000d0: ac1c 57bd 2319 c73d 4e52 bfbd 5a76 19be
000000e0: 1dbe 093e c11f 243c acfc e13d fc43 9dbd
000000f0: 7687 913d 0e64 77ba d4e1 dc3d 1143 51be
00000100: b55e 143e 908a 653d 54bb 463e 543a 793d
00000110: 90f6 3cbd 23e4 fabd 6079 cabd b0db d6bd
00000120: 64aa 6d3d dfe9 7ebe 4357 f13d 1098 9f3d
00000130: c4f6 b4bd adb7 8f3e d96d e7bd 718f 5e3e
00000140: 9496 133d ba8b 8d3a c308 4b3d 4644 58bd
00000150: 5b68 873d a80a 873c 498a 5b3e 6262 573d
00000160: de76 9bbe 6f03 1fbd 039c 413c 2f30 9c3c
00000170: 583c 283d a0a6 debc 0e01 1cbd eeea a63d
00000180: 7ddf 02bd 6cc4 26bd 48ad 8ebc 0d8b 39bd
00000190: f159 e83d 9e3f 0ebe faa5 0fbe f16d 3dbd
000001a0: 22da 84be eade d33d 6613 5fbe 58c9 f5bd
000001b0: b865 613d a8f0 ab3d d92e c53d 22ea 0a3e
000001c0: 08bd 503d 80e7 84bb 6769 e83d 494f 31bd
000001d0: 7c36 78bd bf9b 083e 41b1 773d 962b 8a3d
000001e0: 3453 8abd 7e8e eebc 9846 903d b672 d03d
000001f0: 71b9 333d cb5c b63c e4dc a7bb 551d 933d
00000200: 2bec e4bd 34ff febd d1bb 16be 4e56 343d
00000210: bcf9 4d3d 8b20 a03d 44d4 833c dfc7 b4bd
00000220: b701 fb3d 7bdf 66bd c8dd de3d 3c1e 48bd
00000230: 465b c93d c371 41bd f6b6 793c 1935 3fbe
00000240: fd35 f9bc a4f9 f63c fb86 883d e798 11be
00000250: cba7 823d 6050 b6bb a0fb 05bd 5b66 153e
00000260: 5d8e 9b3d 140e 39bd bdfe 55bd fe3d 983d
00000270: 7618 dfbd b039 ee3c 6baa 0f3e e617 08be
00000280: 87d1 dabc 4417 0c3d 4746 ac3d c738 603d
00000290: 1758 dfbc 67e5 0a3e ea28 a83d 3c16 c73d
000002a0: d939 79bd 910f 24be c000 923e a0c5 9c3b
000002b0: 5a70 c2bd a347 11be 8a40 53bd c9ce 5f3c
000002c0: b578 5fbd 7cdf 1f3d 4330 053c 75e4 3bbc
000002d0: 6185 a63d d005 34be 9dcc 04bd 34d4 19be
000002e0: fdc7 863d 5a93 cdbd e5f3 f6bd 6fbe 373b
000002f0: e868 953d 003e 663d 50b1 14be 7b1e 70be
00000300: 9379 9e3d cb08 c03d 6db4 843d 3553 93bd
00000310: 4239 eebd dd70 00be f288 bf3d d9e6 94bd
00000320: 0d42 aebc 98f1 b03c 8cbd 413d 88f6 913d
00000330: ecda 8abb c8cb 4dbd af28 6dbd 97fd bd3d
00000340: 758c c8bc 2e7e 9b3d d02e cf3d 88c3 a03d
00000350: d3d1 973b 240c 4dbd f89d 30be abe1 473d
00000360: 081a 7c3e 5f14 de3d db5f 933d a356 dd3d
00000370: 0c4d 303d 0839 973c 65c6 adbd 507f 523d
00000380: 4725 14be ee26 ee3d 046c 45bc f0b5 233c
00000390: 6e1c 07be a060 cb3d ab2a 94bc ad92 ff3d
000003a0: af20 ab3d 1102 863d 54bc 563e d824 c53c
000003b0: 500c c7bd cb23 27bd 827c 49bd c100 e53c
000003c0: d812 02be 8429 cf3d 6a94 653b 6b01 2c3d
000003d0: aa38 243e 189c 2a3c b4c9 11bd 5868 febd
000003e0: e476 10bb 730f 4fbd 4b8c c2bd d29a 03bc
000003f0: 0d92 e4bd 522a 883d d1bf bf39 b2bd b4bd
0.03460556 -0.059620496 -0.047302585 -0.05895777 0.12073232 0.05975012 0.003137193 -0.016294176
-0.007534443 -0.12345388 0.11909451 0.08859128 -0.09537595 -0.010485367 0.13615933 -0.13290118
-0.105359636 0.09723058 0.008276568 -0.08909016 0.035088167 0.068415284 -0.10346251 0.09767532
0.11421676 0.00013259053 -0.04288515 -0.08045558 -0.07648137 -0.023722962 0.06580864 -0.17916748
0.012824159 -0.11612494 -0.019689824 -0.05865654 0.116930686 0.029902339 -0.055642948 -0.06906321
0.10180541 0.045283373 0.065789856 -0.02710487 -0.080095634 -0.13984711 0.014705097 0.049963847
0.00065205176 0.1007168 0.006703039 0.09426244 -0.052517578 0.09721591 -0.0934187 -0.14986554
0.13451429 0.010017336 0.110345215 -0.076789826 0.07105915 -0.00094372116 0.10785261 -0.2043574
0.14489253 0.056040347 0.19407398 0.06084664 -0.046133578 -0.12250545 -0.09886432 -0.10491121
0.058023825 -0.24893902 0.11784222 0.077926755 -0.08836129 0.2806982 -0.11300249 0.21734406
0.036032274 0.0010799088 0.049568903 -0.052799486 0.06611701 0.016484573 0.2143947 0.05258406
-0.30364126 -0.038821634 0.011816981 0.019065944 0.041073173 -0.027179062 -0.038086943 0.08150278
-0.031951416 -0.040714666 -0.017416611 -0.045298625 0.1134528 -0.13891456 -0.14028159 -0.046247426
-0.25947672 0.10345252 -0.21784744 -0.12001294 0.055028647 0.08395511 0.09628076 0.13565877
0.050961524 -0.0040559173 0.11348229 -0.043288503 -0.060598835 0.13340662 0.060471777 0.067465946
-0.06754151 -0.02912068 0.07044715 0.101781294 0.043878023 0.022261044 -0.0051227678 0.07183329
-0.11177858 -0.1245102 -0.14720084 0.04402762 0.050286993 0.07818707 0.016092427 -0.08827185
0.122561865 -0.05636547 0.10882145 -0.04885696 0.09831862 -0.047227632 0.015241375 -0.18672599
-0.030421251 0.030148335 0.066663705 -0.14218484 0.0637966 -0.0055637807 -0.03271067 0.14589827
0.07595513 -0.04517944 -0.05224489 0.07433699 -0.108933374 0.029080242 0.14029853 -0.13290367
-0.026711239 0.034201875 0.08411842 0.054741647 -0.027263684 0.13564073 0.08210929 0.09721038
-0.060846183 -0.16021563 0.28516197 0.004784301 -0.094940856 -0.14187483 -0.05157522 0.013660141
-0.054558475 0.03903149 0.008129182 -0.011468043 0.08130909 -0.17580342 -0.032421697 -0.15022355
0.065811135 -0.10037871 -0.12058238 0.0028037091 0.072954 0.05621147 -0.14520764 -0.23449127
0.07738032 0.09376677 0.06479726 -0.07193605 -0.11632015 -0.12543054 0.09352292 -0.07270593
-0.02127173 0.021599576 0.047299907 0.071271 -0.0042375233 -0.05024317 -0.057900127 0.09276884
-0.024481038 0.07592426 0.10116351 0.078497946 0.0046331673 -0.050060406 -0.1724776 0.048799198
0.24619305 0.10843729 0.07196017 0.1080754 0.043042228 0.018459812 -0.084851064 0.051390946
-0.14467345 0.11628519 -0.012049679 0.009992108 -0.13194439 0.09930539 -0.018086752 0.12479148
0.08355843 0.06543363 0.20970279 0.02406542 -0.09719145 -0.04080562 -0.049191006 0.027954461
-0.12702501 0.1011534 0.0035031089 0.04199354 0.1603724 0.010413192 -0.03559275 -0.12422246
-0.002204352 -0.050551843 -0.09499415 -0.0080325175 -0.111606695 0.06648697 0.00036573273 -0.08825244

fc3.bias f4 [32]
00000000: 932b 1b3c a004 bfbf d56f 593e 319d c3be
00000010: a84b c5be 6097 81bd 1536 f1be 42aa f0bd
00000020: a134 c4bd afd3 1f3d 63df 543e 0d1a bd3e
00000030: 02c3 c8be d93d 383d 204e e9bd d7d4 1cbe
00000040: df9c 95bd d59b 45bf 085b d8bd 1e3d 163c
00000050: 8478 893e 606f d93d cc6c 2c3e 9421 06bd
00000060: 11a1 fe3b 4788 12bf 4ac0 8bbe d13c abbc
00000070: a68e 28bd 1cae 44bd 0cc7 57be 12c1 c1bd
0.009470838 -1.4923286 0.21234067 -0.38205865 -0.38534284 -0.063277006 -0.47111574 -0.11751224
-0.09580351 0.039020237 0.2078834 0.36933938 -0.3921128 0.044980858 -0.11391854 -0.15315567
-0.073053114 -0.77190906 -0.10564238 0.009169845 0.2684976 0.10616946 0.16838378 -0.032746866
0.0077706655 -0.5723919 -0.27295142 -0.020903023 -0.041151665 -0.048017606 -0.21072024 -0.09460653

fc4.weight f4 [2, 32]
00000000: 7d2c 26be 72ee e83e beda 5c3e c0dd bd3d
00000010: c7e2 693e 91af 5d3e 70f1 183e 934a 82bd
00000020: 21aa 8abc f3e6 713e 2f99 33be 995c adbe
00000030: ec47 543e ef63 aabc 3e79 fa3d a727 f03c
00000040: b254 323d 42c9 373e 2de0 09bd 35ad 18be
00000050: e782 1a3e a89b 24be 9751 bd3c 905e eabd
00000060: cf07 4a3e c161 223e f836 683e a4e4 0d3d
00000070: ac03 953d 92d8 b83d 3d34 d73d 8afb d13d
00000080: 4234 80be dd31 033e a1ac 0fbf fe6a debd
00000090: a96b 9fbd d606 a3bd 0cdb 443d a09b 24be
000000a0: e632 693d c2bd cf3d 94f5 f6bd 57e6 88be
000000b0: d6f4 18be 8613 f23d d0ee 46be 647b 903e
000000c0: c2fa 6dbe 673c c3be 7d51 ecbd 2916 4e3d
000000d0: 610e be3e 5980 383d 5db3 0fbe 18af 5e3e
000000e0: 1181 20bc e11c 02be 308b 8e3e b012 cebd
000000f0: 5464 8abe a105 2f3e 66fc d6bd 6dfb 51bd
-0.16227908 0.4549442 0.21567819 0.09270811 0.22840415 0.21649005 0.14935851 -0.0636188
-0.016926827 0.23623256 -0.17538904 -0.3385971 0.20730561 -0.020799605 0.12230156 0.029315783
0.043537803 0.17947868 -0.033661056 -0.14909823 0.15088998 -0.16075003 0.023110194 -0.114438176
0.19729541 0.15857603 0.22677219 0.034641877 0.07276091 0.090256825 0.105080105 0.102530554
-0.2503987 0.1281199 -0.56122786 -0.10860251 -0.077842064 -0.07960288 0.048060462 -0.16074991
0.056933306 0.10143615 -0.12058559 -0.26738235 -0.14937147 0.1182013 -0.19427037 0.2821914
-0.23240188 -0.3813202 -0.1153898 0.050314102 0.37120345 0.045044277 -0.14033265 0.2174648
-0.009796397 -0.12706329 0.27840567 -0.10062158 -0.2702967 0.17091991 -0.1049736 -0.05126517

fc4.bias f4 [2]
00000000: f58b 91bf 0231 c03e
-1.1370836 0.3753739
