compare/action_file/dqn_model.pth (torch, 46872 bytes, 8 tensors)

fc1.weight f4 [128, 3]
000000 f3 c6 00 3e fa c7 a9 be 60 3e ba bd 54 f3 cb 3d
       0.12575893 -0.33160383 -0.09093928 0.099585205
000010 ee d1 cd be cd e9 a3 3e ac 28 c1 3a 21 ef 09 bd
       -0.40199226 0.32014313 0.0014736853 -0.033675317
000020 7a 37 f5 3e 52 7e 70 bd f2 ba b1 3e ad 9d 8f 3e
       0.47893888 -0.05871422 0.3471294 0.28049985
000030 fc 04 94 bc 63 89 c1 3e a1 b0 73 3e 74 4f c2 3c
       -0.018068783 0.3780013 0.23797847 0.023719527
000040 bf 2f 8b 3e d0 f1 75 3e bb 6b b4 3d c4 b6 03 be
       0.27184865 0.24018025 0.088096105 -0.12862688
000050 10 a1 b1 bd 48 14 cd be 3a 35 e9 3e 75 ea 02 bf
       -0.08673298 -0.40054536 0.4554842 -0.51139003
000060 92 ca 3b 3e 4a 96 a5 3d b8 48 58 be 2d f9 20 3d
       0.18338993 0.08085306 -0.2112149 0.039300133
000070 cf 95 dc bd c6 18 c6 3e 2a d5 80 3d 9e 36 08 bf
       -0.10770761 0.38690776 0.06290658 -0.5320834
000080 e0 aa 09 bf e5 66 14 bc 2a 70 3a 3e ba 0a 82 3c
       -0.5377636 -0.009057735 0.1820685 0.015874255
000090 9b f0 c3 bd 0d 96 ac 3e 07 83 45 be f7 71 2e 3e
       -0.09567376 0.3370823 -0.19288264 0.17035662
0000a0 66 77 26 be 1f 6f 00 3f e6 63 46 be f4 bf 8e be
       -0.16256484 0.5016956 -0.19374046 -0.27880824
0000b0 a3 e2 cb be 26 7f 0d bf 10 0b c2 be e8 c7 12 3f
       -0.39821348 -0.5527214 -0.37899065 0.5733628
0000c0 10 c4 7a 3d f9 5a 17 bf ee a2 07 3e 27 c0 d1 be
       0.061222136 -0.5912319 0.13245746 -0.40966913
0000d0 6d 13 0a 3f 97 70 96 3e c1 11 f4 be a8 2f 8a 3e
       0.5393589 0.29382774 -0.47669795 0.26989484
0000e0 02 8e 9c 3e 29 86 3f 3e 8b 77 07 bf 1c 88 a3 be
       0.30577093 0.18703522 -0.52916783 -0.3193978
0000f0 a1 50 1a be 82 9b c0 3e 4f e7 dd 3e b6 9b 96 3e
       -0.1506982 0.37618643 0.43340537 0.29415673
000100 ca a9 8f be 00 a8 60 3d 50 e8 e3 be 4e f9 af be
       -0.28059226 0.054847717 -0.44513178 -0.34369892
000110 b0 0b 8c 3d f7 65 b0 3e ec 6e 12 bf 36 33 ea 3e
       0.06838167 0.34452793 -0.57200503 0.45742196
000120 f4 a8 28 be ad 11 1d 3d 7e a5 d5 be f1 ee 03 3e
       -0.164707 0.038346935 -0.41727823 0.12884118
000130 2b bf 94 be 76 4d 40 3e 58 4d 36 be c6 7c e0 3e
       -0.290521 0.18779549 -0.17802942 0.43845195
000140 a0 c0 38 3e d5 38 18 bd 21 93 39 3d fe 48 7a bd
       0.1804223 -0.037163574 0.04530633 -0.061104767
000150 11 1c 9e be 52 52 2f 3f bb 23 0e 3f 87 5d a1 3d
       -0.30880788 0.68484986 0.5552327 0.07879167
000160 2c c2 da bb 94 8c fc 3d 4d 70 79 bd 25 8f 4d 3e
       -0.006675979 0.12331501 -0.060898114 0.20074137
000170 61 69 03 3e 9c e4 d9 3c 75 b2 45 3e 13 c2 d9 3e
       0.12833168 0.026598267 0.19306357 0.4253088
000180 8d 01 a3 be cc ed f8 bd 1c de 09 bf 9f fd f3 be
       -0.3183712 -0.12154731 -0.53854537 -0.47654435
000190 b1 12 8a be 30 81 c6 be 82 f8 7a be b6 a2 57 be
       -0.26967385 -0.38770437 -0.2450886 -0.21058163
0001a0 e0 5d b6 be ba 78 7a 3e 27 66 ef be 0c 80 04 bf
       -0.35618496 0.24460116 -0.46757624 -0.51757884
0001b0 b3 29 10 3c f7 ea 89 bd 5f 1e fe 3d 60 87 e6 bd
       0.008799004 -0.06734269 0.124081366 -0.112562895
0001c0 a4 41 a2 bd c0 36 e8 3e 2a 7a 0a bf d0 f5 6f be
       -0.07922676 0.4535427 -0.5409266 -0.23433614
0001d0 b2 69 13 bf d0 2a 01 3d 1e c2 4d be a1 e6 e9 be
       -0.57583153 0.03153497 -0.20093581 -0.45683768
0001e0 a3 d6 9d bc c4 a5 dd 3c 91 6b 09 bf 36 82 27 3d
       -0.019267386 0.027056582 -0.5367976 0.040895663
0001f0 f4 33 5d 3e e0 2b 74 be f5 63 8a be 67 86 1e 3f
       0.2160185 -0.23844862 -0.27029386 0.6192383
000200 8d 0c 4d be b6 1b 76 be 40 c4 09 bd 60 db 04 3f
       -0.20024319 -0.24034008 -0.033634424 0.5189724
000210 ff a3 07 bf 6c 5b ee bd 72 e4 75 be 1a 47 16 bd
       -0.52984613 -0.11638531 -0.24012926 -0.0366889
000220 0c 7b 74 3e 8e 0b 04 bf e8 ef e3 bd d5 2f 63 3e
       0.23875064 -0.5158013 -0.11129743 0.22186215
000230 11 70 91 3e 98 5d 58 bd 0a 73 09 3d e0 06 d5 be
       0.28405812 -0.052823633 0.033556975 -0.41606808
000240 76 26 10 3e 94 bc d8 be 2f ba a3 be 83 20 8b 3c
       0.14077172 -0.42331374 -0.31977984 0.016983276
000250 7d dc a9 3e e7 6d 0d 3f 59 37 16 3e 5a 85 2a be
       0.33176032 0.5524582 0.14669551 -0.16652432
000260 f4 ae ad 3e 52 92 d8 be 2b 4b aa be e8 a6 35 3e
       0.3392254 -0.42299134 -0.33260474 0.17739451
000270 41 a4 e1 be dd a3 04 bf 54 ee fd be 93 b0 0c bf
       -0.44070628 -0.51812536 -0.49595892 -0.5495693
000280 d9 aa 8f 3e bb 75 0d bf c2 f4 3f 3e 4b 63 a2 be
       0.28060034 -0.5525777 0.18745711 -0.3171638
000290 74 f6 ce 3e 18 b5 de 3d ca 3f fd be 68 e1 38 be
       0.40422404 0.10874385 -0.4946273 -0.18054736
0002a0 d5 5b 9b 3e e6 30 13 bf 34 93 50 bd 9a db 12 3e
       0.303435 -0.5749649 -0.050921634 0.14341584
0002b0 24 73 fc be 0b 2c 88 be 90 b3 09 bc f1 be c0 3e
       -0.49306595 -0.26596102 -0.008404627 0.37645677
0002c0 a5 b1 0f 3f bd 4a 08 3e dc 60 42 be 4b c7 0c 3f
       0.5613044 0.1330976 -0.18982261 0.54991597
0002d0 83 4c 5a 3d e1 54 52 3e e4 21 89 be a8 bb 7a be
       0.053295624 0.20540191 -0.2678367 -0.24485648
0002e0 fe 69 0b bf 78 ae 65 3e 43 81 89 be 60 4f 96 bc
       -0.54458606 0.22429836 -0.2685643 -0.018348396
0002f0 a8 ea 2e 3e c0 bf 8e 3d 8e 0c 51 3d 79 61 8b 3e
       0.17081702 0.06970167 0.051037364 0.27222803
000300 bd 6d 37 3e 93 81 13 bf 8b c3 90 be da 70 96 be
       0.17912956 -0.5761959 -0.28274187 -0.29382974
000310 34 f8 91 be 2b b5 b9 be e8 60 00 bf 6a db 91 be
       -0.28509676 -0.36271033 -0.5014787 -0.28487712
000320 c0 8b ea be 60 b2 97 bd 8a da e9 be 2e 8b 04 bf
       -0.45809746 -0.07407069 -0.45674545 -0.5177487
000330 1d 99 23 be 1e ab d9 3d 16 20 d6 be 8e 1f 3d 3e
       -0.15976377 0.10628341 -0.41821355 0.18469068
000340 6c 86 6c be f9 d3 cd 3e 1f 40 d5 be de 09 30 be
       -0.23098153 0.40200785 -0.41650483 -0.17191264
000350 20 f7 37 3d 09 25 f5 be 8e a1 54 be 60 0a 74 3d
       0.04491341 -0.47879818 -0.20764753 0.059580207
000360 51 22 8f be c5 f4 95 3e 7c 64 d5 bd dc 42 15 be
       -0.2795587 0.29288307 -0.104195565 -0.14576286
000370 38 98 86 be 98 21 bc 3d f0 db 0b 3e ba 8a db be
       -0.2628801 0.09186095 0.13658118 -0.42879277
000380 fe 5d 75 be 44 75 09 be b6 0a 82 be d0 92 a7 be
       -0.23961636 -0.1342364 -0.25398797 -0.32729197
000390 93 f8 11 be 37 02 09 3f a5 60 f0 3e dd af 78 be
       -0.1425498 0.53519005 0.46948734 -0.24285837
0003a0 06 7e 8e 3e 3b b5 b0 3e f0 38 00 3e 6a 26 8d be
       0.27830523 0.34513268 0.1252172 -0.2756837
0003b0 aa 21 93 be 7d c6 eb 3d ca 69 8b be 24 36 12 bf
       -0.2873662 0.11512468 -0.27229148 -0.5711386
0003c0 20 e2 ec bc 64 06 e7 be e8 4f fb be 58 a3 f7 be
       -0.028916419 -0.45122063 -0.490844 -0.4836681
0003d0 ac 7b 12 3f 6f 3f 06 bf f0 a9 39 bd ef 41 41 3e
       0.5721996 -0.5244054 -0.04532808 0.18872808
0003e0 ef 11 95 3e 3e a8 86 3c 29 3b b8 3e 47 f9 f6 3e
       0.29115245 0.016437646 0.35982636 0.4823706
0003f0 c5 ab 6f 3d 1d 93 08 3e 5a 2d 20 3e 12 0d 1d 3e
       0.05851342 0.1333737 0.156423 0.15337017

fc1.bias f4 [128]
000000 ee 74 0a 3f b5 35 af 3e f8 08 0d 3e bc af 59 3f
       0.5408467 0.34220663 0.13772953 0.85033774
000010 0d 7a fa be 30 10 27 bf 75 72 95 be 62 aa ac 3e
       -0.48921242 -0.65259075 -0.29188886 0.33723742
000020 20 ed 69 bf 72 6f e2 3e d3 6d a7 3e f6 1f 47 bd
       -0.9137745 0.4422565 0.32700977 -0.048614465
000030 94 49 4e 3f f1 e1 fc be c8 66 0f 3e e0 41 8e 3d
       0.8058102 -0.4939113 0.14004052 0.069461584
000040 ca f3 ec 3e ec e3 00 bf 74 61 8e be e7 c5 9f 3e
       0.46279746 -0.5034778 -0.27808726 0.31205675
000050 09 70 63 bc 4f 4b ee be 48 0a c6 3e 40 38 4f bf
       -0.013881692 -0.4654183 0.3867972 -0.80945206
000060 3f c1 12 3f 58 c3 b5 3e dd 7e 03 3d fa 29 57 3f
       0.5732612 0.35500598 0.032103408 0.84048426
000070 80 0c cf be de f3 a5 be 46 fa f7 3e 0b 56 20 bf
       -0.40439224 -0.32412618 0.4843313 -0.6263129
000080 c8 4c c2 3e 3a fd 87 be d6 e5 ce be db 1a 04 3f
       0.37949204 -0.26560384 -0.40409726 0.5160348
000090 45 77 f5 3e fa 20 40 be 7c df f7 3e 8c 64 13 bf
       0.47942558 -0.1876258 0.48412693 -0.575753
0000a0 73 66 24 3f b4 ec 99 be bb e3 c3 be 1c bc 35 be
       0.64218825 -0.30063403 -0.38259682 -0.1774754
0000b0 28 32 21 3e c6 0f 20 3f 17 17 28 3d ad 1f 01 3f
       0.1574179 0.6252407 0.041037645 0.5043896
0000c0 01 eb 06 3f 08 91 3d bf f5 6c a7 be 08 8d 87 bd
       0.5270234 -0.74049425 -0.32700315 -0.066186965
0000d0 48 d1 27 be bd 65 aa 3e 6f a1 c4 be ef 8a 3c 3e
       -0.16388428 0.33280745 -0.38404414 0.18412374
0000e0 c2 f1 09 3e 3d 9c 16 be d5 c4 a0 be 0a c4 6c be
       0.1347113 -0.14708038 -0.3140017 -0.23121658
0000f0 17 20 cf be b8 f2 95 3d 0a cb 04 3f c0 c8 fd be
       -0.4045417 0.073216856 0.51872313 -0.49567223
000100 a9 fc 79 bd 36 19 0c bf 3a f3 1c be 30 39 ca 3e
       -0.06103197 -0.5472597 -0.15327159 0.39496756
000110 f6 53 08 be 96 ca 08 bf cc fe 67 be 6c 42 0c be
       -0.13313279 -0.5343412 -0.22655791 -0.13697213
000120 49 06 27 3e 1e d4 cf be f0 b8 2e 3f 16 e4 a2 3e
       0.16310991 -0.4059152 0.6825094 0.3181464
000130 c9 06 db be fa 50 be be 49 f6 d4 3e 1c 3f 04 3f
       -0.42778614 -0.37171155 0.4159415 0.516588
000140 06 cf 20 be 4d 4d 30 3d aa 65 3c 3f b8 cd 51 bf
       -0.15703973 0.04304247 0.7359263 -0.81954527
000150 14 e6 af be f3 1b bc 3e e6 2b 37 be 68 0b f7 be
       -0.34355223 0.36740074 -0.1788784 -0.4825089
000160 ea bf cd be da 36 0e be 44 8b ef 3e ba ac b3 3e
       -0.4018548 -0.13888112 0.4678594 0.35092717
000170 28 82 3a 3f c9 3b 13 bf c8 fd 2c be a7 61 a1 be
       0.7285485 -0.575131 -0.16893685 -0.31519815
000180 10 2d c2 bd 0d 79 72 bf 4c 01 7f 3e 08 a0 31 3f
       -0.09481251 -0.9471596 0.24902838 0.69384813
000190 17 58 96 bd 12 fe 05 bf f6 f8 8f 3e 55 5d fc be
       -0.073410206 -0.52340806 0.2811963 -0.49289957
0001a0 88 55 c9 3e 30 90 88 3d 49 ad 1f 3f bf 3c 07 3f
       0.39323068 0.066681266 0.6237379 0.52827066
0001b0 ff 17 6b bd 8b a4 ce 3e c6 c2 f9 3e 96 69 05 be
       -0.05739593 0.4035991 0.48781413 -0.13028559
0001c0 7b 52 15 3f 10 ac d4 3d 66 0d 64 be 28 3f 01 be
       0.5832898 0.10384381 -0.22270736 -0.12621748
0001d0 d2 89 4f 3e 90 52 ba be 38 ba dc be 0c 52 fb 3e
       0.20267418 -0.36391115 -0.43110824 0.49086034
0001e0 f9 8a 48 bf dc d9 0d bf 02 9e c9 be 64 a1 29 3e
       -0.78337055 -0.5541055 -0.39378363 0.16565472
0001f0 7c 3c 0d 3f fe ad 64 bf ce 7f 54 3e 50 57 47 bf
       0.55170417 -0.8932799 0.20751879 -0.77867603

fc2.weight f4 [64, 128]
000000 b1 c3 b8 b9 20 44 b3 3c d1 d1 95 3d 8e 1a ac bd
       -0.00035241016 0.02188307 0.0731541 -0.084035024
000010 a8 e6 96 bd d6 8a 95 3d e7 4f a2 bd 2f 5b a0 bd
       -0.07368213 0.073018715 -0.079253964 -0.07829892
000020 8e 6f 8f 3c 71 c5 f7 3c 0a d5 b5 bd 65 09 96 bd
       0.017509248 0.030245515 -0.088785246 -0.073260106
000030 84 7b 20 bd 3b 42 7a 3d 72 af 39 3d 88 50 4a bd
       -0.039180294 0.06109832 0.045333333 -0.049393207
000040 70 e7 e4 ba 70 96 48 bc 96 b3 22 3d ae df ae 3b
       -0.0017463993 -0.012242898 0.039722048 0.0053367233
000050 5a f6 b5 3c ef 40 9a 3d c2 a9 6e 3d c1 80 9a bd
       0.022212196 0.07531916 0.058267362 -0.07544089
000060 7c ef a5 bc 5d 56 ba bc 05 b7 22 3d 6a 13 31 3d
       -0.020255797 -0.02274626 0.039725322 0.043231405
000070 fb f6 9f bd 55 ab d5 bc eb 97 68 3d 37 2e 54 bd
       -0.0781078 -0.026082674 0.056785505 -0.051801886
000080 dc 74 92 bd 44 27 f0 bc 08 14 cc 3c 27 92 0d ba
       -0.071511954 -0.029315598 0.024911895 -0.00054005015
000090 ca de a9 3d 55 f6 83 3d e8 ee 23 3c 52 f0 67 3d
       0.08294447 0.064434685 0.01000569 0.05662567
0000a0 1b 41 9a bd 41 51 02 ba f5 88 a6 bd 15 3c 1c bd
       -0.07531949 -0.0004971214 -0.08131591 -0.038143236
0000b0 ae 9e 35 bd fd 79 18 3d a6 67 86 bd 35 ab 58 bd
       -0.044340782 0.037225712 -0.06562738 -0.05289765
0000c0 bc c7 08 3c 17 79 e4 3c 74 88 cb bc 88 02 00 3d
       0.008348402 0.027889771 -0.02484534 0.031252414
0000d0 86 92 7a 3d 3e f3 0f 3d a2 56 24 bd 2c 30 a4 bd
       0.061174892 0.035144083 -0.040121682 -0.080170006
0000e0 64 4b a4 3d 0b da b0 3d ec 4a cd bb 8d c1 a4 3d
       0.08022192 0.086353384 -0.006265035 0.080447294
0000f0 70 52 01 bb b7 b5 ac 3d 70 3e 4d 3c f4 96 61 bd
       -0.0019732974 0.08433097 0.012527093 -0.0550756
000100 da 86 b2 bd 38 84 3d bd 40 5a 7e bc 2a 71 68 3d
       -0.08717127 -0.04626867 -0.015524447 0.056748547
000110 00 8b 0e bc 9c e9 56 bb 3e bf ae bd 13 61 a1 3d
       -0.008700132 -0.003279305 -0.0853257 0.078798436
000120 14 d9 a6 3c b0 c2 d4 3c d3 f9 30 bd 94 9e 8d bc
       0.020367183 0.02597174 -0.043207 -0.01728753
000130 fb 29 34 bd ae 84 10 3d 6f 7a a8 bd 50 fe 16 bc
       -0.04398535 0.035282783 -0.08226477 -0.009215906
000140 92 dc 6f 3d e3 c6 82 3d 60 62 84 3d 3c c6 30 3b
       0.05855996 0.06385591 0.06464076 0.0026973626
000150 31 f4 ad bc 89 1c 28 bc 01 0a a5 3d b0 85 e6 3c
       -0.021234604 -0.01026071 0.08058549 0.028139919
000160 ac 1e bc 3c 66 0b 8a 3d d9 b1 fd bc 94 da 9c bd
       0.022963844 0.06740455 -0.030968593 -0.07658878
000170 13 bd ce ba ac b2 c7 3c e9 15 8e bd ae 3e 15 3d
       -0.0015772901 0.02437719 -0.06937773 0.03643673
000180 e7 d2 9f 3d 69 b9 b2 3d 0d de 31 bd a1 07 9c 3d
       0.07803898 0.087267704 -0.043424655 0.076186426
000190 99 33 24 bd dc 25 8f 3c d2 e8 40 3d 33 17 87 bd
       -0.04008827 0.017474107 0.047097035 -0.06596222
0001a0 ea 91 8e bc d8 db 34 bc aa 25 7d bd 4e d4 37 3c
       -0.017403562 -0.011038743 -0.061803497 0.011220051
0001b0 3a 1d 97 3c 4a 37 9c 3d 7c 15 c6 39 b2 9e 1f bd
       0.018446553 0.07627733 0.0003778151 -0.038969703
0001c0 54 bc e3 bc fb 72 8c bd 59 0e b3 3d 42 2a 82 bd
       -0.027799763 -0.06857868 0.08742971 -0.06355716
0001d0 a5 ec 5d bd 50 31 c6 3c 40 1f 97 bc 68 1a c9 bc
       -0.05418076 0.024193436 -0.018447518 -0.024548724
0001e0 85 9c b6 bd ca c2 ee bc b7 c0 78 bd d6 a7 1d 3d
       -0.089165725 -0.029145617 -0.060730662 0.03849014
0001f0 c6 89 6d 3d 56 97 29 bd b5 52 21 bd f0 7b 21 bc
       0.05799272 -0.04140409 -0.039385516 -0.009856209
000200 c3 99 47 3c 32 e6 d5 bc 2a 49 38 3d 5d ec 71 3d
       0.012182656 -0.026110742 0.04499165 0.059063304
000210 19 aa 97 3c 5d f1 9b 3b 55 b2 b5 bd ac 23 1b 3c
       0.018513726 0.0047589974 -0.08871905 0.009468954
000220 b1 62 ef 3c 03 d7 6d 3b 72 bf 3b bd 43 b3 96 3d
       0.029221864 0.0036291487 -0.045836873 0.0735841
000230 6a 11 cb 3d 5b 55 d3 3d 1f 56 8b bd 30 01 90 bb
       0.09915431 0.10319015 -0.06803536 -0.004394673
000240 23 f1 aa bd bb a9 83 bd 75 f7 10 3d 16 02 88 bd
       -0.083467744 -0.06428858 0.035392243 -0.06641023
000250 33 27 88 bd 2d 26 8b 3d cd 1e 6c bd 2c d9 b2 bd
       -0.06648102 0.06794391 -0.05764656 -0.087328285
000260 2f 27 52 bd e1 fa aa 3d 14 b4 11 bb 71 2d f9 3c
       -0.0513069 0.083486326 -0.002223258 0.030417176
000270 bc a7 b7 bd f0 d1 03 3d e4 87 c5 3d c3 f9 b7 bc
       -0.0896754 0.032182634 0.0964506 -0.022457963
000280 6a 78 38 bd 71 f9 ae bd f0 de f0 bc 39 5e f9 3d
       -0.04503671 -0.08543671 -0.02940318 0.12176175
000290 32 2b 50 3d 60 12 4d 3b 8a 68 42 bd 3f 79 b4 bd
       0.050822444 0.003129147 -0.047462977 -0.08812188
0002a0 1d 8f 58 3d ab 8e c4 3c dc 3d 06 be 20 df dd bb
       0.05287086 0.02399381 -0.13109535 -0.0067709833
0002b0 6e 18 04 3d 15 75 fb 3d 16 68 d7 bd 86 b4 8e 3d
       0.03224986 0.12278191 -0.105179 0.06968026
0002c0 6a 99 a8 b8 da e1 1c bd 80 c8 02 bd a9 b8 8d bd
       -8.03944e-05 -0.038301326 -0.031929493 -0.06919987
0002d0 a4 72 81 bd fd 93 93 3c 6f a1 08 3d 20 83 ba bd
       -0.06320694 0.018014902 0.03335708 -0.09107041
0002e0 62 bd 98 3d 0d d3 25 bd 17 7d c6 bc 06 cd 45 bd
       0.07457997 -0.040484477 -0.02422957 -0.04829123
0002f0 fc 75 a6 3c 2a 77 61 3d a0 29 60 bb fd bc 75 3d
       0.020319931 0.055045284 -0.0034204498 0.059994686
000300 9d cb c1 bd c5 c7 97 bd 01 d8 9b 3d 96 8d 1e 3d
       -0.09462664 -0.0741115 0.07609559 0.038709246
000310 c4 bf 90 bd f3 84 54 bd 00 09 5e bc de 42 02 3d
       -0.070678264 -0.051884603 -0.01355195 0.03180205
000320 ea c2 b0 bc 4f 57 8b 3d b7 49 0b bd ee 2d 97 bd
       -0.021577317 0.06803762 -0.034005847 -0.07381807
000330 e2 c9 6b bd 46 a8 98 3d 30 96 52 3d c5 99 17 bd
       -0.057565577 0.074539706 0.05141276 -0.03701188
000340 9f 3c 5b bd 58 cd 83 bd 00 c6 17 3c 33 83 91 bd
       -0.05352461 -0.064356506 0.0092635155 -0.071051024
000350 0d c0 3e 3c 2e c0 8b 3d 94 53 97 bd 68 81 d6 3c
       0.011642468 0.06823765 -0.07388988 0.026184753
000360 84 df 1f bd 66 0e b8 3c b9 45 4c bd 2e 35 8e bd
       -0.03903152 0.022467803 -0.04987118 -0.06943737
000370 ec 47 16 3c 93 fd 8b bd 25 db 98 3d 7b a6 0b bd
       0.009172421 -0.06835475 0.074636735 -0.034094315
000380 2c d9 ad 3c be 5f 7b bc 15 51 b1 bd b2 b6 e3 3d
       0.02122172 -0.015342651 -0.08658043 0.11118831
000390 f2 6d 24 3c e2 36 55 3d 4e 7b 91 bd 32 88 6e 3d
       0.010035979 0.052054293 -0.07103597 0.058235355
0003a0 f6 4d 1c be e6 f8 29 3d c5 77 04 3e b5 08 62 bd
       -0.15264115 0.041497134 0.12936313 -0.055184085
0003b0 d7 5b ac bb 1d 53 ce 3d 3c c3 eb 3c ba b5 8d bd
       -0.0052599716 0.10074446 0.028779618 -0.06919427
0003c0 2a fa e9 bc 60 5d b2 bd ed e8 47 bb 68 46 a0 bc
       -0.02856167 -0.08709216 -0.0030503825 -0.019564822
0003d0 5d b2 72 bc 5e f1 ac 3c d6 e2 67 3d 36 88 3b 3d
       -0.014813033 0.021111187 0.056612812 0.045784198
0003e0 66 07 f2 bc 5d bf 64 3b 87 1d 42 3d 6d 29 9e bd
       -0.029544543 0.00349041 0.04739144 -0.07722745
0003f0 55 c4 aa 3d c9 be 84 3d 6b cc c5 3d f2 52 85 3b
       0.083382286 0.06481702 0.0965813 0.0040687257

fc2.bias f4 [64]
000000 fd 4a a5 3d a5 63 7f 3b 9f 8b 4a bb 5f a3 e1 3c
       0.080709435 0.0038969305 -0.0030905975 0.027543722
000010 7e 72 e6 3a b3 da d2 3b 32 98 10 bc 2b be 31 bc
       0.0017581729 0.0064347624 -0.008825349 -0.010848562
000020 ea 85 10 bd b8 5b 0c bc b1 3a 95 bd 7a f0 ac 3c
       -0.03528396 -0.008566789 -0.07286585 0.021110762
000030 7c 50 39 3e 0d 77 89 be cc 03 27 bd 6a f9 95 be
       0.18097109 -0.2684864 -0.040775105 -0.2929185
000040 a9 ee 1a be 8d b9 2e bf f3 87 fe 3b 0e 9f 87 bd
       -0.15130104 -0.6825188 0.0077676713 -0.06622134
000050 91 1d 65 be 38 ff 17 3d 2c fc 3a be 93 67 a6 bd
       -0.2237456 0.03710863 -0.18260258 -0.08125224
000060 b0 86 e6 3b 9d c0 27 3d d3 cf 8c bb 69 e5 e5 3c
       0.007035099 0.040955175 -0.0042972355 0.028063493
000070 bd b0 bc bd 99 8a ca 3d 70 40 a7 3d ae 24 91 be
       -0.09213398 0.09889717 0.08166587 -0.28348297
000080 6a 0b cc bb 9b 85 2c 3d bf e4 4b be 49 07 a6 3d
       -0.0062269466 0.042119604 -0.19911478 0.08106858
000090 46 5b 3e 3c dc 09 df be 6d 9d 0e bd 4f ee 34 3d
       0.011618441 -0.4356221 -0.0348181 0.04417258
0000a0 0b d7 0a bd c7 a5 47 bd d1 bd 6e be 48 fd 14 bf
       -0.033896487 -0.048742082 -0.23314597 -0.58198977
0000b0 c8 63 cd bd 6e cb b3 bd 81 93 c1 be 66 27 3e 3d
       -0.100287974 -0.087790355 -0.3780785 0.046424292
0000c0 17 3f 8f bc 5f bf e2 bd 04 97 d4 3c bd 57 bd be
       -0.017486138 -0.110716574 0.025950916 -0.36981001
0000d0 79 4b 2f bd 6f f0 80 3d c2 9b 2b 3e 3a 9d 1a be
       -0.042796586 0.06295859 0.16758636 -0.1509904
0000e0 8f 54 7d 3b cd fc a5 3d ae 78 c1 bc 4d bd 23 3e
       0.0038655137 0.081048585 -0.023617115 0.15990181
0000f0 6a e5 02 bf dc 2a a3 3d 4b a3 34 3d a6 9f c8 3c
       -0.5113131 0.07967159 0.04410104 0.024490189

fc3.weight f4 [32, 64]
000000 19 a8 ef bd 87 30 a3 3c 52 07 0d bd 0b d9 e8 3c
       -0.11701984 0.0199206 -0.03443081 0.028423807
000010 30 1d 16 3d c8 65 df bd 5c 95 64 bd b9 02 a7 bd
       0.03664893 -0.10908085 -0.055806503 -0.08154816
000020 c8 69 f5 3d 62 ab d7 bd 07 37 e5 bd 49 c6 80 3d
       0.11983067 -0.105307356 -0.11192136 0.0628782
000030 04 de e1 bd 10 a0 23 bb f8 df 15 bd 23 f2 a6 bd
       -0.11028674 -0.002496723 -0.036590546 -0.08151653
000040 4c 7c 1f 3d 20 25 88 3b 4e e9 cb 3b a7 83 1f 3d
       0.038936898 0.0041548163 0.0062228804 0.038943913
000050 1c 93 d0 bd aa 10 ec bc db 78 64 3c 20 74 f2 3d
       -0.10184309 -0.02881654 0.01394483 0.11838555
000060 9e e6 da 3d 80 15 77 bd 5a 70 81 3c 74 ea 14 3d
       0.10688518 -0.06032324 0.015800644 0.036356404
000070 d0 54 d2 3d 46 29 81 3d 26 0d 70 3d 4e c7 bb bd
       0.10270083 0.063067004 0.05860629 -0.09168874
000080 4f ce aa bd d6 39 1a 3d 0e 1a 01 be cf 69 f3 3b
       -0.083401315 0.037652813 -0.12607595 0.007428385
000090 a2 35 8c bc a9 6e 31 be f0 59 f9 bc 91 9f 36 bd
       -0.017115418 -0.1732737 -0.030438393 -0.044585768
0000a0 a2 c4 a2 3d 11 e6 89 bc dd 7c b2 3d 5b eb e8 bd
       0.07947661 -0.016833337 0.08715222 -0.113730155
0000b0 8e 0a 32 bd a0 67 e6 bd ca b7 82 bd f4 c6 4b bd
       -0.043467097 -0.11250234 -0.06382711 -0.049750283
0000c0 8f c1 69 bd 4b be 1e bd 9f 86 ca 3d 01 4a f7 3c
       -0.057069357 -0.038755696 0.09888958 0.030186655
0000d0 4d d3 f5 bd fb e7 53 bd 85 e9 92 3d 49 c7 d6 bd
       -0.12003193 -0.051734906 0.071734466 -0.104872294
0000e0 57 30 d0 3d 70 f9 85 3c 14 cd 85 bd 53 38 91 3d
       0.1016547 0.016354293 -0.06533256 0.07090821
0000f0 25 25 30 bb fa ba 85 3d 38 53 27 3d f8 6a c4 3c
       -0.0026877609 0.065298036 0.040850848 0.023976788
000100 a9 47 a8 3d ec 6a 99 bb cf 23 85 3d 33 23 cc bd
       0.08216793 -0.0046819355 0.065009706 -0.09967651
000110 c7 3b b4 3d 00 5e c4 3a 98 d4 f2 bd 55 46 da bd
       0.08800464 0.0014981627 -0.11856955 -0.10657946
000120 d9 a0 fd 3d d4 c3 cf bd 25 e3 a5 bd 7c 46 e3 bb
       0.12384195 -0.10144773 -0.08099965 -0.0069358926
000130 de 7a 10 3e e2 a1 2e 3d 10 a1 62 3d 45 0d 4d 3d
       0.1410937 0.042634852 0.055329382 0.050061483
000140 cc ad b3 bd 44 e6 42 3b e5 9e db bd 63 f5 c4 bd
       -0.087733835 0.00297393 -0.10723666 -0.09617116
000150 5d 22 5e bd 61 3e 0a bd 05 46 47 3d 00 21 df bb
       -0.05423199 -0.033750895 0.04865076 -0.006809354
000160 60 39 40 bd 6a 07 88 bd 59 1c 15 3d c3 3d dc 3d
       -0.046929717 -0.06642039 0.036403988 0.107539676
000170 5d 4d 0a 3d eb a0 9e bd eb 2e 3e bd 85 f1 87 3c
       0.033765186 -0.077455364 -0.046431463 0.016594658
000180 25 e2 8b bc 47 92 d5 bd 83 88 8b 3d 80 f0 a7 bc
       -0.017075608 -0.10428291 0.06813147 -0.020500422
000190 c8 51 aa bd 2a e1 dc 3d 6c 69 28 3d 31 9b 91 3d
       -0.0831638 0.10785134 0.041116163 0.071096785
0001a0 60 c5 96 3c fe 56 bb 3d c1 71 c1 bd 3d 18 e4 3d
       0.018404663 0.09147452 -0.09445525 0.111374356
0001b0 2a a3 f2 bd 8a b4 b4 3c b2 31 e0 bd 09 cc e5 3d
       -0.11847527 0.022058744 -0.10946979 0.11220557
0001c0 6b 80 30 3d 6e b0 b3 3d 12 23 17 3e 87 8c 59 3d
       0.04309122 0.08773886 0.14759472 0.053112533
0001d0 52 c2 d0 3b fc 82 cf 3c 57 ac cf bb a5 3f 01 be
       0.006370821 0.025331013 -0.006337683 -0.12621935
0001e0 ff 64 d9 bb f8 b9 87 bd 51 fc 33 3d 5b d3 a8 3c
       -0.006634354 -0.066272676 0.0439418 0.020608595
0001f0 3a ca 9b 3c 81 6f b2 bd 09 38 d1 bd 2b 32 5b bb
       0.019017328 -0.08712674 -0.10215766 -0.003344665
000200 8e 63 13 bd b3 77 8c bd f5 21 d9 bd 31 93 27 3b
       -0.035983615 -0.06858768 -0.1060218 0.002556991
000210 9d 2a 11 bd ec e7 cc 3d e2 b5 4b bd d3 fc d0 bd
       -0.03544103 0.10005173 -0.049734004 -0.102044724
000220 1c d4 e9 3c 40 45 40 3b c3 94 f4 3d 54 56 c5 bd
       0.028543524 0.0029338151 0.119424365 -0.096356064
000230 66 57 23 3c 35 02 db bc 20 a5 00 bc 53 50 db 3d
       0.009969568 -0.02673445 -0.007851869 0.1070868
000240 80 e8 e1 bc 28 e4 82 3c a8 00 78 bd 78 cf d6 3c
       -0.027576685 0.015977934 -0.0605475 0.026221976
000250 4a ca f5 3d 91 e2 78 bd f3 5f ec bc 10 6b e1 bc
       0.12001474 -0.060762946 -0.028854346 -0.027516872
000260 28 5c 0e bd 88 5a 96 3d ee d1 4c bd 1f 9f d4 3d
       -0.034755856 0.07341486 -0.050004892 0.103819124
000270 81 58 28 bc b8 1a 84 bd 0b 82 40 bd 50 8f ff 3d
       -0.010275007 -0.06450409 -0.04699902 0.124785066
000280 7a 37 eb 3d cc 95 89 bd 6a 32 90 bd 68 c0 f4 3c
       0.11485191 -0.067180246 -0.07040866 0.029876903
000290 fa dc 04 3e d4 3d 29 bc 80 b7 86 3b 14 b8 de bd
       0.12974921 -0.010329682 0.0041112304 -0.10874954
0002a0 18 55 b2 3d 1a c6 cf bd 84 c9 af 3d e5 4b 02 3e
       0.087076366 -0.10145207 0.08583358 0.12724264
0002b0 03 98 f0 3c ac d9 ba 3d 04 e2 cd 3a d3 49 1b bd
       0.02936936 0.09123549 0.0015707617 -0.0379122
0002c0 dc 10 f6 3d 80 5a d7 3d 4c 44 68 bd e3 e4 18 bc
       0.120149344 0.105153084 -0.056705758 -0.009331915
0002d0 51 cd a3 3d 87 c4 fe bd 4a 62 33 3c 51 ed be bc
       0.07998145 -0.12439828 0.010948727 -0.02330652
0002e0 7f ff bf bc a4 70 6c 3d b2 bd c0 bc bd 4e 1b 3d
       -0.02343726 0.05772461 -0.023527954 0.037916888
0002f0 c9 9a bc 3d cb 2a 84 bd 52 87 86 3c 0b 04 f6 bc
       0.092092104 -0.064534746 0.016421948 -0.030031225
000300 50 7e ec bd d8 77 1e be d5 1d c4 bd 1e c5 a2 3d
       -0.1154753 -0.15475404 -0.095760025 0.07947753
000310 60 be 87 bb 7e 70 fe bd 25 01 93 3c 2e 12 f0 bc
       -0.0041425675 -0.124238 0.017944882 -0.029305544
000320 74 97 8b bd 3a 9a 9c 3d 68 6c b2 3d fc 02 d3 3d
       -0.06815997 0.07646604 0.08712083 0.103033036
000330 8b 00 19 3e e1 cb a7 bd ba 08 bc 3d 4d 3d ce bd
       0.14941613 -0.08193184 0.09181352 -0.10070286
000340 37 30 92 bd d0 eb a3 bd 58 0b d7 3c de d4 00 bc
       -0.071381025 -0.08003962 0.026250526 -0.0078632515
000350 08 22 63 bb 56 4b b2 3d b9 43 22 bd 18 2c 82 3c
       -0.0034657735 0.087057754 -0.039615367 0.015890166
000360 f4 9f 58 bd 44 55 fe 3d ed e7 bc 3b e8 17 8c bc
       -0.05288692 0.12418607 0.0057649524 -0.017101243
000370 61 7b ac bd f0 26 b9 3d 5d db 52 bd 9d 43 05 be
       -0.0842197 0.0904063 -0.051478732 -0.13014074
000380 55 f9 35 3d a7 36 b4 3d 5b 77 71 bc ec 8d 4d bd
       0.044427235 0.087994866 -0.014737929 -0.050184175
000390 7b f4 09 bd 6c 80 00 3d c0 dc 75 3c dc f7 5b 3d
       -0.03368042 0.031372473 0.015006244 0.053703174
0003a0 c0 c3 87 bc 45 c8 de 3c 7c 0c b7 bc 2b 3a 3b 3d
       -0.016572833 0.027195105 -0.02234482 0.04570977
0003b0 79 89 ed bd c0 d1 5a 3d 86 ee e3 3c 1b 37 88 bd
       -0.115984865 0.05342269 0.027823698 -0.066511355
0003c0 5e bc ed bd f0 09 47 3d 6d 58 c9 bc 40 d5 87 bd
       -0.11608194 0.04859346 -0.024578298 -0.06632471
0003d0 ed e7 5e 3c e8 8d 04 3d 4a 83 4f 3d e3 74 c0 bd
       0.0136051 0.032361895 0.050662316 -0.09397294
0003e0 62 33 98 bc 63 19 2b 3e 91 33 a2 ba 89 f3 00 bb
       -0.018579189 0.16708903 -0.0012374987 -0.0019676408
0003f0 58 6c 99 bd 7b cd 21 3d 3a 43 ec bd bd 2c c3 3d
       -0.07491368 0.039502602 -0.1153626 0.095300175

fc3.bias f4 [32]
000000 96 3c bb 3d cd 16 05 3e 88 71 b4 be 9b 99 48 3d
       0.09142415 0.12996979 -0.35242867 0.048974615
000010 11 5b 5b be 0e a9 a7 3d 7b 3c 99 bc 6d a7 ea 3e
       -0.21421458 0.081865415 -0.018705597 0.4583086
000020 88 42 09 3e 67 ad 37 be c9 58 39 be ff 40 88 bf
       0.13404286 -0.17937241 -0.18100275 -1.0644835
000030 25 12 41 3e 16 34 fd 3d 2b c9 06 be 08 7c 71 3d
       0.18854578 0.1236345 -0.13162677 0.058956176
000040 54 56 49 bd 89 d9 4c 3d ff e8 95 be 17 b4 02 bf
       -0.049154595 0.050012145 -0.29279324 -0.51056045
000050 ed d8 00 bf 68 b7 9f 3e d2 af 86 3d c9 2d f2 bc
       -0.50331 0.31194615 0.06576504 -0.029562848
000060 76 c6 94 bd d4 fa 47 3e 39 75 d2 ba 2b 02 2f bf
       -0.07264416 0.19529277 -0.0016056664 -0.68362683
000070 3c 9a b7 3e 51 f2 a2 bf 4c ad 1b be 95 ca a2 be
       0.3585986 -1.2730199 -0.15202826 -0.31795183

fc4.weight f4 [2, 32]
000000 02 94 08 3e 78 86 58 39 95 57 d0 3d ea 9d 42 be
       0.1333771 0.00020649459 0.10172955 -0.19005552
000010 b5 cd ab 3d 0a 0a 28 be 3d 5e b1 3c b6 65 05 3f
       0.08388845 -0.1641008 0.021651382 0.52108324
000020 c6 fc 07 be 95 f2 74 3d c2 7b 45 bd b9 25 7b 3e
       -0.13280019 0.059801657 -0.048213728 0.24526109
000030 04 2c 96 bd d3 ed b7 bd 0e a5 e5 bd 1e 70 f2 bd
       -0.07332614 -0.08980908 -0.11213122 -0.11837791
000040 48 87 16 bd a3 e1 0a 3e 1a 82 e1 3d 93 66 2f 3e
       -0.036750108 0.13562636 0.11011143 0.17128973
000050 55 ea cf 3d 0b 69 03 be 51 b8 45 be f6 62 f6 bd
       0.10152117 -0.1283304 -0.19308592 -0.12030594
000060 3f 00 80 bd 9a cb 96 3e 5f ab 30 3c a1 89 0c 3e
       -0.06250047 0.2945221 0.010783046 0.13724376
000070 ee 3e 94 bd 9c f4 b0 3e fe 91 de 3c 15 63 ab 3d
       -0.072385654 0.34561622 0.027169224 0.08368508
000080 c6 02 3a 3e 9a a4 15 be 6b fe 6e 3e 4a 15 61 be
       0.1816512 -0.14613572 0.2333924 -0.21980777
000090 86 b4 07 3e c3 e0 2b 3e df e2 0a be 99 74 03 3e
       0.13252458 0.16784959 -0.13563107 0.12837447
0000a0 fd f0 aa 3c b3 62 9d bd 0e 26 4b be a1 ef 6e 3c
       0.020866865 -0.07684841 -0.19838735 0.014583499
0000b0 30 bc 99 be 4c 3b 63 be 17 e0 48 be b6 48 92 3e
       -0.30026388 -0.22190589 -0.19616733 0.285711
0000c0 fc af 09 3d dd 82 9b 3e 94 ce 03 3f 63 5c c0 be
       0.033615097 0.30373278 0.5148709 -0.37570485
0000d0 cc 09 36 be 00 d5 16 bf c4 f0 92 3d c2 07 d0 bd
       -0.17777175 -0.5891876 0.07174829 -0.1015773
0000e0 3e d7 ba 3d c9 66 0f 3d 09 83 16 be f8 88 80 be
       0.091230854 0.035010133 -0.14698423 -0.251045
0000f0 c8 60 96 bd ca 69 34 bc b9 6a 58 be 90 60 86 be
       -0.07342678 -0.01101155 -0.21134461 -0.26245546

fc4.bias f4 [2]
000000 a2 20 91 bf f4 0d 80 3e
       -1.1338084 0.25010645
