models/ddqn/action_file/ddqn_model.pth (torch, 46884 bytes, 8 tensors)

fc1.weight f4 [128, 3]
-0.06502229 0.05433297 -0.0040990114 -0.05408901 -0.22361037 -0.49254552 0.02222249 0.012925117
-0.31362438 -0.07764992 -0.18854985 0.09483659 0.13770817 0.48545724 0.35759312 -0.28447184
0.29801816 -0.02346772 -0.1462779 -0.0038152337 -0.49670342 -0.33216763 -0.22778568 -0.4411805
0.49939984 0.3151551 -0.43396026 0.018134339 -0.11103341 0.47304133 -0.10068592 0.53564805
-0.092887074 0.22784203 0.22753827 0.13144468 -0.15908277 0.22952296 0.47940564 -0.015263796
-0.31967324 -0.0009961724 0.23952056 0.092856854 -0.5079185 0.27512246 -0.5047162 0.43582535
-0.20426196 -0.34993684 -0.43724167 0.13858719 0.36698657 -0.5141749 -0.33839566 -0.18815154
0.23498082 -0.3204834 0.04512161 -0.54252905 -0.31147483 -0.10816178 0.0035911202 -0.25157523
0.19375104 0.43470716 0.3905403 0.045923766 0.1225236 0.4548109 0.4692856 -0.47899288
0.18914385 -0.19334528 -0.11579074 0.43589404 -0.33632115 0.5124673 0.12582323 -0.4393196
0.08823341 0.026298927 0.38426098 0.37057507 -0.2757152 -0.5060559 -0.16400665 0.42625806
0.0010793494 -0.16759565 0.41093972 -0.069837175 0.5351888 0.08696229 0.060258906 -0.008933137
0.19687627 -0.60581195 0.10894604 0.51732415 -0.36305028 0.5370006 -0.046697397 0.16516857
0.019335493 0.55328035 -0.076679446 0.4087186 0.14487499 0.2511054 0.36790898 0.07962286
0.35429332 -0.45640314 -0.13352928 0.4843704 -0.013152579 -0.2899051 0.05624962 -0.2953397
0.5007042 0.4458444 0.36911526 0.26692966 -0.062257037 -0.5786931 0.17076693 0.15992558
0.17839786 -0.5197446 0.550283 0.4132284 0.3268043 -0.19266133 -0.18162838 -0.47479314
-0.43793565 -0.0886803 0.23538531 -0.39594743 0.11798466 0.2985479 -0.02628132 -0.42944756
-0.0046042493 0.43340477 0.38388622 0.07920101 0.46704707 0.30009797 -0.2681707 -0.36711228
-0.30054444 0.50809324 0.3596371 0.35746667 0.21477999 -0.07609587 0.3766261 0.30272073
0.2682359 -0.28974771 0.0924977 0.35135362 0.36425936 0.30283526 0.22046493 -0.43307027
0.4588065 -0.21348073 -0.54253197 0.44483232 0.08835043 0.19857661 0.19867153 0.2224464
0.00047026612 -0.22786391 0.5387619 0.16961725 -0.16225421 0.21222708 0.2650575 0.48387456
0.07753842 -0.04929034 0.30844197 -0.001300831 0.28162578 -0.25255138 0.34278703 -0.48537892
-0.571696 0.3485772 -0.119243026 0.18990037 -0.52940345 0.32291582 -0.50505584 -0.028179646
0.4310292 0.085492186 0.50521225 0.2793721 0.41204324 0.12759662 0.087406546 0.14430073
0.473805 -0.22524342 0.37313572 -0.31350973 0.4394998 0.4891942 0.091260724 -0.28471172
0.36439794 0.3951938 -0.49462354 0.20100991 0.1338044 -0.14659867 -0.53735566 -0.37792546
0.5650611 0.012933927 0.26821965 -0.24754982 0.1978879 0.35440835 0.1657633 0.40148515
-0.27577457 -0.41712186 -0.4975366 -0.10712981 -0.50122017 0.3250855 0.008448216 -0.47396067
-0.45548967 0.18565041 -0.44359976 0.36054158 0.45675266 0.30014792 -0.1306627 0.21228123
0.4372759 0.1045496 -0.14404646 0.5234544 0.401802 -0.28271338 -0.104488045 0.022159694
00000000: 682a 85bd 408c 5e3d 0051 86bb 708c 5dbd
00000010: 1efa 64be ed2e fcbe f00b b63c dfc3 533c
00000020: 6093 a0be ec06 9fbd 3613 41be b039 c23d
00000030: 5f03 0d3e da8d f83e 7216 b73e 4ba6 91be
00000040: d695 983e 603f c0bc e0c9 15be 0009 7abb
00000050: e94f febe e011 aabe a640 69be 69e2 e1be
00000060: 56b1 ff3e 025c a13e 0a30 debe 778e 943c
00000070: 7c65 e3bd 7932 f23e 6b34 cebd 3b20 093f
00000080: 943b bebd 6c4f 693e cbff 683e 6f99 063e
00000090: 98e6 22be 1108 6b3e a874 f53e 0015 7abc
000000a0: 36ac a3be 0092 82ba e144 753e bc2b be3d
000000b0: f206 02bf dadc 8c3e 1535 01bf 8024 df3e
000000c0: 0c2a 51be ec2a b3be 24de dfbe cde9 0d3e
000000d0: aae5 bb3e f7a0 03bf 3242 adbe ccaa 40be
000000e0: d09e 703e 6616 a4be 70d1 383d 2fe3 0abf
000000f0: a179 9fbe ec83 ddbd 0059 6b3b 78ce 80be
00000100: ac66 463e f091 de3e e6f4 c73e 8f1a 3c3d
00000110: a7ed fa3d f9dc e83e 3446 f03e 8e3e f5be
00000120: edae 413e 4efc 45be b223 edbd 812d df3e
00000130: 4932 acbe 0f31 033f ced7 003e 80ee e0be
00000140: b8b3 b43d d970 d73c dbbd c43e 04bc bd3e
00000150: 8b2a 8dbe e18c 01bf 5cf1 27be 7f3e da3e
00000160: f578 8d3a 329e 2bbe b166 d23e cb06 8fbd
00000170: 2202 093f 4919 b23d 0bd2 763d 4b5c 12bc
00000180: ef99 493e 7e16 1bbf 1a1f df3d 5b6f 043f
00000190: bae1 b9be df78 093f c545 3fbd f321 293e
000001a0: 7865 9e3c c8a3 0d3f 1d0a 9dbd 9043 d13e
000001b0: 1c5a 143e e390 803e 915e bc3e 4f11 a33d
000001c0: ef65 b53e acad e9be e6bb 08be 66ff f73e
000001d0: ea7d 57bc 716e 94be 0066 663d c436 97be
000001e0: 272e 003f b845 e43e adfc bc3e 01ab 883e
000001f0: 3c01 7fbd 3b25 14bf 87dd 2e3e 88c3 233e
00000200: eead 363e fb0d 05bf 59df 0c3f ac92 d33e
00000210: e552 a73e 0349 45be cafc 39be 1618 f3be
00000220: 1a39 e0be 049e b5bd d908 713e 9fb9 cabe
00000230: f1a1 f13d 45db 983e ec4b d7bc 8de0 dbbe
00000240: 3edf 96bb 3be7 dd3e bc8c c43e 2434 a23d
00000250: cb20 ef3e 71a6 993e ac4d 89be 24f6 bbbe
00000260: f6e0 99be 6612 023f 5b22 b83e df05 b73e
00000270: 49ef 5b3e 27d8 9bbd 23d5 c03e 36fe 9a3e
00000280: 3756 893e d059 94be 6f6f bd3d 9fe4 b33e
00000290: 3480 ba3e 390d 9b3e 8fc1 613e 63bb ddbe
000002a0: b0e8 ea3e b19a 5abe 60e3 0abf 10c1 e33e
000002b0: 12f1 b43d ab57 4b3e 8d70 4b3e fdc8 633e
000002c0: 0d8e f639 2855 69be 4dec 093f 25b0 2d3e
000002d0: f825 26be 0e52 593e 9eb5 873e 68be f73e
000002e0: 77cc 9e3d abe4 49bd 1bec 9d3e a580 aaba
000002f0: 4131 903e 6a4e 81be c881 af3e 9683 f8be
00000300: ab5a 12bf b678 b23e b035 f4bd 3e75 423e
00000310: fc86 07bf 3955 a53e 574b 01bf 00d9 e6bc
00000320: dcaf dc3e 8716 af3d 9755 013f dc09 8f3e
00000330: 55f7 d23e b0a8 023e 3402 b33d 92c3 133e
00000340: 9296 f23e 36a6 66be a50b bf3e 5984 a0be
00000350: 1e06 e13e aa77 fa3e e7e6 ba3d bcc5 91be
00000360: 5e92 ba3e d756 ca3e 4c3f fdbe 8bd5 4d3e
00000370: 0504 093e f61d 16be 2490 09bf 727f c1be
00000380: d8a7 103f d2e8 533c 1654 893e b37d 7dbe
00000390: 20a3 4a3e 0375 b53e dbbd 293e 768f cd3e
000003a0: 5332 8dbe ff90 d5be 1ebd febe e066 dbbd
000003b0: f74f 00bf 9b71 a63e 636a 0a3c f9aa f2be
000003c0: f135 e9be 241b 3e3e 821f e3be e898 b83e
000003d0: 7cdb e93e fdac 993e 71cc 05be 4060 593e
000003e0: a0e2 df3e 1a1e d63d ea80 13be 1c01 063f
000003f0: feb8 cd3e cfbf 90be d4fd d5bd 3f88 b53c

fc1.bias f4 [128]
-0.388517 -0.12758881 -0.6013946 0.38900316 -0.46645114 -0.5131235 0.0060919523 0.4859569
-0.42089042 -0.33442006 0.027508471 0.3470993 0.32913682 -0.44882947 0.47534555 0.5469052
-0.56804466 -0.121420525 -0.074796736 0.37439972 0.2244131 -0.102282524 -0.13463412 -0.24956948
-0.40408784 -0.09371455 -0.22401713 0.20204905 -0.023769498 -0.040537138 -0.15967609 -0.55165064
-0.4055025 0.31947413 -0.20336683 0.38576815 0.027928924 -0.18091756 0.029319532 -0.5393314
-0.5877032 -0.13048072 -0.26129812 -0.035233527 -0.50302213 -0.06376612 0.55383396 -0.5315333
-0.041719925 0.48764968 0.31515056 -0.2222035 -0.42815873 -0.10926213 -0.037606373 0.25989294
0.17750365 0.27676216 0.05461052 -0.06378465 0.16896409 -0.24307847 0.16266946 0.32957196
-0.4871652 -0.5093149 -0.3240374 0.032342143 0.032725543 -0.28911385 0.19218066 0.54158235
0.14164466 -0.0498173 -0.06292939 -0.08646142 0.5310171 0.5273816 0.5151273 0.11812447
0.41501242 0.34719816 -0.51633 -0.31223893 -0.45632136 -0.24259771 -0.19358587 0.3819843
0.18044615 -0.20578685 0.37118512 0.35187554 0.47893333 0.0024402738 -0.104635514 -0.19793208
-0.46410868 -0.33267006 -0.33734792 0.08778724 0.06709331 0.31066522 -0.062263787 -0.46604386
-0.17076911 -0.14004976 0.49239063 -0.32557356 0.56531894 -0.30888298 0.013582871 0.067427814
0.0642083 -0.03980321 -0.54048425 -0.17262149 -0.45399162 0.28234166 0.3693439 0.24609724
0.544556 0.025533501 0.3095277 -0.4680537 0.45487633 -0.01741302 0.44845778 -0.5519441
00000000: b3eb c6be a4a6 02be fff4 19bf 6c2b c73e
00000010: afd2 eebe 105c 03bf 009f c73b 58cf f83e
00000020: f37e d7be 1b39 abbe 7259 e13c 00b7 b13e
00000030: 9f84 a83e facc e5be 7e60 f33e fb01 0c3f
00000040: 606b 11bf 53ab f8bd 082f 99bd 52b1 bf3e
00000050: 8ccc 653e 8079 d1bd 87dd 09be 248f 7fbe
00000060: 9ae4 cebe 6aed bfbd bf64 65be f2e5 4e3e
00000070: 40b8 c2bc 450a 26bd 2182 23be fa38 0dbf
00000080: 069e cfbe 1d92 a33e 653f 50be 6783 c53e
00000090: 33cb e43c 7442 39be 842f f03c 9f11 0abf
000000a0: b873 16bf bd9c 05be dec8 85be 0851 10bd
000000b0: 0fc6 00bf d097 82bd 10c8 0d3f 9112 08bf
000000c0: 83e2 2abd 38ad f93e 6a5b a13e 5089 63be
000000d0: 9f37 dbbe d3c4 dfbd 2409 1abd b010 853e
000000e0: 84c3 353e c5b3 8d3e 48af 5f3d 87a1 82bd
000000f0: ec04 2d3e 90e9 78be d392 263e a8bd a83e
00000100: b86d f9be 7662 02bf 3be8 a5be 3279 043d
00000110: 380b 063d bb06 94be 02cb 443e 24a5 0a3f
00000120: 4c0b 113e 3a0d 4cbd 20e1 80bd af12 b1bd
00000130: bdf0 073f 7b02 073f 62df 033f 3eeb f13d
00000140: 827c d43e f5c3 b13e 342e 04bf c8dd 9fbe
00000150: f4a2 e9be 896b 78be 603b 46be 7293 c33e
00000160: e0c6 383e cab9 52be fa0b be3e 0829 b43e
00000170: c036 f53e 00ed 1f3b 254b d6bd b5ae 4abe
00000180: a79f edbe bb53 aabe deb8 acbe ccc9 b33d
00000190: 3868 893d 830f 9f3e 5008 7fbd 4d9d eebe
000001a0: 19de 2ebe 3469 0fbe a01a fc3e 94b1 a6be
000001b0: beb8 103f e925 9ebe b18a 5e3c 9817 8a3d
000001c0: a47f 833d b108 23bd 2d5d 0abf b0c3 30be
000001d0: 9771 e8be 168f 903e a51a bd3e ea00 7c3e
000001e0: 0668 0b3f a22b d13c 6a7a 9e3e bca4 efbe
000001f0: 8de5 e83e c0a5 8ebc 429c e53e 354c 0dbf

fc2.weight f4 [64, 128]
0.06994458 0.0039443225 -0.124500796 0.011030652 -0.10996859 -0.092841186 -0.049836434 -0.011652634
-0.048064917 -0.01318605 -0.101060726 -0.0019721382 -0.11814161 0.028131038 -0.06707006 -0.039232306
-0.033952024 -0.116493195 -0.021279857 0.076818846 -0.017080776 -0.12434974 -0.019915605 -0.013096129
-0.118564114 0.038411375 -0.12011115 -0.11312106 0.016241267 -0.11053272 -0.049684986 -0.0651899
-0.09319644 0.028307978 0.0012091385 -0.1135789 0.033680625 0.044318523 -0.10345885 0.07141986
0.038699325 -0.016056478 -0.069930755 0.021998355 -0.120767795 -0.06110883 -0.028443601 -0.110682435
-0.04186344 -0.10778027 0.0691373 0.022389835 -0.0335545 0.042619996 0.044658713 -0.03943302
-0.061283708 -0.015837364 -0.0073994533 -0.027741069 0.005495122 -0.008485925 0.040431898 -0.1054881
0.019013032 -0.04051113 -0.07840334 0.019088691 0.039542135 0.045774367 -0.08750225 -0.029907038
-0.12131311 -0.07729934 -0.02826294 0.014516823 -0.11280896 0.019805782 0.033916138 0.008348708
0.059814803 -0.036854953 -0.056898165 0.0448502 0.042343676 0.037158698 0.012930013 -0.017195541
0.0048003383 0.0373073 -0.084189676 0.07216998 -0.033294998 0.00014895946 -0.10133084 -0.08801588
0.013508471 0.040473804 -0.008798654 0.02977818 0.0049586594 -0.07686084 0.016513757 0.037980273
0.0043093953 -0.030587723 0.04278267 -0.018659376 -0.12306493 0.065849714 -0.035008907 -0.029215785
0.028818637 0.021537783 -0.11436262 -0.051435214 -0.013670053 -0.01193048 -0.005307369 -0.13215137
0.033322852 -0.039769307 -0.06027642 -0.06096738 -0.0646555 -0.032837927 -0.101949215 -0.04425093
0.058020376 -0.046445783 -0.018805882 -0.023807988 -0.04624247 -0.09349988 0.061817534 0.05254043
0.019579295 0.040335305 0.039126713 -0.081509404 -0.047826517 -0.049342453 -0.073101155 -0.112614684
-0.08767064 -0.06056317 0.015053138 0.086734556 -0.07077835 -0.09278166 -0.024680842 0.033291034
-0.05467495 0.03257479 0.026275832 -0.024355266 -0.026079025 -0.07338227 0.006248991 -0.024270464
-0.011748235 -0.08935647 -0.06990573 -0.054163005 0.034072503 0.010992879 -0.097568095 -0.018418707
0.023866156 0.005306024 -0.018387366 -0.033063944 -0.12583838 -0.05643148 -0.07057975 -0.058389634
-0.033926178 -0.11519521 0.06454719 -0.009009669 -0.0039429027 -0.015693346 -0.045498863 0.038415078
0.022243759 -0.08837956 -0.037865736 0.036390442 0.055847652 -0.009592446 0.04233575 -0.09468295
-0.012775935 -0.015678432 -0.026174508 -0.10986896 -0.0040599746 -0.1253511 -0.08920759 -0.07475493
-0.040637873 -0.058521528 0.08359141 -0.093778275 -0.020395529 -0.011977975 0.018926643 0.04376047
0.07916265 -0.07802799 0.06962573 -0.11623749 -0.03515029 0.015322222 0.062129267 -6.4401946e-05
-0.029156083 -0.021079548 -0.06790615 0.050467364 0.032192364 -0.0070225 -0.013518094 -0.022139983
0.014136114 -0.07533526 -0.06445572 -0.024338845 -0.040434904 0.03909964 -0.075219564 0.03445642
0.02260366 0.005043716 0.0059691295 -0.07725864 0.018286608 -0.05543891 0.01837778 -0.0751687
0.027169995 -0.05013932 -0.02973114 0.051618822 -0.122340865 -0.118407816 -0.12398996 -0.019691687
-0.08339483 0.01916874 0.0790258 -0.03687647 -0.09588538 -0.05159638 0.0332929 0.035657387
00000000: 1b3f 8f3d 603f 813b 46fa febd e8b9 343c
00000010: 3637 e1bd 8523 bebd 4a21 4cbd b0ea 3ebc
00000020: b8df 44bd 4d0a 58bc edf8 cebd fd3e 01bb
00000030: 3af4 f1bd 1073 e63c 075c 89bd 0eb2 20bd
00000040: 4711 0bbd fc93 eebd 1853 aebc 3353 9d3d
00000050: fcec 8bbc 14ab febd 0d26 a3bc 2591 56bc
00000060: bed1 f2bd 3f55 1d3d d6fc f5bd 04ac e7bd
00000070: 680c 853c fb5e e2bd 7c82 4bbd 4882 85bd
00000080: c6dd bebd 22e6 e73c f57b 9e3a 0e9c e8bd
00000090: b2f4 093d 5787 353d 3ce2 d3bd 9344 923d
000000a0: 2f83 1e3d e088 83bc db37 8fbd e535 b43c
000000b0: 1b55 f7bd 414d 7abd 8e02 e9bc 79ad e2bd
000000c0: 0079 2bbd e7bb dcbd db97 8d3d e36a b73c
000000d0: 7270 09bd 4e92 2e3d 0eec 363d 8584 21bd
000000e0: a004 7bbd 5cbd 81bc 1d77 f2bb 3d41 e3bc
000000f0: 6d10 b43b 8d08 0bbc eb9b 253d 250a d8bd
00000100: 38c1 9b3c 00ef 25bd ee91 a0bd e35f 9c3c
00000110: eff6 213d e77d 3b3d 6134 b3bd 9bff f4bc
00000120: 0273 f8bd 1e4f 9ebd ae87 e7bc f8d7 6d3c
00000130: 6208 e7bd bc3f a23c a6eb 0a3d 05c9 083c
00000140: 5e00 753d 38f5 16bd 0d0e 69bd d8b4 373d
00000150: 9070 2d3d b833 183d 68d8 533c aadd 8cbc
00000160: 284c 9d3b 8acf 183d a36b acbd dbcd 933d
00000170: 5660 08bd 0032 1c39 8b86 cfbd ab41 b4bd
00000180: a252 5d3c dcc7 253d 3b28 10bc 5ff1 f33c
00000190: 407c a23b 3769 9dbd dc47 873c 3491 1b3d
000001a0: d435 8d3b 1b93 fabc e23c 2f3d 8cdb 98bc
000001b0: 7709 fcbd 37dc 863d 8065 0fbd f155 efbc
000001c0: 1015 ec3c 0170 b03c f336 eabd bbad 52bd
000001d0: 5cf8 5fbc 0f78 43bc 70e9 adbb b052 07be
000001e0: 8b7d 083d 24e5 22bd 68e4 76bd eeb8 79bd
000001f0: 1a6a 84bd 1081 06bd c0ca d0bd 7740 35bd
00000200: c6a6 6d3d ef3d 3ebd cb0e 9abc f808 c3bc
00000210: bf68 3dbd dd7c bfbd 6234 7d3d a234 573d
00000220: c264 a03c a236 253d 5543 203d 67ee a6bd
00000230: bde5 43bd 501b 4abd 0fb6 95bd 87a2 e6bd
00000240: aa8c b3bd 1611 78bd 70a1 763c e3a1 b13d
00000250: 3df4 90bd 5004 bebd 7a2f cabc 2e5c 083d
00000260: d7f2 5fbd 256d 053d 6a40 d73c b284 c7bc
00000270: aea3 d5bc 7249 96bd 56c4 cc3b dad2 c6bc
00000280: ab7b 40bc 8600 b7bd bc2a 8fbd 07da 5dbd
00000290: 9c8f 0b3d 7a1b 343c c8d1 c7bd d4e2 96bc
000002a0: f582 c33c 28de ad3b 1aa1 96bc 0f6e 07bd
000002b0: c7db 00be b224 67bd 1e8c 90bd f829 6fbd
000002c0: 2df6 0abd 77eb ebbd 5131 843d 4a9d 13bc
000002d0: 7733 81bb 558f 80bc 045d 3abd 2159 1d3d
000002e0: 8b38 b63c 5800 b5bd 1a19 1bbd 250e 153d
000002f0: 82c0 643d a229 1dbc 4068 2d3d 22e9 c1bd
00000300: 2852 51bc 0e70 80bc ec6b d6bc fa02 e1bd
00000310: 8909 85bb 0a5c 00be 78b2 b6bd 1d19 99bd
00000320: e673 26bd 45b4 6fbd f931 ab3d d30e c0bd
00000330: 8614 a7bc 453f 44bc 0c0c 9b3c 2e3e 333d
00000340: 0720 a23d 24cd 9fbd ef97 8e3d ec0d eebd
00000350: c0f9 0fbd 0f0a 7b3c 427b 7e3d 880f 87b8
00000360: bdd8 eebc 04af acbc 6112 8bbd deb6 4e3d
00000370: 24dc 033d 001d e6bb ff7a 5dbc e95e b5bc
00000380: 299b 673c 5f49 9abd 5c01 84bd 4262 c7bc
00000390: 129f 25bd f226 203d b70c 9abd 2d22 0d3d
000003a0: 502b b93c c245 a53b b098 c33b c739 9ebd
000003b0: cccd 953c e913 63bd 008d 963c 0cf2 99bd
000003c0: 9c93 de3c e35e 4dbd b88e f3bc 426e 533d
000003d0: d98d fabd cc7f f2bd 73ee fdbd 7650 a1bc
000003e0: e9ca aabd c307 9d3c 47d8 a13d c80b 17bd
000003f0: 8e5f c4bd ba56 53bd 235e 083d 7b0d 123d

fc2.bias f4 [64]
-0.03937218 -0.0009032891 -0.108735755 0.04023354 -0.057369698 -0.038599517 -0.03319866 0.039883222
-0.04322428 -0.0056785047 -0.039918326 0.015026722 0.043406583 0.018966896 0.00078004884 0.026053505
-0.08443987 -0.07228609 -0.02061146 0.043220513 0.025589934 -0.08360888 -0.08681335 0.020747151
-0.086764246 0.050893284 0.009548947 -0.041059706 0.066646256 0.025095515 -0.073723756 0.017604236
-0.010769255 0.12731121 0.01814403 0.028136063 0.055166584 0.029246323 -0.04965897 0.07299254
0.020780573 0.037209965 -0.004368906 -0.1177674 0.012358318 -0.1088577 -0.021259628 0.055340055
0.041761167 -0.051867444 -0.08307681 -0.08002616 0.03143271 -0.07253023 -0.051458057 0.057612114
-0.031920843 -0.09283014 -0.07587669 -0.11830736 0.036391556 -0.069670156 0.06359546 0.0060514146
00000000: b944 21bd b5ca 6cba dab0 debd edcb 243d
00000010: 7dfc 6abd 871a 1ebd 51fb 07bd 975c 233d
00000020: f10b 31bd c012 babb 6681 23bd a432 763c
00000030: 1acb 313d 7760 9b3c 317c 4c3a 296e d53c
00000040: d0ee acbd bb0a 94bd 5dd9 a8bc fe07 313d
00000050: fba1 d13c 223b abbd 33cb b1bd eef5 a93c
00000060: 74b1 b1bd 7a75 503d 3073 1c3c 392e 28bd
00000070: d57d 883d 1c95 cd3c 7bfc 96bd c236 903c
00000080: 8871 30bc df5d 023e caa2 943c 9a7d e63c
00000090: 5bf6 613d fc95 ef3c 3467 4bbd 1d7d 953d
000000a0: 053c aa3c 7a69 183d 0a29 8fbb 0930 f1bd
000000b0: 8b7a 4a3c c9f0 debd ac28 aebc 41ac 623d
000000c0: c20d 2b3d f572 54bd 2d24 aabd c1e4 a3bd
000000d0: 96bf 003d bb8a 94bd afc5 52bd aefa 6b3d
000000e0: 6ebf 02bd ba1d bebd 3d65 9bbd 214b f2bd
000000f0: 500f 153d 3aaf 8ebd 563e 823d f24a c63b

fc3.weight f4 [32, 64]
0.046209548 -0.0143944435 0.10604851 -0.03935088 -0.052771237 0.023268213 0.012912378 -0.10767751
-0.038476348 0.0031782985 -0.0040058335 0.01068687 0.07257421 0.015692236 0.12717442 0.006983625
0.04747106 0.030169575 -0.12946667 0.09409709 0.06790694 -0.05701772 0.11631714 -0.004096163
-0.037256166 -0.045728236 -0.050733462 -0.031760164 -0.123832166 0.021103581 0.10394007 0.09380796
0.08066966 -0.13249779 -0.042464573 0.083191104 0.15085627 -0.041489586 0.15622953 0.10432029
0.12203972 0.06509513 -0.06728783 0.0035762535 0.040482875 0.1486341 0.010453568 -0.03825579
-0.038637973 -0.065883614 -0.10988979 0.09469391 -0.029519686 -0.109276205 0.0470614 -0.058214888
0.022874996 0.035628855 -0.12310466 -0.061064165 0.004370123 0.08890693 -0.04793827 0.032245804
-0.110237 0.026510596 0.03079538 0.062060736 -0.042745307 0.09252486 -0.113236934 0.10786245
-0.049602836 -0.06849046 0.0063667595 -0.028181624 0.04712276 -0.056993052 -0.017039463 -0.026076322
-0.05566755 0.05605498 -0.013358375 -0.06447002 -0.14020191 -0.12450816 -0.066036835 0.028787002
0.011625409 -0.0030644834 -0.041911155 -0.02021597 -0.0070133507 -0.07861391 -0.05620785 0.053681463
0.043734312 -0.04850722 0.042038176 0.09230542 -0.052413628 -0.086823404 0.04761924 0.12198731
-0.10819855 0.11455847 -0.049038857 0.118568406 -0.035513785 -0.11993453 0.09585646 -0.028079718
-0.02176337 0.12368773 0.0976879 -0.116560265 -0.0007530148 0.040153682 -0.011035711 0.056074604
-0.03430529 -0.053412482 0.10813321 -0.02686122 -0.020200059 0.013181283 0.09062513 -0.13571063
0.04791322 0.04183887 -0.06815152 0.009927855 -0.0055908957 0.05495935 -0.007066591 0.016055498
0.040427506 -0.052893296 -0.110699445 0.1265578 0.04534039 0.0053266594 -0.123976216 -0.0022626393
-0.045223027 0.0646583 0.12161444 -0.086406074 -0.063370466 -0.044658475 0.05473654 0.07163429
0.035751164 0.10506162 -0.07073979 0.121831305 0.008090243 -0.01215072 0.0943806 0.032980114
-0.09646699 0.012259772 -0.036707684 -0.004571679 0.013474673 0.03857732 -0.005119577 -0.025641799
0.034464613 0.014471754 0.030728921 -0.09959939 0.068840295 -0.02309294 -0.021918453 0.096381284
-0.05649061 0.10575841 -0.10907127 0.0065179868 -0.0006041371 -0.101809606 -0.0144673735 -0.035089254
-0.087677374 0.044127673 -0.065568894 -0.028222248 0.08395983 -0.08011725 0.13322455 0.06252702
-0.006462848 0.122841954 -0.04970636 -0.09916775 0.05690827 0.07822714 -0.018887596 0.08394097
0.00062303245 0.082236916 0.061107088 0.047935557 0.059413046 -0.105396 -0.09142726 -0.047285073
-0.060131118 -0.017731471 -0.06564079 -0.047081966 0.09833483 -0.08094704 0.082340956 -0.09364461
-0.040575415 0.080015644 -0.021345407 -0.0065811514 -0.015563056 0.033396628 -0.09343677 0.10875787
-0.040289342 0.10601254 0.052088365 0.004292892 0.054796368 0.12312929 -0.116533734 0.09709537
0.077168494 0.012817666 0.03067953 -0.0008552145 0.047360327 0.026852794 -0.16512293 0.053026266
-0.07382383 -0.02321057 0.003322497 0.078153245 0.10237382 -0.034342445 0.02670458 -0.09307742
-0.00786151 -0.016429862 0.00943358 -0.15455307 -0.02332227 0.1263799 -0.10778552 0.11769244
00000000: 3946 3d3d acd6 6bbc f62f d93d 632e 21bd
00000010: a726 58bd fb9c be3c 708e 533c 0786 dcbd
00000020: 6099 1dbd 004b 503b 5e43 83bb fb17 2f3c
00000030: caa1 943d 018d 803c 033a 023e e4d6 e43b
00000040: 0471 423d 2f26 f73c e992 04be fab5 c03d
00000050: cb12 8b3d 6a8b 69bd ae37 ee3d 1b39 86bb
00000060: ec99 18bd 884d 3bbd e4cd 4fbd f216 02bd
00000070: b89b fdbd 6be1 ac3c 88de d43d 631e c03d
00000080: 2236 a53d 80ad 07be 55ef 2dbd 1960 aa3d
00000090: 117a 1a3e fcf0 29bd a2fa 1f3e e0a5 d53d
000000a0: f6ef f93d 9850 853d 34ce 89bd 945f 6a3b
000000b0: 5fd1 253d 8a33 183e 7145 2b3c 1ab2 1cbd
000000c0: da42 1ebd fded 86bd e60d e1bd e1ee c13d
000000d0: 45d3 f1bc 34cc dfbd 74c3 403d bc72 6ebd
000000e0: 5864 bb3c 90ef 113d 4c1e fcbd 6b1e 7abd
000000f0: 4033 8f3b d614 b63d eb5a 44bd 2d14 043d
00000100: f0c3 e1bd c02c d93c 9846 fc3c 6633 7e3d
00000110: b415 2fbd ac7d bd3d c4e8 e7bd fde6 dc3d
00000120: 582c 4bbd ba44 8cbd 40a0 d03b 26dd e6bc
00000130: cc03 413d 8c71 69bd 5896 8bbc 039e d5bc
00000140: a803 64bd e899 653d 16dd 5abc dc08 84bd
00000150: 1791 0fbe 22fe febd 523e 87bd b8d2 eb3c
00000160: 8078 3e3c 80d5 48bb 08ab 2bbd f69b a5bc
00000170: 40d0 e5bb 5400 a1bd 343a 66bd 18e1 5b3d
00000180: c022 333d 82af 46bd 3930 2c3d a00a bd3d
00000190: acaf 56bd 78d0 b1bd 640c 433d 7cd4 f93d
000001a0: 3497 ddbd a29d ea3d f8dc 48bd fed3 f23d
000001b0: e776 11bd 3ca0 f5bd 6450 c43d 7007 e6bc
000001c0: 1849 b2bc fe4f fd3d 9810 c83d 26b7 eebd
000001d0: f865 45ba 3078 243d 20cf 34bc 7cae 653d
000001e0: b483 0cbd 0cc7 5abd f274 dd3d 100c dcbc
000001f0: 987a a5bc 4ff6 573c ab99 b93d baf7 0abe
00000200: a740 443d 3c5f 2b3d 0693 8bbd 71a8 223c
00000210: d533 b7bb 0e1d 613d dd8e e7bb d286 833c
00000220: 5097 253d a4a6 58bd 64b6 e2bd 5e98 013e
00000230: d8b6 393d 428b ae3b 3ee7 fdbd ca48 14bb
00000240: c83b 39bd 926b 843d fe10 f93d abf5 b0bd
00000250: 60c8 81bd ceeb 36bd 6c33 603d 00b5 923d
00000260: d06f 123d 8c2a d73d 06e0 90bd b182 f93d
00000270: f08c 043c d013 47bc 9e4a c13d 2816 073d
00000280: 7c90 c5bd 36dd 483c cc5a 16bd 06ce 95bb
00000290: e0c4 5c3c 4003 1e3d 20c2 a7bb c00e d2bc
000002a0: c42a 0d3d f01a 6d3c 38bb fb3c c4fa cbbd
000002b0: 24fc 8c3d 682d bdbc 548e b3bc 8d63 c53d
000002c0: b362 67bd de97 d83d c260 dfbd d694 d53b
000002d0: f45e 1eba 8e81 d0bd 9008 6dbc c0b9 0fbd
000002e0: 3290 b3bd 38bf 343d fc48 86bd 5832 e7bc
000002f0: 22f3 ab3d 8314 a4bd 046c 083e 2b0e 803d
00000300: 4cc6 d3bb 9094 fb3d e598 4bbd 7618 cbbd
00000310: a518 693d 8d35 a03d 29ba 9abc 3ee9 ab3d
00000320: 0053 233a d46b a83d 6d4b 7a3d 1358 443d
00000330: 185b 733d dcd9 d7bd 373e bbbd fead 41bd
00000340: 0c4c 76bd 9741 91bc ae6e 86bd 05d9 40bd
00000350: c563 c93d 90c7 a5bd 60a2 a83d bfc8 bfbd
00000360: 6832 26bd 3edf a33d 90dc aebc b3a6 d7bb
00000370: 30fc 7ebc e7ca 083d c75b bfbd 72bc de3d
00000380: 7006 25bd 1a1d d93d 9c5a 553d 63ab 8c3b
00000390: 2872 603d 362b fc3d 3da9 eebd f0d9 c63d
000003a0: 840a 9e3d 3001 523c a353 fb3c 7930 60ba
000003b0: e7fc 413d 64fa db3c fc15 29be 1232 593d
000003c0: f330 97bd 1824 bebc 40be 593b cf0e a03d
000003d0: 5ea9 d13d aaaa 0cbd 90c3 da3c 609f bebd
000003e0: 90cd 00bc eb97 86bc 4d8f 1a3c 2943 1ebe
000003f0: 580e bfbc bc69 013e a8be dcbd bc08 f13d

fc3.bias f4 [32]
-0.04781044 0.014868926 0.09869677 0.09787263 -0.051283598 -0.07151833 -0.006267448 -0.06774159
-0.043260608 0.091435395 0.11895175 -0.12861733 0.056272984 -0.009150746 0.049154516 0.15497339
0.011335358 -0.1183378 -0.042476922 -0.11417188 0.008546603 -0.0019523795 -0.012349257 0.115208715
0.07781489 0.060356278 0.054262407 -0.07255574 0.05527485 -0.020083174 0.0001502488 -0.054811176
00000000: e1d4 43bd cc9c 733c 8821 ca3d 7271 c83d
00000010: c00e 52bd 3478 92bd 2a5f cdbb 1abc 8abd
00000020: 0932 31bd 7b42 bb3d fa9c f33d 43b4 03be
00000030: 807e 663d 03ed 15bc 3f56 493d 58b1 1e3e
00000040: f0b7 393c 175b f2bd 48fc 2dbd f2d2 e9bd
00000050: 0d07 0c3c fce6 ffba 8a54 4abc 8cf2 eb3d
00000060: 6a5d 9f3d 2538 773d 4242 5e3d 1b98 94bd
00000070: e267 623d 7885 a4bc 1b8c 1d39 af81 60bd

fc4.weight f4 [2, 32]
-0.12435718 0.07312902 0.16801073 0.087652564 -0.04505983 -0.08538792 -0.12229331 -0.027029293
0.08175772 0.14375691 0.09120366 0.1215225 -0.018249243 0.073282175 -0.0904144 -0.08230539
-0.0221463 -0.011495956 0.11473267 -0.048742313 -0.1214817 -0.032780383 -0.008189695 -0.12977819
-0.045241505 0.070759915 -0.028183622 0.13434137 -0.025677973 0.062087152 0.085983 0.10357399
0.044339936 0.10691727 -0.020463625 0.064555064 0.10170016 -0.011111823 -0.17304704 -0.116014786
-0.03633364 0.082018085 -0.08742146 0.0667631 0.0044397116 0.07585765 -0.096351855 0.09960536
-0.106374115 0.1356501 -0.038922086 0.053028427 -0.14153254 -0.00058953336 -0.1099025 0.025125945
-0.07618022 -0.12466215 -0.12535551 -0.12350274 0.14413334 -0.060218386 -0.13700555 -0.09470967
00000000: faae febd abc4 953d 010b 2c3e 3083 b33d
00000010: a890 38bd dddf aebd ea74 fabd 896c ddbc
00000020: 9770 a73d 0335 133e fcc8 ba3d cae0 f83d
00000030: 707f 95bc f714 963d 2f2b b9bd ba8f a8bd
00000040: 286c b5bc 8959 3cbc f6f8 ea3d 05a6 47bd
00000050: 66cb f8bd b944 06bd 122e 06bc 93e4 04be
00000060: 284f 39bd 93ea 903d 57e1 e6bc c990 093e
00000070: 9d5a d2bc 194f 7e3d db17 b03d 9a1e d43d
00000080: cb9d 353d 71f7 da3d 55a3 a7bc 7235 843d
00000090: 2c48 d03d 5d0e 36bc 3e33 31be 2999 edbd
000000a0: 95d2 14bd 19f9 a73d 060a b3bd 18bb 883d
000000b0: 007b 913b 415b 9b3d 1f54 c5bd e5fd cb3d
000000c0: acda d9bd dce7 0a3e c46c 1fbd 5634 593d
000000d0: e8ed 10be ea8a 1aba 9014 e1bd edd4 cd3c
000000e0: 6004 9cbd df4e ffbd 325d 00be 01ef fcbd
000000f0: b197 133e 8ea7 76bd 2f4b 0cbe 25f7 c1bd

fc4.bias f4 [2]
0.026976991 0.041725244
00000000: dafe dc3c 17e8 2a3d
