models/dqn/dqn_model.pth (torch, 46872 bytes, 8 tensors)

fc1.weight f4 [128, 3]
000000 13 55 7d be 07 49 e5 3d c4 51 2a be 92 6f ba 3d
       -0.24739484 0.111955695 -0.16632754 0.091033116
000010 fc d7 d9 3d af 7a 98 bd 34 ed 00 be 69 4b fa 3d
       0.10636899 -0.07445275 -0.12590486 0.122214146
000020 0e 62 f5 be 42 cb c2 be d8 ba 98 bd 80 64 b9 bc
       -0.47926372 -0.38045698 -0.074575126 -0.02263093
000030 11 fb 9a be 8c 0b f4 bd 30 ad 0d 3d f1 2d f5 be
       -0.30269673 -0.11916265 0.034588993 -0.47886613
000040 bd 0f c3 3e 00 47 5f bb 0c dc 1d be 75 a1 c6 be
       0.38097945 -0.003406942 -0.15415972 -0.38795057
000050 c2 01 04 3f ec 0c 32 3e fa cf 33 be 0e 59 8e bd
       0.5156518 0.17387742 -0.17559806 -0.069505796
000060 7e ff 46 be 78 f7 c8 3d c8 63 d9 be 20 e7 06 3e
       -0.194334 0.09812826 -0.4245894 0.13174105
000070 20 cb 74 bd 82 bc be bd c3 5d 52 3d 1b 59 0c be
       -0.059764028 -0.09313299 0.05135895 -0.13705866
000080 7a 23 76 3e 2a 38 b5 bd 03 9b e4 3e ed 74 15 3f
       0.2403697 -0.08848603 0.44649515 0.5838154
000090 0f aa ff be eb 86 bb be 04 98 f3 be 46 61 5e be
       -0.49934432 -0.36626372 -0.47576916 -0.21716794
0000a0 24 96 d3 3e 08 36 d3 3e 5e b6 b5 be 7c 4b a5 bd
       0.41325486 0.4125216 -0.35490698 -0.08071038
0000b0 73 29 00 bf 2c 36 21 be b0 f5 bd be 9e e4 a0 be
       -0.50063246 -0.15743321 -0.37101507 -0.3142442
0000c0 41 4f 46 3e 99 b0 f0 be 77 1a 39 be 96 a4 0f bf
       0.1936617 -0.47009733 -0.18076502 -0.56110513
0000d0 62 d7 5e 3e 1c 27 72 be 92 fc 13 be 50 d4 2f bd
       0.2176185 -0.23647732 -0.14451817 -0.042927086
0000e0 10 35 35 3e f3 a3 60 3c ec ef 38 3e a9 06 d6 3e
       0.17696023 0.013710964 0.18060273 0.41801956
0000f0 83 e6 a1 be ea 06 93 3e ca 30 01 3f 84 39 86 be
       -0.3162118 0.28716213 0.5046507 -0.26215756
000100 e0 55 d0 be 84 86 97 3e 2d 5c b9 be c4 8a cf 3e
       -0.40690517 0.29594815 -0.36203137 0.40535557
000110 3b d2 0c 3f c9 db 04 3d 9c ec b7 3e 6b d4 f8 bd
       0.55008286 0.032436166 0.35922706 -0.121498905
000120 5f 09 3e bd 61 0a 8e 3d 45 72 c6 3d 9c 25 ea 3b
       -0.046395656 0.06935573 0.09689764 0.0071455967
000130 6e c0 78 bd 11 86 02 3e 35 d3 10 be f6 a1 bd 3e
       -0.06073039 0.12746455 -0.14143069 0.3703763
000140 df 09 16 3f c4 a1 c9 be bc cc 0d 3e 00 4e 39 bc
       0.5860881 -0.3938123 0.13847631 -0.011310101
000150 af e3 07 bf 68 d3 e7 3d 9c ed 0a 3f e6 de 6b be
       -0.5308179 0.113196194 0.54268813 -0.23034248
000160 22 65 57 be 86 e1 c8 3e 99 5d 0b bf d3 d5 67 3e
       -0.21034673 0.3923456 -0.54439694 0.22640161
000170 a6 42 9c 3e 46 7a d7 3d 70 3e 1c be 88 6f d9 3e
       0.305196 0.10521369 -0.15258193 0.42467904
000180 34 85 97 3e d7 5a ec be 2f f4 a7 3d d7 00 08 bf
       0.29593813 -0.46163055 0.08200871 -0.5312628
000190 60 33 cf 3d 22 44 6e be d1 d5 bc be 84 8b 06 bf
       0.10117221 -0.23268178 -0.3688188 -0.52556634
0001a0 aa c4 8e 3e be 9f 8a be 32 94 28 3f 12 45 d9 be
       0.27884418 -0.27075 0.6585113 -0.4243551
0001b0 b8 59 9b be c0 66 89 be 40 0a 4a be 95 a5 12 3c
       -0.30341887 -0.26836205 -0.19730473 0.008950611
0001c0 d6 7d 99 3e fa c9 f4 3e d4 27 0d be 90 e1 7d be
       0.29978818 0.47810346 -0.13784724 -0.24793077
0001d0 64 10 39 3e d4 85 00 be f6 c8 a5 3c 8e dd 10 3f
       0.18072659 -0.12551051 0.020237427 0.56588066
0001e0 88 1d 97 bd b5 e7 e3 be 5c e5 f9 3e 72 3f e2 be
       -0.073786795 -0.44512716 0.488078 -0.4418903
0001f0 58 3d b1 be 60 2b a5 3d e9 31 1c 3d 56 c9 24 bf
       -0.34617114 0.08064914 0.038133536 -0.64369714
000200 c3 70 dc be 08 23 40 be 04 31 08 3e 45 35 a2 be
       -0.4305478 -0.18763363 0.13299948 -0.31681266
000210 96 98 09 3e 99 25 8b be e1 b4 82 be 08 ef 26 be
       0.13437113 -0.27177122 -0.25528625 -0.1630212
000220 04 3f 14 be 5e 7d 2b be 9b d9 e9 3d bf 54 ae 3d
       -0.14477164 -0.16747043 0.11418458 0.08512258
000230 23 73 0b bf 03 3c 2a 3d f9 21 35 be 60 a3 02 3f
       -0.5447256 0.041561138 -0.17688741 0.5103054
000240 57 28 3b 3e fa 80 94 be 31 e0 bf 3d 78 99 c4 be
       0.18277107 -0.2900465 0.09368933 -0.38398337
000250 fa ff 41 be 12 59 41 be 44 b0 50 3e 23 5b 3f be
       -0.18945304 -0.18881634 0.2037974 -0.1868711
000260 a1 24 ae 3d 68 9a c5 3c 9e c7 dc 3e f1 62 fd 3e
       0.0850308 0.024121478 0.43121046 0.4948955
000270 3a b7 e5 bc 18 81 af 3d 6b 10 ce be 28 e7 e1 be
       -0.02804147 0.085695446 -0.402469 -0.4412167
000280 30 f7 88 3d 36 cd 0b 3f 3e b3 12 bb 0d 9c a8 3e
       0.06687772 0.5461 -0.0022384669 0.32931557
000290 d4 a5 90 be c8 49 b2 bc 07 c3 eb 3d ae c6 88 3e
       -0.28251517 -0.021763697 0.11511808 0.2671408
0002a0 24 4a ec be 5b c6 ac 3e 08 c3 8c bd 07 d1 a6 bb
       -0.46150315 0.33745083 -0.06873137 -0.005090836
0002b0 72 d6 ab 3e 3b df cc be df c2 bb be c0 76 67 bd
       0.33562046 -0.4001406 -0.36672112 -0.056509733
0002c0 24 da 3e 3e 34 eb c3 be b4 ee 1a be 8c 80 77 3e
       0.18637902 -0.38265383 -0.1513012 0.2417013
0002d0 85 00 f8 3d 18 d4 ca be 19 26 97 3e 93 09 09 3d
       0.12109474 -0.3961494 0.29521254 0.033456396
0002e0 3b 12 8e bd ba b9 ad be 38 8b ba 3d b8 df c5 3c
       -0.06937071 -0.3393076 0.09108585 0.024154529
0002f0 3b be bf 3e 04 29 aa 3c 95 7f 5e bc 49 99 1e bf
       0.37449822 0.02077151 -0.013580223 -0.61952645
000300 8c 26 0d bf 76 fb 80 3e 99 9a 90 be 2b ec 26 3e
       -0.5513694 0.2519185 -0.2824295 0.16301028
000310 ef 97 70 be c9 ca 1c be 36 33 06 bf 80 be d5 3d
       -0.23495458 -0.15311731 -0.5242189 0.104367256
000320 bc 68 d8 3e 67 f7 a2 3e 42 7a 75 be 40 c2 61 be
       0.42267406 0.31829378 -0.23972419 -0.22046757
000330 4c bf bc bb 80 2a aa 3e 76 9a f1 be cf 9f b6 be
       -0.005760109 0.3323555 -0.47188157 -0.356688
000340 33 ea cd 3e 45 01 f8 be 7f 5e 61 3e 58 43 fc be
       0.40217742 -0.4843847 0.22008704 -0.4927013
000350 b8 9a 30 bd 10 f3 27 be 36 a9 c2 3e 80 1e e7 3e
       -0.0431163 -0.16401315 0.38019723 0.45140457
000360 08 c6 9a bd a6 ae 05 bf 16 1c d1 3e ad 86 8d be
       -0.07557303 -0.5221962 0.4084174 -0.27641812
000370 d0 42 60 bd 02 4b 02 3f fe 1a 04 be 10 94 a2 bd
       -0.054751217 0.508957 -0.12900922 -0.07938397
000380 0c bb 02 3e 3c 84 c2 be 50 a7 91 bd 5c 3f 0a bf
       0.12766665 -0.37991512 -0.071119905 -0.5400293
000390 07 9d 23 be 95 d1 c1 3e 5e cd b7 3e 04 b2 07 bf
       -0.1597787 0.3785521 0.3589887 -0.53006005
0003a0 82 6f be be 34 d9 09 bf 23 c2 25 3e 53 b8 1e be
       -0.3719445 -0.5384705 0.16187339 -0.15500002
0003b0 40 1d 12 bf 23 ce 45 bc fc 14 7c 3e 78 a7 e2 be
       -0.5707588 -0.012073073 0.2461738 -0.44268394
0003c0 e9 22 2e 3d 08 fc fb be aa 1f 86 be da df 45 3d
       0.04251376 -0.49215722 -0.26196033 0.048309185
0003d0 58 fe f7 bd f8 0c bd 3e e6 d6 73 be bf 6f ad 3e
       -0.12109059 0.36923957 -0.23812446 0.33874318
0003e0 de 23 95 be 49 3f b6 3c 18 b7 72 3e 3b 86 00 bf
       -0.29128927 0.022246974 0.23702657 -0.5020482
0003f0 31 29 b1 3d f0 d0 6f bd dd 42 09 bf 60 d1 1b 3e
       0.08650435 -0.058548868 -0.5361765 0.15216589

fc1.bias f4 [128]
000000 c0 b7 f1 3e ef 1c 3a bf c9 de 6f be c0 05 fd bd
       0.47210503 -0.727004 -0.2342483 -0.12354612
000010 4c 20 b1 bd 53 a6 be 3d 70 f8 8f 3d 2d 07 46 be
       -0.08648738 0.093090676 0.070298076 -0.19338675
000020 25 f3 e3 be 86 49 fa be 1c 86 b4 be 12 25 df be
       -0.44521442 -0.4888422 -0.35258567 -0.4358297
000030 20 ff b4 3d ef f2 57 3e 10 31 92 bd fa 03 8a be
       0.08837724 0.21088766 -0.07138264 -0.2695616
000040 9f e8 39 3e 2b c8 b8 3e 7e 9a 9e 3e 3d d9 fa be
       0.18155144 0.36090216 0.30977243 -0.48993865
000050 00 a4 b4 be 4a b8 bc 3e 90 dd 9c 3e 2c f8 31 bf
       -0.35281372 0.3685935 0.3063779 -0.69519305
000060 da ed ab 3e 49 9f 0d 3f b4 c3 7e 3e 34 80 c1 be
       0.33579904 0.55321175 0.24879342 -0.37793124
000070 03 60 8d be 40 f0 7d be 0a 30 29 3e 57 2e 7b be
       -0.27612314 -0.2479868 0.16522232 -0.24529396
000080 17 a7 e8 be d8 b1 62 3e c8 50 a2 3e 2c 49 aa 3d
       -0.4543998 0.22138155 0.31702256 0.08314738
000090 0e 3a 0f 3f bf 19 0c bf 10 0e ba bd d9 69 da 3e
       0.5594796 -0.54726785 -0.090847135 0.4265888
0000a0 ee 88 ab 3e b8 14 5b 3e 71 48 31 3f 0b c8 a2 3d
       0.33502907 0.21394622 0.6925116 0.079483114
0000b0 db 01 1f 3e 73 a2 93 be 5b 3f 25 bf b4 85 f2 3e
       0.15528052 -0.28834876 -0.645498 0.47367632
0000c0 e9 10 6a be 7d 87 f2 be 6f 0a dd be 42 b1 4e bf
       -0.22858013 -0.47368994 -0.43172023 -0.80739224
0000d0 99 c2 3c 3f ac 44 b6 3e 1a 5e ac be aa b5 18 be
       0.7373443 0.35599267 -0.33665544 -0.1491305
0000e0 ff 49 4b bd b8 bd 74 be 8e 7e 0a bf 72 dd c2 3e
       -0.049631115 -0.23900497 -0.5409936 0.38059574
0000f0 72 b2 64 be eb 58 9c 3e 82 40 25 bf 41 b7 37 3e
       -0.22333696 0.3053659 -0.64551556 0.17941
000100 04 03 ee 3e 1b 63 e0 be c0 ba 57 3e 8d af 80 bf
       0.46486676 -0.4382561 0.21067333 -1.0053574
000110 6e 6b 85 be 4e e2 d9 bd 73 c3 8c 3e c8 70 c3 3e
       -0.26058525 -0.10638867 0.27492866 0.38171983
000120 c0 e3 d9 3e c8 8f b0 3e 70 72 cb bd 98 df 98 3d
       0.42556572 0.34484696 -0.099339366 0.07464522
000130 7f 24 ae 3e c0 b5 83 bd ea 08 87 be 92 f8 ab bd
       0.3401222 -0.064311504 -0.26373988 -0.083970204
000140 ed 25 46 3e 30 37 ba 3e 98 57 05 bf 83 32 16 bf
       0.19350405 0.3637023 -0.5208678 -0.58670825
000150 8c 85 5b 3d c5 b7 0f be a5 43 5a be 3f bd 1b 3d
       0.053594157 -0.14034946 -0.21314867 0.038022276
000160 80 32 13 3f 52 7e 27 3f 57 01 83 be bd 3e 26 3c
       0.5749893 0.65427125 -0.2558696 0.010146794
000170 ef 45 2f be 44 31 b7 be a4 e3 01 bf d9 c8 1f bf
       -0.17116521 -0.35779774 -0.5073798 -0.62415844
000180 19 ad 2b be cb b9 13 3f c0 3a 7a 3d 0d 2c 1c 3f
       -0.1676525 0.5770537 0.061091185 0.61004716
000190 39 14 0a 3e 88 dc 89 3e b9 76 3b bd 3c d1 f6 be
       0.13484277 0.26926064 -0.04576752 -0.48206508
0001a0 4c 24 87 be 3d f5 27 bf c4 3e 9f 3e 82 b8 4f 3f
       -0.2639488 -0.6560858 0.31102574 0.8114091
0001b0 f5 3f 8d bd 97 e3 53 3e 74 e4 69 be 84 f5 66 bf
       -0.068969645 0.20692287 -0.22841054 -0.9021838
0001c0 1d a8 0c bf 60 50 a6 3d b0 c8 2e 3e 22 79 81 be
       -0.5494402 0.08120799 0.17068744 -0.2528773
0001d0 25 be 23 3f 30 0d ae bd 86 d6 31 bf 84 c5 9a 3e
       0.6396201 -0.08498609 -0.6946796 0.30228817
0001e0 6f 22 1a 3f 10 1e 18 bf 4c 51 d2 3e 6d 8f 59 bd
       0.6020879 -0.5942087 0.4107765 -0.053115297
0001f0 cc 49 4c be 01 d9 06 3e 1c 74 04 bf ad bc 24 bf
       -0.19950026 0.13168718 -0.5173967 -0.64350396

fc2.weight f4 [64, 128]
000000 29 71 89 3c e5 c2 f8 bd ef 04 89 3d 41 ee b0 bd
       0.016777592 -0.12146548 0.06690394 -0.08639193
000010 e7 bb a8 3d 40 65 0e 3d 7b d9 90 3d de f6 98 3d
       0.082389645 0.03476453 0.07072731 0.07468961
000020 f8 67 80 bd bf fb 34 bd b1 f4 36 3d 5f 1e 33 3d
       -0.062698305 -0.044185396 0.04466695 0.043730136
000030 fe d5 73 3d 13 83 98 bd a1 b0 21 bd 14 17 e9 3c
       0.05953025 -0.074468754 -0.039475087 0.028453387
000040 b8 79 ed bc b1 d1 57 bd 27 d0 aa bd 05 80 ed bc
       -0.028988704 -0.05269021 -0.08340483 -0.028991709
000050 dc 31 a2 3d e0 13 5c bc 39 ab 68 bd d3 2e 25 bd
       0.07919666 -0.013432473 -0.056803916 -0.04032786
000060 f9 6b 93 3d d2 b6 12 3d 17 94 db 3c 3c cc 85 bd
       0.071983285 0.035818882 0.026804013 -0.06533095
000070 6f 69 b4 3d 10 17 99 3b c4 40 0d 3d 54 ac 60 3c
       0.08809172 0.0046719387 0.034485593 0.013712961
000080 2c 86 98 3d fe 58 93 bd 0a 67 50 3d fa d4 9c bd
       0.07447466 -0.07194708 0.050879516 -0.076578096
000090 8d 3f ac 3d 5b 67 5f bd 70 40 a9 3b d0 35 d4 bc
       0.08410559 -0.054541927 0.0051651523 -0.025904566
0000a0 7a 6b 90 bd f9 e8 9e bd 66 97 b0 3d e2 5e 24 bd
       -0.070517495 -0.0775928 0.08622627 -0.04012955
0000b0 73 75 19 bd fc 76 a0 3c 92 7d 4c bd bd 83 de bc
       -0.037465524 0.019587986 -0.04992444 -0.027162427
0000c0 89 a3 70 3d 0c 1d 8d bc 30 03 8a 3d 8f 1c 0a be
       0.05874971 -0.017225765 0.06738889 -0.13487457
0000d0 15 39 7d 3d 31 a1 a2 3d ad 28 e9 bd 5d 8a b6 3c
       0.061822016 0.07940901 -0.113847114 0.022282774
0000e0 d3 10 b6 bc 8c cb 4c bd 04 d9 b0 3c 92 37 51 bd
       -0.02222482 -0.049998805 0.021587856 -0.051078387
0000f0 fe 6b c2 bc 40 51 ac bc e5 fc 8f bc 11 00 ab 3d
       -0.023733135 -0.021034837 -0.017576644 0.08349622
000100 8d b0 49 bd ef 00 b1 3b d7 ea 88 bd 17 77 07 3c
       -0.049240638 0.0054017226 -0.06685417 0.008268139
000110 4f 4c e7 bd b4 a1 0e 3d 26 60 8b 3d d9 4b c2 3c
       -0.112938516 0.03482218 0.06805448 0.023717808
000120 56 e4 62 3d 40 95 1b bb 05 df 1b bd d2 90 90 bd
       0.05539354 -0.0023740083 -0.038054485 -0.07058872
000130 48 54 6d bd a5 5d 80 bd 93 d9 1e 3d ac ce 36 3d
       -0.057941705 -0.06267861 0.038781714 0.04463069
000140 12 ce ac 3d 38 e9 97 bc 77 df 97 bc ed 40 69 bc
       0.08437742 -0.018543825 -0.018539174 -0.014236671
000150 37 db c2 bd c4 2a e1 3c 1c 92 f0 3c 9f 57 e3 3c
       -0.09514468 0.027486213 0.029366545 0.027751742
000160 23 d5 a5 bd aa d9 7c bd 43 6d 7c 3c 9a a2 b5 3d
       -0.08097293 -0.061731018 0.015406909 0.088689044
000170 39 81 eb 3c 12 48 08 3d 10 17 8c 3c 0d 2d 27 3c
       0.028748142 0.033271857 0.01710084 0.010203612
000180 0b 52 4e 3d 82 73 3c 3d c0 37 17 3c a5 c7 66 3c
       0.05037121 0.046008594 0.0092296 0.014085685
000190 97 be 9c bb 8f de 49 bd 28 b8 93 bc f2 d7 a1 bd
       -0.0047834623 -0.049284514 -0.018032148 -0.079025164
0001a0 4b 25 51 3d 17 b7 ec bd 0c b0 a1 bd 93 ec 00 3e
       0.051060956 -0.11558359 -0.078949064 0.12590246
0001b0 3c c9 0b be 17 b6 01 bd 3e b0 16 bd 99 da 01 be
       -0.13650984 -0.031667795 -0.03678917 -0.12681045
0001c0 d7 ea 84 bd 20 b2 50 3b 00 4b 82 3a 12 af a4 bd
       -0.06490105 0.0031844452 0.0009940565 -0.080412045
0001d0 42 8f ef 3d 4a 25 62 3d 0b a9 07 3d 4a e8 32 3d
       0.11697246 0.055211343 0.033120196 0.04367856
0001e0 99 ae cd 3c 82 4f 9d bd 8a 65 eb 3b 71 57 3f 3c
       0.025107669 -0.076811805 0.0071837353 0.0116785625
0001f0 fd b5 14 3d 94 42 af bc d3 ef dc bd 21 57 0f bd
       0.03630637 -0.021394052 -0.1078793 -0.034995202
000200 1d 54 a1 3d 39 f1 5a bd 5a f9 d2 bc 2f a6 41 bd
       0.078773715 -0.053452704 -0.025753666 -0.047277626
000210 1a a6 36 3d 6b df 78 3d 1e c3 86 bd f1 2f f4 bc
       0.044592 0.060759943 -0.065801844 -0.029808016
000220 e2 71 82 bd 19 d5 8e bb 8f 50 16 3b 50 f3 b4 bd
       -0.06369378 -0.0043588993 0.00229362 -0.08835471
000230 f0 06 fd 3c e7 19 80 ba 4b 2a b3 bd 8b 48 89 bd
       0.030887097 -0.0009773344 -0.08748301 -0.067032896
000240 1a b7 84 bd cc 5f 14 bc 00 4d 53 bc b6 e6 cf ba
       -0.06480236 -0.009056043 -0.012896776 -0.0015861604
000250 18 53 81 bc 00 63 4a 3a b7 ca db bc 85 a5 4d 3b
       -0.015786693 0.00077204406 -0.02683006 0.0031379175
000260 4c 43 cd bc 41 09 95 3d b6 fb 41 3d 80 1f 79 3a
       -0.025056504 0.07277156 0.04735919 0.000950329
000270 48 dd 7e bc ba 8d 2d 3d d4 fd 69 bc f9 72 05 3d
       -0.015555687 0.04237149 -0.014281709 0.03258035
000280 88 7e ee 3a dc df 84 bd f0 3d df bc f7 31 b7 3d
       0.0018195668 -0.0648801 -0.027251214 0.08945077
000290 f2 6e 60 3d 6b 60 45 bc 40 73 a7 bc ff 65 e4 bc
       0.054793306 -0.012046914 -0.020440698 -0.027880667
0002a0 da b9 71 3d a7 01 94 bd 8a 23 93 3d 0a 63 a5 3b
       0.059015132 -0.07226878 0.07184513 0.0050472068
0002b0 d6 84 a0 bd c0 3f c9 ba 76 db 33 3d 49 17 68 bc
       -0.078378364 -0.0015354082 0.043910466 -0.014165708
0002c0 69 98 ba bd 4b b4 95 bd d1 19 f9 bc c1 77 d7 3c
       -0.09111101 -0.07309779 -0.030407818 0.02630222
0002d0 e8 b0 93 3d f8 67 92 3c 11 45 1b 3c d2 cd 69 bd
       0.072114766 0.017871842 0.009476916 -0.05708105
0002e0 32 29 3e 3c 23 59 81 3d a8 05 6c bc f4 05 fa 3c
       0.011606501 0.063158296 -0.014405645 0.030520417
0002f0 ca b6 a5 3c 88 cf 89 3b cb 63 1b 3d 9a 6e 22 bd
       0.020228762 0.004205648 0.037936967 -0.03965626
000300 5b 2d 72 3a 25 b1 98 3c 30 4f 54 bd ff d3 8f bd
       0.0009238326 0.018639157 -0.05183333 -0.07022857
000310 67 e1 cd bb c1 a3 c2 bd 8c 90 04 be 1e 3d 2b bd
       -0.0062829736 -0.0950389 -0.12945765 -0.041806333
000320 f6 a3 61 3d 00 54 17 bc ed 9d 8e 3d 78 76 eb 3c
       0.055088006 -0.009236336 0.06963716 0.028743014
000330 f4 18 ae 3d 40 4d f3 3a dc d3 93 3d d6 6a 4e bd
       0.08500853 0.0018562451 0.07218143 -0.050394855
000340 4b 28 85 3d 17 2b dc bc b3 3a 85 3c 15 c5 47 3d
       0.06501826 -0.026876016 0.016263342 0.048771936
000350 8d bb 10 3c 80 2e 79 3d a7 d4 72 bd 6c 29 6e bc
       0.008833778 0.06083536 -0.059284832 -0.014536243
000360 be e5 3a 3d c1 36 2e 3d 58 6d 4e bc db 06 ba 3c
       0.045629255 0.042532686 -0.012599312 0.022708347
000370 2c 40 e6 3c d8 be 8a bd d8 2b d6 bc 3b 20 f1 3c
       0.028106771 -0.06774682 -0.026143953 0.029434314
000380 94 d0 4a 3d e3 bd 13 3d 47 55 8d bd 76 55 49 bc
       0.04951532 0.036069762 -0.06901031 -0.012288442
000390 07 ed 74 3a c1 94 d4 bc d4 28 98 bd b1 3d a8 bd
       0.0009343181 -0.025949838 -0.07429662 -0.08214892
0003a0 3d b8 a6 bd 45 a8 b4 bb 94 f5 a3 bd 3f 47 51 3b
       -0.081406094 -0.0055132234 -0.08005825 0.0031933335
0003b0 2a e2 2e bd 40 a8 57 bd 00 d6 78 bd 5e 6d 9c bd
       -0.042696156 -0.05265069 -0.06075096 -0.07638048
0003c0 6d c4 87 bd 4e cc 29 3d 9e 31 65 3d 7d e2 08 bd
       -0.06629262 0.041454606 0.05595552 -0.03341912
0003d0 ee c9 69 bc 59 54 00 bd d5 3b 63 bd 9e 73 10 3d
       -0.014269335 -0.03133044 -0.055476982 0.03526651
0003e0 90 9c 77 bd 2b 58 5c bd eb 43 f4 bd 6d a4 d5 bc
       -0.060452044 -0.05379502 -0.11927017 -0.02607938
0003f0 9d 10 e1 bd ed b3 2b bc 26 a0 44 3d 7f 0c f5 3c
       -0.10989497 -0.010479909 0.048004292 0.029913185

fc2.bias f4 [64]
000000 4f 3f 05 3e a4 e9 7b 3d 32 53 81 bd fa 9f 89 bd
       0.13012432 0.061502114 -0.06314696 -0.06719966
000010 0e ff 1f be e2 d7 a9 be 88 ee 9a bc 9b 27 cc 3c
       -0.1562464 -0.33172518 -0.018912569 0.02492123
000020 ce a2 29 bb ad a0 af 3d d8 d3 78 bd 1a 48 0b bf
       -0.0025884393 0.08575568 -0.060748905 -0.54406893
000030 0d c0 5c 3d fa 02 2c bd 2f 52 9b 3c e4 e3 f1 3c
       0.05389409 -0.041995026 0.018960087 0.029527612
000040 f4 63 7d 3d 40 29 ae bd 72 eb a2 bd 03 d8 8a 3d
       0.0618629 -0.085039616 -0.07955064 0.06779482
000050 d9 22 86 bd 89 8b 59 3c 3a 4a 40 be 9a d6 e0 be
       -0.065496154 0.013277897 -0.18778315 -0.43913728
000060 12 e4 3e bd a0 88 11 3e b7 6c b5 3c 3b 05 21 be
       -0.046604224 0.14212275 0.022146566 -0.15724652
000070 72 53 87 3c ed c1 a6 3c 6e 9c b0 bb 75 97 c2 bd
       0.016519282 0.020356143 -0.0053897416 -0.095015444
000080 e8 7f 3f 3e ec 0e 7b 3d db b4 71 3c ec 70 98 be
       0.18701136 0.061293527 0.014752592 -0.29773653
000090 84 5d 9f 3c 67 e5 5d 3d 93 8d a8 3d 06 cb 11 bf
       0.019453771 0.054173853 0.08230128 -0.56950414
0000a0 d0 aa b0 bd b9 65 0b bd 98 e5 cd bd e0 71 a7 3b
       -0.0862633 -0.034032557 -0.10053557 0.0051100105
0000b0 24 78 29 3d 0b ad 02 bf c6 dd fe 3d bc b0 21 bd
       0.04137434 -0.5104529 0.12444644 -0.039475188
0000c0 11 90 84 be e6 99 cc 3d 4d bb ba be 3b 9a 2a bd
       -0.25891164 0.09990291 -0.36471024 -0.041650992
0000d0 6f ef 95 bb b4 3d 6f bd fb 7e 18 bd b1 d2 1a 3c
       -0.004575662 -0.058408454 -0.037230473 0.009449647
0000e0 7a 04 b2 be 9e ad 83 bc 57 c7 29 3e fb c1 10 3e
       -0.3476904 -0.016073998 0.16579948 0.14136498
0000f0 b0 87 cd 3c d8 d4 43 bc 0b c8 8d 3d be fb 64 3d
       0.025089115 -0.011952601 0.06922921 0.055904143

fc3.weight f4 [32, 64]
000000 ad a9 74 bd 23 ba 00 3e b2 43 fe 3d 9e 1d a2 bc
       -0.059732128 0.12571006 0.124152556 -0.019789513
000010 fd 86 05 3e eb 9b b9 bd d8 e6 c7 bc d7 ec 83 3c
       0.13039775 -0.09062942 -0.024402067 0.016104145
000020 6e 21 0a 3d 5e 2b ed 3d 14 14 e7 bd 1e 90 3d 3e
       0.033723287 0.11580537 -0.112831265 0.18512008
000030 a1 79 f2 bb 78 39 97 3d 8d d6 60 3c 43 3d 92 bd
       -0.007399753 0.07384008 0.013723028 -0.07140591
000040 fa 7c ec 3b 7e af 02 3e 56 17 a3 bc f4 f1 51 3d
       0.007217047 0.12762257 -0.019908588 0.051256135
000050 02 cb 4f 3d 62 2d 63 bd 83 25 bd b9 14 57 6d bd
       0.050730713 -0.055463202 -0.00036076838 -0.057944372
000060 a0 67 de 3c ca 7d 7d 3d 3b b0 88 3d 50 00 e4 3d
       0.027149022 0.06188754 0.06674238 0.11132872
000070 78 1f b8 bc 60 7e 26 bd fa 99 a6 bd 99 a6 c2 bb
       -0.022475943 -0.040647864 -0.081348374 -0.00594027
000080 4d 03 8f bd 98 33 fe bd 6c 97 86 3d c9 c4 0a bd
       -0.069830514 -0.124121845 0.0657185 -0.033879075
000090 5b 9f 0c 3e c7 16 95 3d 01 03 22 bd ce ad 39 3c
       0.13732664 0.07279735 -0.039553646 0.011332942
0000a0 ce 47 c5 3d 34 0c f4 bd 50 7e 1d 3d 74 b8 a1 3d
       0.09632836 -0.1191639 0.03845054 0.0789651
0000b0 d3 0c 06 be d2 51 d0 bd 57 88 cd 3d 3f 42 8f 3d
       -0.1309083 -0.10171856 0.100357704 0.06995057
0000c0 9c 98 15 3d 47 8c 0d bc 45 36 27 bc a4 57 ee 3d
       0.036522493 -0.008639402 -0.01020581 0.1163781
0000d0 2e 08 01 3d be 92 93 3b 0d c7 ff bd db 05 9e 3d
       0.03150194 0.004503577 -0.12489138 0.077159606
0000e0 75 2b 14 be 39 1d 8e bd 79 82 e0 3d b0 99 80 bd
       -0.14469703 -0.069391675 0.10962386 -0.062793136
0000f0 46 b2 cd 3d d2 c6 82 3d fb b4 30 3d f6 12 bc bd
       0.100437686 0.06385578 0.043141346 -0.09183304
000100 bd 55 fa 3d d0 42 a3 bb 80 d7 36 bd b8 6a b3 3d
       0.122233845 -0.00498233 -0.04463911 0.08760589
000110 4d a4 16 3c 89 5c 88 bd 40 71 1c bd 08 4c 81 bd
       0.009194446 -0.06658275 -0.03819394 -0.0631333
000120 5a 8f 96 bd 60 66 35 bd 40 b2 86 3d c5 13 0c 3d
       -0.07351561 -0.044287086 0.06576967 0.03419854
000130 39 9c ca bd cb fd 8f 3d d8 9e 6f bd 30 66 42 bd
       -0.09893078 0.07030829 -0.058501095 -0.047460735
000140 8d 41 57 3c fd 0d ba bd eb bb ba bd b3 97 72 bd
       0.013138187 -0.09084699 -0.09117874 -0.059226703
000150 20 1d fd 3c a4 50 2f bd 8c f1 c4 ba 92 e2 e5 3d
       0.030897677 -0.042801514 -0.00150256 0.112248555
000160 60 b5 f4 bd 75 f3 ac 3d d9 30 44 bd 81 13 95 bd
       -0.11948657 0.08444873 -0.047898147 -0.07279111
000170 f2 b0 e6 3d d3 cc c4 bd 0c 98 88 3b d1 92 fd 3d
       0.112642184 -0.096093796 0.004168516 0.12381519
000180 b4 cf 09 3d dc 92 fe bd c6 2c e7 bd 5e c9 e8 bd
       0.033645347 -0.12430355 -0.11287837 -0.11366533
000190 c0 d4 c2 bd 35 7d 23 bd 3c e9 bd bd 56 85 2d bd
       -0.09513235 -0.03991433 -0.092730016 -0.042363487
0001a0 e0 dd 2a bd c6 fc 9e 3d d4 99 b2 3d fc 8a d7 3d
       -0.041715503 0.077630565 0.08720747 0.10524556
0001b0 e8 d4 29 3d c6 48 99 3d 33 47 f8 3d 1c 0f a3 bd
       0.04146281 0.074845836 0.12122955 -0.07961866
0001c0 64 0e b3 bd 57 d2 ad 3d 8d fc 66 bd e5 74 a2 bc
       -0.08742979 0.08487385 -0.056393195 -0.01983113
0001d0 90 86 8b bc 00 e8 fb 39 a7 cb ac bd 3a 18 83 3d
       -0.017031938 0.00048047304 -0.08437281 0.06401105
0001e0 db eb c9 bd c7 c5 ed bd c5 52 81 3d b3 4f fc 3c
       -0.09859439 -0.11609989 0.06314615 0.030799722
0001f0 4b df ad 3d 69 b7 35 3d e2 7a fe bd 8c d1 db 3d
       0.084898554 0.044364367 -0.12425782 0.10733327
000200 d1 e7 cd 3c 4a 5c 58 3b 72 4f b8 bd 6f a8 ca bd
       0.025134953 0.0033013993 -0.08999528 -0.098954074
000210 b5 dd 2c be 71 88 0d 3d 3c 2a 0f 3d 67 07 3d 3d
       -0.1688145 0.03455395 0.034952387 0.046149638
000220 9b b1 1f 3d 04 b2 87 3d 74 11 53 3b bd c3 67 3d
       0.038987737 0.06625751 0.0032206448 0.056583155
000230 d7 57 de bc 82 63 77 bc 41 1b b1 bc 80 62 b8 3d
       -0.027141495 -0.015099408 -0.021619441 0.090031624
000240 d9 e2 9e 3d 97 07 fb 3d 4c d0 a0 bd d6 81 aa bc
       0.077581115 0.12257307 -0.078522295 -0.020813864
000250 81 ea e6 bc 0f 06 3c bd 78 2b 44 bd 2a 08 ce bd
       -0.028187992 -0.045904215 -0.047893018 -0.10060151
000260 80 b3 22 3d 0d ee c1 3d 97 eb 33 be ee 88 98 3d
       0.039721966 0.09469233 -0.17570339 0.07447992
000270 78 85 7b bd 79 ac 57 bc c9 7b 97 3d 24 23 a9 3d
       -0.061406583 -0.013163679 0.07396657 0.08258656
000280 9d 08 0e 3b a7 9f 8b bd f1 6e 97 bd 05 07 ed 3b
       0.0021672614 -0.06817561 -0.07394207 0.007233503
000290 c0 52 de bd ec 63 6b 3d 72 30 e3 bd dd 46 b8 3d
       -0.10855627 0.05746834 -0.110932246 0.08997891
0002a0 22 46 bf bd 86 0b b5 bd 48 8c 0d 3d 2a 9e a7 3d
       -0.09339549 -0.088400885 0.03455761 0.08184464
0002b0 e2 8c 07 be 15 59 06 bc b0 a0 4c 3c 29 91 ac 3d
       -0.13237336 -0.00819995 0.012489483 0.084261246
0002c0 30 3f fa bd cc fa 2f 3e 68 06 5b bc 62 5e a6 bd
       -0.12219083 0.17185515 -0.013368227 -0.08123471
0002d0 4b 00 9d bc 8d 14 ec 3d 9d 68 e2 bd 00 3a d4 bd
       -0.019165179 0.11527357 -0.1105511 -0.10362625
0002e0 aa fc 12 bd d9 b8 9d 3b 4e 87 d9 3d 41 70 72 3e
       -0.03588549 0.0048132953 0.106215104 0.23675634
0002f0 df 03 91 bd e1 12 dc 3c d1 a5 a4 3d fe a4 ac bd
       -0.070808165 0.02686447 0.080394395 -0.08429907
000300 9c 42 ba bd 41 5b cf 3b 02 23 e3 3d f5 fe 98 bc
       -0.09094736 0.006328017 0.110906616 -0.01867626
000310 cc 0b b7 ba b2 92 c2 3b e4 0a b3 bd e8 4e 8a bd
       -0.0013965308 0.0059378976 -0.087423116 -0.067533314
000320 50 18 ad 3d 3b 37 8b 3d c3 e4 bb 3d 79 85 57 bc
       0.08451903 0.06797644 0.09174492 -0.013154381
000330 4c 68 91 bd 15 8b 47 3d 3b e1 f7 bd 2c 1e 10 bd
       -0.07099971 0.048716623 -0.12103506 -0.035185024
000340 6e 25 cc bd 53 2a e1 3d a7 04 cd 3a 1b 0a 83 3d
       -0.09968077 0.10994401 0.0015641645 0.06398412
000350 1a 02 9b bd 32 3d b2 3c 93 94 fc 3c 1b 12 34 be
       -0.0756876 0.021757696 0.030832564 -0.17585032
000360 f8 64 aa bc 34 d4 11 be 27 6e c3 3d 86 cc d5 bd
       -0.020800099 -0.14241105 0.09542494 -0.104394004
000370 08 40 eb 3c c6 bd 55 bd a4 2c d5 3d c6 ac 0b bc
       0.028717056 -0.052182935 0.10408905 -0.008525079
000380 7f 0a eb 3d ee 67 6f 3d 0a 45 bc bd 9a 61 7c bd
       0.11476611 0.058448724 -0.09192856 -0.061616518
000390 28 e2 f6 3b 13 18 b9 bc c0 a4 a1 bd ca 1f 9b 3c
       0.007534284 -0.022594487 -0.07892752 0.018936057
0003a0 0c 6e 95 bd a6 85 f3 bd 99 2d 11 be 7e 6f cf bd
       -0.072963804 -0.11890726 -0.1417755 -0.10128687
0003b0 25 fa bd 3d ba a9 3b be f4 ad aa bc 91 e7 71 3c
       0.09276227 -0.18326464 -0.0208349 0.014764682
0003c0 88 6d 2f 3d 15 6f b8 3d df de 1e be d9 cc fb bd
       0.042829067 0.09005562 -0.15514706 -0.12294931
0003d0 8b 1f 12 bd 3a 4c 52 3d 37 19 2b bd a7 ac c4 bb
       -0.035674613 0.051342227 -0.041772094 -0.006002027
0003e0 c1 eb 2a bd 2d e5 f6 bd 61 22 18 bd c4 42 6f 3d
       -0.04172874 -0.120554306 -0.03714216 0.058413282
0003f0 f6 be 08 bd cc 3a e3 bd c4 40 c7 bb 4e b0 26 bd
       -0.03338524 -0.11095199 -0.0060807187 -0.04069548

fc3.bias f4 [32]
000000 19 26 24 bd 85 16 66 bd 52 f7 7f 3e fe 1d c1 3e
       -0.040075395 -0.05617382 0.24996689 0.37718195
000010 3c d0 53 3e a5 b5 8e bd db df b1 bd 2c 2d 0a 3d
       0.20684904 -0.0696824 -0.08685275 0.033734486
000020 bb fa c2 3c 29 37 4c be 48 35 11 bf 84 fa b8 be
       0.023801198 -0.19942917 -0.56721926 -0.36128628
000030 cc bb e2 3d fb 97 3e bd ef ac ac be 95 01 8c 3e
       0.11070976 -0.04653166 -0.33725688 0.27344957
000040 0d 0e da 3b f0 83 e3 3d 6c 1c 10 bf 10 cf 17 bf
       0.006654507 0.111091495 -0.5629337 -0.5930033
000050 f3 23 4b 3e f2 30 72 bf 71 1c 46 be e0 b9 69 3e
       0.19837932 -0.94605935 -0.19346787 0.22824812
000060 3a 4d a2 bf d8 bc 03 be 6f 12 ff bd 0b 38 06 3d
       -1.2679818 -0.12865007 -0.12454688 0.03276829
000070 d7 2a 86 bd 57 f4 42 bd 24 20 3b bf 72 d2 8a 3c
       -0.0655114 -0.047596302 -0.7309592 0.016946051

fc4.weight f4 [2, 32]
000000 1f 11 95 3d 37 78 31 bd 46 fe 36 3d 2c a4 a3 3e
       0.07278656 -0.043327536 0.044676088 0.3196119
000010 80 3e 70 3d ea 71 05 be e9 e2 e4 bd 6c 6b 45 3d
       0.058653355 -0.13031736 -0.11176092 0.04819815
000020 d2 47 07 3e 01 ad be 3d e3 bf 39 3e 66 e8 b6 3d
       0.13210991 0.093103416 0.18139605 0.08931045
000030 ce f5 80 bd b5 11 43 be 23 09 da 3d 79 de 5b bd
       -0.062968835 -0.19049723 0.10646274 -0.053678963
000040 c1 e2 27 3e ef bc 52 3d dc 0a c5 3d 5d b8 0d 3e
       0.16395094 0.051449712 0.09621212 0.1383986
000050 88 03 b1 bd 47 20 70 3e bd 02 86 bd 3d a1 31 be
       -0.08643252 0.23449813 -0.06543491 -0.17346664
000060 03 e0 b2 3e e1 ca 83 3d ca 0f c6 bd 03 89 93 3a
       0.34936532 0.064351805 -0.0967098 0.0011256043
000070 68 4f 4a 3e 60 04 10 be 32 eb fa 3d 80 80 92 3e
       0.19756854 -0.14064169 0.12251891 0.28613663
000080 4f 9b 71 bd 86 a5 b2 bc cb 42 89 be 98 5c 6a 3e
       -0.058986004 -0.021807443 -0.26808771 0.22886884
000090 ee 2f 07 be 33 20 55 3d 5f 70 2f 3e 3f dc f7 3d
       -0.13201877 0.05203266 0.1713271 0.121025555
0000a0 6a 24 b1 bd a1 0e bb bd 6a 01 1d 3e 6e 8f 7d be
       -0.086495236 -0.091336496 0.1533257 -0.24761745
0000b0 ee 60 56 be ed c9 e8 3d e2 af 65 be fc d3 ab be
       -0.20935413 0.11366639 -0.22430375 -0.3356017
0000c0 77 0a ac 3c 63 a5 48 be 11 30 cc 3e 6b 09 d2 be
       0.021001084 -0.1959434 0.39880422 -0.4102281
0000d0 7d 19 83 be fc 0a d1 be 29 bb 58 be 74 68 86 be
       -0.25605384 -0.40828693 -0.21165146 -0.26251566
0000e0 b8 3d 61 3e 65 b6 f3 3d 8e 8b 08 bd c4 b7 c2 3d
       0.219962 0.11900023 -0.033336215 0.09507707
0000f0 1a b6 a4 3e 87 b0 56 3c 31 71 e8 3e 60 5d c7 bd
       0.32170182 0.013103611 0.45398858 -0.09734607

fc4.bias f4 [2]
000000 26 6b a3 bf 61 af 7f 3e
       -1.2767074 0.24969245
